HW3/preTrained/ddpg_actor_Pendulum-v1_05112024_181619_.pth (torch, 71624 bytes, 5 tensors)

fc1.weight f4 [128, 3]
000000 c2 06 30 be b7 41 bb 3d 44 88 83 be 2a 46 f8 3d
       -0.17190078 0.091433935 -0.256899 0.12122758
000010 be fc 25 bf ce c9 e8 3d 09 57 b0 3e a7 62 4c 3f
       -0.6483878 0.11366616 0.34441403 0.7983803
000020 5d ca e0 3d f3 ad c2 be c6 b3 51 be 8e b7 81 bd
       0.10976098 -0.38023338 -0.20478734 -0.063338384
000030 e3 df 04 3f 5f ed e3 3d af 05 5f 3e dd 5a 3a 3f
       0.51904124 0.11129259 0.21779512 0.72794896
000040 54 50 27 be 8a 4a a0 3e d9 2a 2d be 5b 95 e3 be
       -0.16339236 0.3130687 -0.16910876 -0.44449887
000050 af f3 de bd 51 c4 fa be 3d 22 84 bf c0 1b 01 bf
       -0.10886323 -0.48977903 -1.0322949 -0.5043297
000060 9c 52 56 bf 4d 58 0c bf 3f 69 c7 be 5b fc 73 bf
       -0.837198 -0.54822236 -0.38947484 -0.9530694
000070 cd b5 99 be 5f 46 53 3e af 0a f8 3e 7b ef 19 3f
       -0.30021515 0.20632313 0.4844565 0.60131043
000080 26 98 85 3e 4b b5 b2 3e 07 9d fa 3d 94 e4 b9 be
       0.26092643 0.3490394 0.12236982 -0.36307204
000090 5b e3 0d 3f 0b 8d ca bd 24 ad e0 3e 56 93 c5 3e
       0.5542504 -0.09890183 0.43882096 0.3858897
0000a0 38 cd b5 3f 82 f4 cc 3e b4 57 4a be 37 fd 01 be
       1.4203253 0.40030295 -0.19760019 -0.1269425
0000b0 12 57 7a 3d 3b de 1b 3d 54 3f 13 3f db 5d ef 3d
       0.061118193 0.038053732 0.57518506 0.116878234
0000c0 4f c8 06 bf 85 9a 3d bf 4c b6 bb be 91 ad 20 3f
       -0.52649397 -0.74063903 -0.3666252 0.6276484
0000d0 8b ff 99 be 8e 61 55 3e 60 57 1c be ec e4 2e 3f
       -0.30077776 0.20837995 -0.15267706 0.6831806
0000e0 1d 48 94 bc b8 d5 2e be c5 cb f1 3e 87 60 f7 3e
       -0.018100793 -0.17073715 0.47225776 0.48315832
0000f0 eb 98 41 bf 20 ae 38 bf 2c 0a 24 3d f4 af 6a 3e
       -0.7562396 -0.72140694 0.040048763 0.22918683
000100 26 2f 00 3f 67 f8 16 3f 58 29 b1 3e 13 9f 23 bf
       0.5007194 0.5897278 0.34601855 -0.63914603
000110 07 9d d7 be 0d ee d0 3e b8 b1 24 3f 92 20 ae be
       -0.4211199 0.40806618 0.6433368 -0.34009224
000120 b8 0e ac be 75 e5 8c be f2 41 e4 be 61 3c 63 be
       -0.3360498 -0.27518812 -0.44581562 -0.22191001
000130 28 38 4f bf b3 56 4c 3e 9e 4c c9 be d9 76 0c bf
       -0.8094506 0.19954948 -0.39316267 -0.5486885
000140 bd de b2 be 50 33 81 be bf 7f f9 3e 87 20 eb bd
       -0.3493556 -0.2523446 0.48730275 -0.114808135
000150 9a 96 01 3f 62 02 86 be 06 f4 5d be 87 fd fa 3e
       0.50620425 -0.26173693 -0.21675119 0.4902155
000160 c6 27 84 bf 35 7a 89 be 49 b2 55 be a7 24 cd 3f
       -1.0324638 -0.2685105 -0.20868792 1.602681
000170 98 43 8d 3e 5d 70 0f bf 8b 18 33 3d 1f f4 10 3e
       0.27590632 -0.5603083 0.043724578 0.14155625
000180 ea f1 73 be ee bb 44 3e 32 0f a7 be 6d 8d 53 bf
       -0.23822752 0.19212314 -0.3262878 -0.82637674
000190 a6 ae 56 3e 96 a0 b1 3e 59 8d ff 3e df 9b e3 bb
       0.2096506 0.3469283 0.49912527 -0.0069460715
0001a0 89 0e b8 be 0b b0 e3 3e 2a 76 43 3e 53 11 80 3e
       -0.3594859 0.44470248 0.19088045 0.25013217
0001b0 5f 66 24 bf 44 3a e7 3e 73 58 6a 3e ed b4 f4 3d
       -0.64218706 0.4516164 0.22885303 0.11948571
0001c0 5e 76 e5 3e d1 d4 a8 be e3 e0 ce 3e 5b 3c 52 be
       0.4481687 -0.32974866 0.4040595 -0.20530836
0001d0 38 e3 39 3e 7b d3 24 bf 8f 1b 89 3d cd d5 e4 3e
       0.18153083 -0.64385194 0.066947095 0.44694367
0001e0 f7 92 1a 3f 0a a4 37 3d da 07 f5 be 4d 0b ca be
       0.603805 0.044834174 -0.47857553 -0.39461747
0001f0 e7 c0 f2 3e f3 5f 43 be a8 ce 01 bf fc ec f2 be
       0.47412798 -0.1907957 -0.5070596 -0.4744643
000200 90 3c 08 bf a8 0d 64 bb 0a 5d 91 bd 01 57 b5 3b
       -0.5321741 -0.0034798179 -0.07097824 0.0055340533
000210 e8 6d b7 be 1f d3 30 be 3f de 9e be b7 00 02 3e
       -0.3582604 -0.17268036 -0.31028935 0.12695585
000220 7b 50 aa 3f 16 59 f6 3e ad 18 f1 be c7 ff 9b bf
       1.3305811 0.48114842 -0.4708914 -1.2187432
000230 da c6 72 be db 91 15 3f 55 5b ff 3e 02 a8 23 bf
       -0.23708668 0.5842568 0.49874368 -0.63928235
000240 cf aa 39 3e cf 42 67 3f c0 1e fc 3e b5 40 bf be
       0.18131565 0.90336317 0.4924221 -0.37354055
000250 df c9 eb be 44 79 68 be 0f 5f 32 bf af 30 32 3d
       -0.46052453 -0.22702509 -0.696763 0.04350346
000260 ad 0a 83 be 1d cc 7d 3e 2c 81 c5 be 03 6f fc be
       -0.25594082 0.24784894 -0.38575113 -0.49303445
000270 8c cf 1a 3f 20 7e e9 3e 11 cc cb 3e 0a f0 9d 3d
       0.6047294 0.45604038 0.39804128 0.077117994
000280 d3 43 9b bf fa 22 b3 be 64 4b 72 be 43 02 82 be
       -1.2130073 -0.34987622 -0.23661572 -0.2539235
000290 88 de 05 bf 56 b5 a1 3e 91 d5 50 bf 67 8b ec 3d
       -0.5229268 0.3158366 -0.81575876 0.115500264
0002a0 0a 4f 3f bf 57 0e fa 3e ff 52 a4 bd 04 a7 11 3f
       -0.7472998 0.48839065 -0.08023643 0.5689547
0002b0 ce fe 1c be 8e a9 ec be 10 40 fd 3e 4f 35 86 bf
       -0.15331575 -0.4622311 0.49462938 -1.0485018
0002c0 bc 78 de 3e fc f5 09 bf 46 d5 35 3f ea c7 e6 3c
       0.43451488 -0.5389097 0.71028554 0.028171498
0002d0 66 57 9a 3d d8 17 a9 3d 60 0e 1b 3f 66 af 2a 3f
       0.07536201 0.08256501 0.6056881 0.66673887
0002e0 e9 50 b4 bd 70 f1 6a be 2e ce 32 3e 61 40 8a 3f
       -0.08804495 -0.22943664 0.17461464 1.0800897
0002f0 31 d9 0f 3f 3f 78 32 3f 51 f7 9c 3e 97 b2 11 3e
       0.5619078 0.6971473 0.30657437 0.14228283
000300 be 5f 44 bf 89 6b f2 be e3 3f db 3e 26 42 5a bf
       -0.7670859 -0.47347668 0.4282218 -0.85257185
000310 5d 93 f6 3d c1 1d d8 3e 9d 3e f3 be d0 10 69 bf
       0.12039826 0.422102 -0.47508708 -0.9104128
000320 bb 10 06 bf b0 23 06 3f 4f b2 89 3e 0c c3 ae 3e
       -0.5236928 0.52398205 0.2689385 0.34133184
000330 d6 ee b2 bd 52 79 5e 3e dd 69 11 3f cf 8f 3c bf
       -0.087369606 0.21725968 0.5680216 -0.73656934
000340 77 91 d2 be 95 3d ce 3e a2 af 23 3f e9 11 26 bf
       -0.41126606 0.40281358 0.6393987 -0.6487108
000350 a9 93 13 bf c0 38 c9 bc 19 fa 31 3e 59 ec 5b 3e
       -0.57647187 -0.024563193 0.17380561 0.21476878
000360 cd 8e ca 3e 8d 10 4a be 3e 50 d7 be 2c c9 0e 3e
       0.39562073 -0.19732876 -0.42053407 0.13943928
000370 7a f7 8b 3f 1a 92 83 3e 8d 61 05 bf 59 7d cd 3d
       1.0934899 0.25697404 -0.52101976 0.10033674
000380 37 1f 01 be f9 e7 28 be b5 0c 37 3f df 72 e9 3d
       -0.12609564 -0.1649474 0.71503764 0.11398863
000390 a4 25 33 3f dd ea 0c 3f 8a c6 fb bc f4 5e e9 be
       0.6997931 0.5504587 -0.03073432 -0.45580256
0003a0 ad 77 0f 3f 5c 42 e5 3d 28 64 fb 3e 8b 2a c6 3e
       0.56041986 0.11194298 0.4909985 0.38704333
0003b0 d8 e9 a1 3e 71 66 29 3d 81 fd 3c be 12 5b ab 3e
       0.3162372 0.04135746 -0.18456079 0.3346792
0003c0 f7 11 61 bf 6d b0 ef 3e b2 8c 1a 3c 7d 9b 5b 3e
       -0.8791804 0.4681429 0.009432958 0.21446033
0003d0 8d e1 f4 bc 71 fb bf 3e 7a e9 49 3e 04 06 89 bf
       -0.029892707 0.37496522 0.1971797 -1.0704961
0003e0 55 8a 69 be 80 f1 35 3e eb 07 76 bf e2 51 61 be
       -0.22806676 0.17767906 -0.9610583 -0.22003892
0003f0 d3 de 05 3f 5a 75 8a 3e 76 3c fb be 79 26 48 3e
       0.5229313 0.27042657 -0.49069566 0.19545926

fc1.bias f4 [128]
000000 7a fa b0 3e d8 99 84 3e 37 91 a4 3e bf c9 93 bc
       0.34566098 0.25898623 0.3214204 -0.018040536
000010 36 4e dc 3e 84 95 18 3d c6 3a 83 bc 32 10 f7 be
       0.4302842 0.037251964 -0.016019236 -0.48254544
000020 60 b1 e6 3e b6 e3 22 3e 96 9e 6d 3e 47 b7 a0 be
       0.450572 0.15907177 0.23205027 -0.3138983
000030 39 23 12 3f d9 cf 95 be 56 16 22 3f 4a d8 d5 3e
       0.57084996 -0.29260138 0.6331533 0.41766578
000040 6f a7 d7 be de a6 25 be 86 2e 0e 3f 3a 2b cb 3e
       -0.4211993 -0.16176936 0.5553974 0.39681417
000050 01 45 ec 3e 26 bf d4 be 19 0e 6a be f9 ca 3f 3e
       0.46146396 -0.41552085 -0.2285694 0.18729772
000060 8a 7d 3e be 8b e9 c4 3e 99 9f ed 3e 08 9e b4 3e
       -0.18602577 0.3845943 0.46410826 0.35276818
000070 ca 3d 5b be 97 2d 86 be 3f c8 9e 3e 9d f3 a8 3e
       -0.2141029 -0.26206657 0.3101215 0.32998362
000080 30 92 07 3f b5 8b 9e be 71 11 af 3e 7e a4 75 be
       0.5295744 -0.30965963 0.34192994 -0.2398853
000090 7b 2c 36 3e 57 24 27 3f bf 3d 83 be f5 ce b3 bd
       0.17790405 0.65289825 -0.25633046 -0.08779708
0000a0 4d 88 97 be c2 28 0a bd 79 f1 9c be 99 c6 fb be
       -0.29596177 -0.033730276 -0.3065298 -0.49174955
0000b0 ea 94 a6 3d 44 c7 d4 be d8 74 8e bd 14 df 37 be
       0.08133872 -0.41558278 -0.0695588 -0.17956191
0000c0 c0 af 7b bd 0f 55 91 be 2b cc 6a 3e ec c1 0a bf
       -0.061446905 -0.28385207 0.22929446 -0.5420215
0000d0 eb 24 ab be 25 d6 e4 3e 93 af 8e 3e 13 54 b2 3e
       -0.33426604 0.4469463 0.27868327 0.3482977
0000e0 05 b1 0c 3f be 0a 7e be e3 90 eb 3e 95 90 1e 3e
       0.5495761 -0.24808785 0.46008977 0.15484841
0000f0 99 4e 00 bf b7 4d 61 be 0d be b8 be 21 d5 0c 3f
       -0.5011993 -0.22002302 -0.36082497 0.5501271
000100 14 5c 00 be 83 0b 69 3e 91 df 75 be d9 a9 9b be
       -0.12535125 0.22758298 -0.24011065 -0.3040302
000110 e2 40 96 be 3f 61 11 be 9f af 54 be f2 88 c5 be
       -0.29346377 -0.14197253 -0.20770119 -0.38581043
000120 62 27 b7 be 11 65 af be a6 cb ed 3d df 4c aa 3e
       -0.35772234 -0.34256795 0.116111085 0.33261773
000130 fa 6b c4 be 3b e8 21 3f 33 5a 80 be 62 6c a5 3e
       -0.3836363 0.6324498 -0.25068817 0.32309252
000140 15 e9 85 be 7d 6a a3 3d ef 60 69 3e d3 bc e3 bc
       -0.2615439 0.079792954 0.22790883 -0.0278
000150 21 e0 eb be 79 0c 29 3e c7 23 4e be 16 12 87 3e
       -0.46069434 0.16508664 -0.20130835 0.26380986
000160 ec 67 f1 3e 47 37 1e 3f 97 9e a3 3e c3 1b fb 3e
       0.471496 0.61803097 0.31956932 0.49044618
000170 f5 b0 d3 3e 07 70 c0 3e ff 77 a4 be 00 f4 85 be
       0.41345945 0.3758547 -0.321228 -0.2616272
000180 f0 3d 05 3f f6 da ac 3e 9d 95 01 be 3e f0 53 be
       0.52047634 0.33760804 -0.12654729 -0.20697114
000190 22 22 1e bf ec 81 b4 be fa 90 81 bd 25 8a 30 be
       -0.6177083 -0.35255373 -0.0632648 -0.17240198
0001a0 e8 59 37 be 50 75 51 3d 3d 1d c1 be 20 09 5b be
       -0.1790539 0.05113727 -0.3771762 -0.213902
0001b0 c8 c4 9a 3e b2 1b a7 be 6f 4a f1 bd bd 42 9d 3e
       0.30228257 -0.32638317 -0.11781775 0.3071498
0001c0 64 aa a4 be f4 c2 27 bf ee 68 2f 3e c0 f0 c4 be
       -0.32161248 -0.6553185 0.17129871 -0.38464928
0001d0 95 a5 19 3e e4 de de bd 5e 53 b0 be e6 d4 32 3f
       0.15004571 -0.10882357 -0.34438604 0.6985611
0001e0 fb 59 68 3c bb 7d f2 be 12 40 9e 3d 20 8a b6 3e
       0.014181609 -0.4736155 0.07727064 0.35652256
0001f0 36 70 a4 be 0e 55 a3 3e 7f 06 46 3e fb 29 e0 3e
       -0.3211686 0.3190083 0.19338416 0.4378203

fc2.weight f4 [128, 128]
000000 05 58 12 3d 3e fd 9c bc f4 24 47 3e 78 4d 87 3e
       0.035728473 -0.019163724 0.1944769 0.2642629
000010 2a 12 22 be 03 82 90 bd 81 a6 eb bd f7 af 95 3c
       -0.15827242 -0.07056048 -0.115063675 0.018272383
000020 17 50 be 3d 99 38 ee bd 9c 26 5a 3d d4 ec ee bd
       0.0929262 -0.11631889 0.053259477 -0.11666265
000030 ef 80 d5 bd 30 50 ab be c7 ce 41 3e 29 ab d3 bd
       -0.10424983 -0.33459616 0.18926536 -0.103353806
000040 87 e2 82 3c 87 7c f6 bd 22 3b 1a 3d bf 1b 78 be
       0.015977157 -0.120354705 0.03765405 -0.24229334
000050 eb f3 c1 3e 3a f5 aa bd b1 ad 88 bd 7c d4 bb bd
       0.37881407 -0.083475545 -0.06673754 -0.091713876
000060 e8 ef ec 3d 24 9a 88 bc d4 26 21 3e d1 95 d6 3d
       0.11569196 -0.016675062 0.15737468 0.10477794
000070 bd b0 42 be 38 cf 41 be ac 3c 39 3d 68 15 1a be
       -0.19012733 -0.18926704 0.045223877 -0.15047228
000080 59 be ff 3c 44 ac 42 be 26 6a cd bb a0 e4 96 bd
       0.031218695 -0.19011027 -0.0062687574 -0.073678255
000090 0a fd 51 be 17 ce b4 bc a2 ff d6 be 13 5d 57 be
       -0.20506683 -0.022070928 -0.41991907 -0.21031599
0000a0 03 b0 39 be 59 26 36 3d bc 9f d3 3a 16 5b 8f bd
       -0.1813355 0.044470165 0.0016145627 -0.06999795
0000b0 5a b8 28 3d 8a 46 c5 3c 97 1f f9 3d 13 88 81 bc
       0.041191436 0.024081487 0.121642284 -0.015811956
0000c0 f8 34 79 be 4c e0 84 bc 79 00 ca 3d bf f3 dc bd
       -0.24336612 -0.016220234 0.098633714 -0.107886784
0000d0 61 52 9e bd 82 25 c5 bc be 1a d3 3d 5b 62 90 be
       -0.07730556 -0.024065737 0.10307835 -0.2820004
0000e0 e2 ef a5 3d cd d0 23 be 2f 0b 50 bd a4 96 4c 3d
       0.08102395 -0.1599762 -0.050791916 0.04994835
0000f0 d4 56 1c bd dd 06 64 be fe e3 2a be fb f1 3a be
       -0.038168743 -0.22268243 -0.16688535 -0.1825637
000100 1c 8b 28 bd d9 31 22 be d7 3e 0a 3d eb f2 f2 3c
       -0.04114829 -0.15839328 0.033751335 0.029656848
000110 07 ca da bd 7a aa 82 bd 94 ed df bd ae a9 35 3c
       -0.10683065 -0.06380172 -0.10933986 0.011087818
000120 d4 fc 49 bd b1 f1 b2 be 5b 95 00 3e 88 46 88 3c
       -0.04931338 -0.3495002 0.12556975 0.016635194
000130 8d 25 09 3e 71 b9 a4 3d 4e 6a 1b be d1 62 84 bd
       0.1339323 0.08043183 -0.15177271 -0.0646416
000140 d6 8c b0 3d 81 25 07 be 51 82 dc bd 2f 91 b4 bd
       0.08620612 -0.131979 -0.107670434 -0.08816754
000150 5b 23 07 be 1e f7 84 3d f7 6d af 3d 17 9b f5 3d
       -0.13197081 0.06492446 0.08565896 0.11992472
000160 c2 9c ae 3c de 37 40 3e e2 ef 00 bd fe 0a 15 3e
       0.021314982 0.18771312 -0.03147877 0.14554974
000170 a8 e1 cd bd dc 3d 60 be 1c 74 a7 3c 34 be 13 be
       -0.10052806 -0.21898597 0.020441107 -0.14428025
000180 b9 8a c9 3d 63 a9 d6 3e 2d a3 e8 be 23 95 23 be
       0.09840912 0.41926107 -0.45436993 -0.1597486
000190 c6 05 98 be 84 08 4d bc 10 45 31 bd 40 3d 95 3c
       -0.29691905 -0.012514237 -0.043278754 0.018217683
0001a0 77 d6 85 be f9 86 2c 3e f0 1e de be ae c6 0c 3e
       -0.26140186 0.16848363 -0.43382978 0.13747665
0001b0 b5 85 ee bc 8e 8d 01 3e 90 ff c7 3d 36 1d 9d bc
       -0.02911649 0.12651655 0.097655416 -0.019178968
0001c0 9a 25 47 be 2a 21 28 bd 2a f0 f3 3d cf d7 7a 3e
       -0.19447938 -0.041047253 0.11911042 0.24496387
0001d0 e2 42 0a be 41 c2 e0 bd b4 01 65 3e 4c e9 34 3d
       -0.13502076 -0.10974551 0.22363931 0.0441678
0001e0 b7 d5 b1 3c f8 1c 65 3d 62 48 78 bd 00 c7 b1 3d
       0.021708352 0.05593583 -0.060615905 0.08680534
0001f0 5f 6d d3 be b1 fe f3 bd 40 30 02 be f3 7d 28 3e
       -0.4129438 -0.11913813 -0.12713718 0.16454296
000200 5c f2 aa bd 3c c1 0c 3d e6 bc 65 bd e1 8c 5b bd
       -0.08347008 0.03436397 -0.05608835 -0.05360115
000210 cd 55 67 3d d9 9c b4 bc 4b 80 41 be f2 a3 31 3d
       0.05647831 -0.022047447 -0.18896596 0.04336924
000220 31 14 11 3d e1 55 a4 3d db a6 2a 3d 01 5b 0f 3c
       0.035419647 0.080241926 0.041663032 0.008749724
000230 f8 67 2d 3d b6 59 32 3e ac 5e ff 3c f6 fb b1 3d
       0.04233548 0.17417035 0.031173073 0.08690636
000240 a7 cd 12 3c dd e8 f6 bd aa 88 c0 bc 68 cc b5 3d
       0.008960164 -0.12056134 -0.023502667 0.08876878
000250 73 ce 33 3d 88 30 16 3c 90 3b 50 3d 20 32 04 bd
       0.043898057 0.009166844 0.050838053 -0.032274365
000260 27 fd c9 3d dc 2a d8 bd f6 1f b1 bc 65 e0 1b bc
       0.09862738 -0.1055505 -0.021621685 -0.009513949
000270 b3 32 b3 bd e7 17 09 3d 9e 6f 59 3e 73 de f8 3c
       -0.087499045 0.03347006 0.21233985 0.03037951
000280 0d ed c2 3a 28 31 4d bd 1b 0a e4 bc 8b 42 c0 bd
       0.0014871672 -0.050095707 -0.02783685 -0.09387692
000290 33 dd 05 3d 48 9e 82 bd 20 49 6b be 9b c9 a5 3d
       0.032681655 -0.06377846 -0.22977114 0.08095094
0002a0 85 8b 5c bb a9 02 28 3d a9 3c 69 bc 11 cb a7 3d
       -0.0033652496 0.041018162 -0.014235654 0.08193029
0002b0 da b3 d2 bc 47 49 d3 3c 61 12 c3 bc 56 af ae 3d
       -0.025720526 0.025791777 -0.023812475 0.085295364
0002c0 cd df c2 3d c9 77 d0 3c 32 5b af bd 50 a7 02 bd
       0.09515343 0.025447743 -0.08562316 -0.031897843
0002d0 ce 85 1b 3d 49 76 38 3d 93 75 34 bd e9 a3 8e bd
       0.037969403 0.04503468 -0.04405744 -0.06964857
0002e0 a7 0d 88 3d 2b 62 78 3d f8 a1 06 bc 5f 46 df 3c
       0.06643229 0.060640495 -0.008217327 0.027255235
0002f0 59 05 5d 3d 9c 27 75 3c f6 6b c0 3c d3 19 38 3d
       0.053960178 0.014963057 0.02348898 0.044946503
000300 6f 7a 65 3d d8 2a 75 bd 4f a9 74 bd de ea 0b ba
       0.056024965 -0.059855312 -0.059731778 -0.0005337427
000310 5b e1 2b ba d0 d5 25 3d 1a 27 43 3d 5f 73 82 bd
       -0.0006556713 0.04048711 0.047644712 -0.063696615
000320 86 3b b2 3d a7 c1 5d 3d c7 91 6e bd 3a bf 5a bd
       0.087027594 0.05413976 -0.058244493 -0.053405024
000330 02 6d fa bd 2a cb 23 bd 88 ef 24 3d 56 c7 80 3d
       -0.12227823 -0.039988674 0.040267497 0.0628802
000340 40 46 e2 bc 60 c0 80 3d 41 67 86 3c 7c 08 d4 bd
       -0.027621388 0.062866926 0.016406657 -0.10353181
000350 ec 9d 69 3d 91 db 1c 3b 08 37 2a 3d 8c cf 12 bd
       0.05703537 0.0023934583 0.04155639 -0.035842463
000360 8d 36 24 bc 85 ff 88 3c 7d 45 08 3d e5 57 9a 3c
       -0.010022772 0.016723404 0.033269394 0.01884074
000370 30 3b e5 3d 6e 02 87 3c c6 cd 8d 3c 87 4b d1 bc
       0.1119293 0.01648065 0.017310034 -0.02554871
000380 4d 07 39 3d 0d f3 2b be 7f fa 8d bd 95 93 ae 3d
       0.04517298 -0.16791935 -0.06932544 0.08524243
000390 a0 b1 a0 be 5a ae 8a 3d 82 f9 54 bd fb 0e 20 3d
       -0.31385517 0.06771536 -0.05199576 0.039076786
0003a0 46 56 7a bd 95 93 88 3d ff ed 8f bd 7b 09 ca 3d
       -0.061117433 0.06668774 -0.07027816 0.098650895
0003b0 46 88 88 3d 9d c2 90 3d 18 b5 1b 3e 02 28 6c bd
       0.06666617 0.070683695 0.152058 -0.057655342
0003c0 1a e4 07 3e bc 78 fd bc 56 84 8c 3d 19 3e c6 3d
       0.13270608 -0.03094136 0.068611786 0.09679813
0003d0 b8 a0 25 bd f4 0c c1 3d 95 8a 96 bc 07 e0 6b bc
       -0.040436476 0.09426299 -0.018376628 -0.014396674
0003e0 d5 bc a9 bb 9c 1b fe 3d f5 6b 3e 3d 86 24 83 bd
       -0.0051799812 0.1240761 0.046489675 -0.06403451
0003f0 29 96 02 bd ca 79 88 bd bd d5 0a bd f9 87 8f 3d
       -0.031881485 -0.066638544 -0.033895243 0.070083566

fc2.bias f4 [128]
000000 f9 a4 03 3e d8 5b cb bc 01 a7 ad 3d 95 50 ee 3d
       0.12855901 -0.024824068 0.08479119 0.116364636
000010 78 e2 48 3d 71 36 4d 3d cc 3b c6 3c c6 db 47 3c
       0.049044102 0.050100747 0.024198435 0.012198394
000020 22 a8 35 bd 7f 78 b9 3c f1 86 ba bc 7f b8 ce bd
       -0.044349797 0.022640465 -0.022769423 -0.100937836
000030 7b 91 27 3d 99 3c 67 3d 8c 8a a3 bd e9 31 d3 bc
       0.040910225 0.056454275 -0.0798541 -0.025780635
000040 74 cc 4a 3c ba a5 9e 3d 14 11 37 3d 74 e8 1f 3e
       0.012377847 0.077464536 0.04469402 0.15616018
000050 c4 17 a3 3c 56 67 2d bd e0 04 5a ba b5 ce d4 3d
       0.019908793 -0.042334877 -0.00083167665 0.10390989
000060 75 89 50 3e 56 a3 f3 3b ef eb 00 bd 6e 5d 68 3d
       0.20364936 0.0074352426 -0.031475004 0.056729726
000070 37 be 3c bc 7f d9 af 3d 9f 0e c6 3d d1 c7 ba 3c
       -0.01151996 0.08586406 0.096707575 0.022800358
000080 08 7e 8b bd bb 28 70 bd 8e bb 1c 3e 90 91 8c 3d
       -0.06811148 -0.058632594 0.15305921 0.06863701
000090 d9 03 fd 3d 3f ff 09 3d 0b c0 bf 3d a2 d7 dc 3b
       0.123542495 0.033690687 0.09362801 0.0067395726
0000a0 45 44 4d 3d 0c e0 1d 3c 0c 6d ee 3c 32 03 05 3e
       0.050113935 0.0096359365 0.029104732 0.129895
0000b0 28 7e 68 bc 86 3b 82 3d a0 02 0b bc 94 8e d5 bb
       -0.014190234 0.063590094 -0.008484513 -0.006517241
0000c0 97 2a fb bb 0c d2 78 3d 78 bb 2c 3e 78 05 23 bc
       -0.007664989 0.06074719 0.16868389 -0.009950034
0000d0 c9 d8 93 3c 15 a9 b2 3d 14 b2 6a 3d 33 8a 18 3e
       0.018047707 0.08723656 0.057298735 0.14896469
0000e0 18 47 1c bd 4b 80 b5 3d 35 12 2f be 91 2f c8 3d
       -0.038153738 0.088623606 -0.17096789 0.097746976
0000f0 45 76 33 bd 49 03 f7 bc 10 dc f6 bc ec 74 03 3e
       -0.043813962 -0.030152934 -0.03013423 0.12837571
000100 38 d8 f9 bd 1d 66 5a bd c9 04 91 3d 50 5c 81 3c
       -0.121994436 -0.05332004 0.07080991 0.015791088
000110 95 d8 c1 3d 1f 48 03 3c fe 99 da 3d 59 60 80 bd
       0.09465138 0.0080128005 0.10673903 -0.06268377
000120 f1 d3 54 bd 7a f9 f0 3c 88 d4 c1 bd d8 e2 13 bd
       -0.051959936 0.029415835 -0.09464365 -0.036105007
000130 c6 02 95 3b 55 a5 9b bd 8d 7c a3 3d 40 08 a4 bd
       0.0045474498 -0.07599894 0.079827406 -0.08009386
000140 bd 3a f1 bc ec c6 90 3b d7 eb 61 bb 9b 53 d3 bc
       -0.029446954 0.0044182446 -0.0034472847 -0.025796702
000150 cc 3c b0 bd 37 24 2a bd 46 ab 0b bd 5e 8c a7 3d
       -0.08605346 -0.041538443 -0.034098886 0.0818107
000160 7a 66 03 3d 8d 16 ad bd 2b 87 a1 3d 95 58 c9 3d
       0.03208015 -0.08451567 0.07887109 0.09831349
000170 23 0f 8d 3d c1 aa 0c 3d ad 85 21 3d 98 74 21 3c
       0.06887653 0.03434253 0.039434124 0.009854458
000180 db e2 71 3d 0a 59 2b bd 05 a2 34 3d dd bb 8f bd
       0.059054237 -0.04183296 0.044099826 -0.07018254
000190 3d 6a 31 3e 30 c3 13 3c 6a 58 33 3e fd 03 49 bd
       0.17325683 0.009018704 0.17514196 -0.04907607
0001a0 ee b5 7a bd 01 84 83 3d 9d 9c 91 3d 43 c3 ed bd
       -0.061208658 0.06421662 0.0710995 -0.11609509
0001b0 12 9f c3 3d dd eb 5a 3e 31 8c 03 bd 2d 03 b5 3d
       0.09551825 0.21379037 -0.03211612 0.08838496
0001c0 64 82 70 3c 1a b9 ce bd 27 73 c0 3d 94 b4 05 3e
       0.014679525 -0.10093899 0.093969636 0.13057166
0001d0 37 b0 51 3d d0 6a a5 bc cf b0 c0 bc a2 b5 95 bc
       0.051193442 -0.020192534 -0.023521809 -0.018275086
0001e0 37 68 a4 3d 33 d4 20 3d 74 a6 1d 3e 42 ef aa 3d
       0.0802769 0.03926487 0.15395528 0.08346416
0001f0 75 f2 a1 bc 5c af 9d 3d 06 ef 69 bd 9b eb a3 3d
       -0.019768933 0.07699463 -0.057112716 0.080039226

fc3.weight f4 [1, 128]
000000 5c 79 f4 be 63 8c 51 3d a6 1d 46 3f cc 72 55 be
       -0.4774884 0.051159274 0.7738899 -0.20844573
000010 4b c3 fc bd 57 bf 5b 3e 86 af 15 3e 7b 0a f7 bf
       -0.12341937 0.21459709 0.14617738 -1.9300073
000020 6e a3 73 3d 47 b8 34 3d 73 13 a2 bd 54 57 86 be
       0.05948203 0.044121053 -0.07913866 -0.262385
000030 c4 ca 60 3e 54 0a 9e 3e 5c 1b 4a be 96 a8 67 3e
       0.21952349 0.30867255 -0.19737 0.22622904
000040 b0 d2 35 bf 1e 95 b2 bd 3f 08 20 3e 98 f4 e0 be
       -0.7102461 -0.08719848 0.15628146 -0.4393661
000050 37 62 8c be 9c 55 fc 3d 03 8e d1 be c4 94 44 be
       -0.27418682 0.12321016 -0.4092866 -0.19197375
000060 39 69 0d bf ae 4c 8f 3e 3b d1 a0 3d c2 43 23 bd
       -0.5523868 0.2798819 0.078524075 -0.03985954
000070 fa aa 36 bf 3c 65 0f 3e 9f ba 38 3f 35 bc 83 be
       -0.7135464 0.14003462 0.7215976 -0.25729528
000080 88 eb 04 3d 94 32 57 3e 00 5b dc be 19 7e f4 be
       0.032451183 0.21015388 -0.43038177 -0.47752455
000090 81 9c 82 be bc d5 27 bf 66 21 20 bf 8a 0d 41 be
       -0.25510028 -0.6556051 -0.6255096 -0.18852821
0000a0 8f 55 46 bf b7 b0 c7 3d 40 d2 3b 3e b7 49 3a be
       -0.774743 0.097505026 0.18341923 -0.18192182
0000b0 14 f6 7b 3e d3 f2 41 3e 55 1d 30 3e b6 13 6f 3e
       0.2460559 0.18940286 0.1719869 0.23347363
0000c0 6b 5c 4d be 61 97 8a be 09 91 00 bf dd f7 56 bd
       -0.20054786 -0.27068618 -0.50221306 -0.052482475
0000d0 b2 14 55 3d 36 e5 f8 bd 4c 9c 49 3d e3 8f a4 be
       0.05202169 -0.121530935 0.049221322 -0.32141027
0000e0 18 aa 82 3d 3b f1 b4 3d dd ba 83 be 65 27 8d 3e
       0.06380099 0.088350736 -0.25728503 0.27569118
0000f0 4b d3 41 3e df 84 c1 bd df 84 be be 8c ff 36 bf
       0.18928258 -0.09449171 -0.37210748 -0.71483684
000100 e8 65 fc be 09 4e bd be 9a 07 8a bd 3a 55 9e 3a
       -0.49296498 -0.369736 -0.06739731 0.0012079843
000110 19 32 02 bf a7 ac 71 3e 35 7b f3 be 24 70 00 bf
       -0.5085769 0.23601018 -0.47554937 -0.50171113
000120 1d ab e4 3e c0 18 7d 3a ab c2 c3 be f5 81 4e 3e
       0.446618 0.0009654872 -0.38234457 0.20166762
000130 09 25 56 3e 3f 74 a8 be 57 cf cb 3e 7a 61 3e 3e
       0.20912565 -0.3290119 0.39806625 0.18591872
000140 c6 c0 14 be d0 8b b6 be f1 98 2c 3e d4 93 8d 3d
       -0.14526662 -0.35653543 0.16855218 0.069129616
000150 df 0e a5 be aa 09 31 3d be d1 d0 3d 41 ed d0 bf
       -0.32237908 0.043222107 0.10196255 -1.6322404
000160 3a 04 71 3e 14 a5 09 bd 94 f3 ed 3e 79 a5 7a 3e
       0.23536769 -0.033604696 0.46474898 0.24477185
000170 00 24 b4 be d6 e7 87 bf 07 21 91 be 85 ed 63 3f
       -0.35183716 -1.0617626 -0.2834551 0.890343
000180 37 62 cf 3e 3a 23 16 3e b3 f9 2d 3e 22 9b a7 3d
       0.4050462 0.14661875 0.16989784 0.08183886
000190 89 97 0c bf 54 15 f8 3d 28 bc 30 bf 25 3a 7b 3e
       -0.54918724 0.12113443 -0.69037104 0.24533899
0001a0 3b 76 4b bc 6b 81 1a 3e 07 46 53 3d 72 49 83 be
       -0.012418325 0.15088432 0.051580455 -0.25641972
0001b0 d1 34 76 be 31 ad 20 bf 18 f5 1e bf 9f b2 69 3e
       -0.24043585 -0.6276427 -0.62092733 0.22822045
0001c0 6d 5b 03 3e a1 71 86 be b8 41 7b 3f fa 96 4f be
       0.12827845 -0.26258567 0.98147154 -0.20272437
0001d0 29 28 49 be 43 c5 40 be 80 94 12 3e b7 a5 69 be
       -0.19644226 -0.1882525 0.14314461 -0.22817121
0001e0 0e 41 13 3f a7 00 20 be 55 6e 4b 3e 25 2d 7a 3d
       0.5752114 -0.15625249 0.19866307 0.06107821
0001f0 e1 6f a8 be ec 86 e7 be 5b c6 aa 3d 03 41 ec bd
       -0.32897857 -0.45220125 0.083386146 -0.115358375
