HW3/preTrained/ddpg_actor_Halfcheeta-v3_05112024_210844_.pth (torch, 81372 bytes, 6 tensors)

fc1.weight f4 [128, 17]
000000 de e0 05 3f c0 af 8d 3e 52 cb 8b 3e fe 97 22 bf
       0.52296245 0.2767315 0.2730356 -0.6351317
000010 19 77 c6 3d 89 f6 be be 49 de b9 3e be 66 9c be
       0.09690685 -0.37297466 0.36302403 -0.30547136
000020 49 b6 a7 bc 0b 69 07 be b1 75 05 be 67 96 b5 3d
       -0.020472663 -0.13223664 -0.13033177 0.088665776
000030 31 8a 2a bb 6c 07 41 3d ca f8 8a 3e e8 a8 e9 3d
       -0.002602231 0.04712622 0.27142936 0.114091694
000040 f8 9a 31 bb fa d2 93 3e 6a b7 c8 3e 49 df ae bd
       -0.0027100425 0.288719 0.39202434 -0.08538682
000050 80 3b a8 3e 8d ff 99 be 0e a2 4f bf e1 81 3c bf
       0.32857895 -0.30077782 -0.8110665 -0.7363568
000060 b0 ac d9 be 4b 76 00 bf fb ae 5a 3f 53 86 0b 3d
       -0.42514563 -0.501805 0.8542325 0.03406365
000070 c6 46 75 3d 5c db 91 bd ce 7d 22 3c c1 91 ed bc
       0.059881948 -0.071219176 0.0099176895 -0.029000165
000080 9d 65 09 bd 8c 05 fd bc 19 36 95 be f9 42 19 3f
       -0.03354417 -0.030886434 -0.29142836 0.5986782
000090 42 18 3f 3f ac ef e5 be ab 48 b0 bd ef 28 05 be
       0.7464639 -0.44909418 -0.0860761 -0.13003896
0000a0 8f ea ff 3e cc a1 53 bb 33 e9 57 bf 2d ed 6f be
       0.49983642 -0.0032292483 -0.8434021 -0.23430319
0000b0 8a 16 d3 bd 8b bb 81 bd d6 ed aa 3c 13 61 d0 3c
       -0.10307033 -0.06334599 0.020865362 0.025436914
0000c0 3b aa 42 bd 31 b5 49 bd d8 87 a4 3c a0 5b 9a 3f
       -0.047525626 -0.049245063 0.020084307 1.2059212
0000d0 85 b8 e0 bf 57 1c 04 3d 80 f9 e8 bd f3 c2 18 be
       -1.7556311 0.03225359 -0.11375713 -0.14918117
0000e0 3a c8 f1 3d 86 59 0d be bc 10 24 bd be 91 c0 3e
       0.11805768 -0.13803682 -0.04005502 0.37611192
0000f0 45 25 a1 bd 02 d8 09 3d 15 37 26 3d e7 cd 8a 3d
       -0.07868437 0.033653267 0.040579874 0.06777554
000100 f0 5f 9e 3d c7 35 4b 3e ad 6d 16 bc 9d b8 82 bd
       0.077331424 0.19844733 -0.009181422 -0.063828684
000110 63 4e 0f c0 53 d9 85 3f 54 5e da 3e e9 d5 3b 3d
       -2.2391593 1.0456947 0.42650092 0.045858297
000120 f9 2d be 3c de cc 3e be 92 b9 94 be 14 d7 07 bf
       0.02321528 -0.18632838 -0.2904783 -0.5306256
000130 72 cd f0 be c8 c9 9c bd 2f ca 40 3e fc 85 42 bc
       -0.47031742 -0.07655674 0.18827127 -0.011872765
000140 20 21 98 3b db 8f bb bc 78 ff b5 3c 85 42 60 3c
       0.0046426207 -0.022895744 0.022216544 0.0136877345
000150 0f 53 fe 3b d3 fd 3b 3d bf bd 7b be 27 55 28 3f
       0.007761366 0.045896363 -0.24584101 0.6575493
000160 a7 ce 74 be 4d cd 2f 3e 06 25 15 3f d7 83 84 3e
       -0.23906957 0.1716816 0.5825962 0.25881836
000170 b7 64 b8 3b c6 3e 1f bd cc b3 4a bf 62 2f 38 3e
       0.0056272405 -0.038878225 -0.791806 0.17986825
000180 4f e8 95 bd ec 5f 5c bd 6b 56 f5 3b 11 f6 ce bd
       -0.073197 -0.053802416 0.0074871085 -0.10105527
000190 43 2c 7e bd 9c 5b 10 3d 4a 9e 19 3f 78 8f f5 bd
       -0.06205393 0.035243616 0.60007155 -0.11990255
0001a0 70 10 28 be 67 8c 53 be a2 f7 90 3e 6c d3 5e bd
       -0.1641252 -0.20659028 0.2831393 -0.054400846
0001b0 19 84 4f bf 28 fb a0 be 98 4d dc 3e 21 53 7c bc
       -0.8106094 -0.31441617 0.4302795 -0.015400679
0001c0 f9 0d 1d be 47 c1 8b bd 77 f8 08 3d a1 12 97 bd
       -0.15337361 -0.06823974 0.03344008 -0.073766
0001d0 a3 48 26 be 6d 36 79 3d 02 52 df 3b e4 bd 4c bf
       -0.16238646 0.06084292 0.006815196 -0.7997725
0001e0 62 64 a7 3f 3f 37 ad 3e 9a e4 44 be 75 df d5 3e
       1.3077509 0.33831212 -0.1922783 0.41772047
0001f0 80 05 1e 3f 9d b5 c9 3e ef ed cd 3e 5e 0e a1 3e
       0.6172714 0.39396372 0.4022059 0.31456274
000200 02 7d b3 be e0 04 12 3e 32 a4 c4 39 0a 6b 04 3d
       -0.3505631 0.14259672 0.00037506368 0.032328643
000210 06 64 82 3d 90 05 92 bc 29 42 1d 3d 99 5c d0 3c
       0.06366734 -0.017824918 0.038393173 0.025434779
000220 27 6e 52 3e 4b f4 58 3f d1 59 89 be 3b 36 3e be
       0.20549832 0.8474776 -0.26826337 -0.18575375
000230 a9 1c 1b 3e 1a 11 52 3f 1c 48 d0 3e 7e a1 cf 3e
       0.15147652 0.82057345 0.40680015 0.40552896
000240 51 7d d1 3e 06 a9 18 bd 0e f0 6e 3e 43 00 79 bd
       0.4091592 -0.03727057 0.23333761 -0.060791265
000250 51 06 85 3c dd 19 ef bb 7c 08 4d bd 21 5f b1 bc
       0.016238363 -0.0072967843 -0.05005692 -0.021651806
000260 36 db c8 bb 57 60 8a bc e0 e2 bc be b4 d4 7c be
       -0.0061296476 -0.016891642 -0.36891842 -0.24690515
000270 db 15 ac 3d ca 78 83 be d9 44 7c 3c dd c0 d0 3e
       0.08402606 -0.25678092 0.015397274 0.40772143
000280 75 ba b9 3e 8d e7 a7 be 97 ff 89 be 80 c2 98 3e
       0.36275068 -0.32793847 -0.26952812 0.29835892
000290 e1 60 62 be 00 5b 35 3d 34 a7 da 3c 50 8e be 3d
       -0.22107269 0.044276237 0.026691057 0.09304488
0002a0 ad 51 00 be 80 41 06 be cc 57 e4 3e 26 e8 af 3e
       -0.12531157 -0.13110924 0.44598234 0.34356803
0002b0 bd cb 8d 3e 7f 45 d3 be d8 b4 b2 be be 2a 41 bf
       0.27694502 -0.4126396 -0.34903598 -0.75455844
0002c0 1e d9 f5 3e b8 85 b9 be cf 29 da bd eb cf a0 3e
       0.4801721 -0.36234832 -0.106525056 0.3140863
0002d0 d0 44 01 3e 3f 18 1a 3c c6 7b 52 3d 61 42 31 3e
       0.12623906 0.009405195 0.05138757 0.17310478
0002e0 7b e7 67 bd 4e 4d d1 bc c7 5d bf 3c 99 f9 ec 3e
       -0.05661724 -0.025549557 0.023360146 0.46284178
0002f0 cd 62 24 3f b1 76 37 3f 71 2d e8 3e 53 42 01 be
       0.6421326 0.71665484 0.4534717 -0.12622957
000300 3a c1 53 bf 94 d5 73 bf c7 89 eb be ac 8c de be
       -0.82716715 -0.9524777 -0.46003553 -0.434667
000310 66 f6 45 3d 0d 92 cf 3e 1f 6c 5b 3e 43 89 ab 3d
       0.048330687 0.40541115 0.21427964 0.0837579
000320 57 4a 24 bd b6 ef 37 3d d5 9f 11 bd 96 8b 53 bd
       -0.04010996 0.04490634 -0.03555282 -0.05164679
000330 63 b3 a7 3e b6 27 9b be 97 71 ae be 19 f5 3f bc
       0.3275405 -0.30303735 -0.34071037 -0.011716151
000340 c4 aa 59 be 4b 33 24 3e 3d c9 f5 3e 6c a6 0c be
       -0.21256548 0.16035192 0.48005095 -0.1373536
000350 5c b0 e7 be 72 c6 fc 3e a4 9f 71 3e 7c 35 42 3b
       -0.4525174 0.49370152 0.23596054 0.002963393
000360 76 f5 1b bc 3a 64 15 bd 45 9a b3 bd e4 36 e3 3d
       -0.009518972 -0.036472537 -0.08769659 0.11094454
000370 c5 99 51 bd 99 67 32 3f e6 cc 39 bf f9 26 2c 3e
       -0.051172037 0.6968933 -0.72578275 0.16811742
000380 07 ed db bd 4b 9c 69 be 17 e0 0a bf 2c 25 20 3d
       -0.10738569 -0.22813527 -0.54248184 0.03909795
000390 a9 e0 81 3e 28 0c f5 3d 82 d0 41 3d 16 26 7a be
       0.25366715 0.11965209 0.04731799 -0.24428591
0003a0 34 ce cf 3d 15 1f 82 bb d3 cd 3a bd 42 51 62 3d
       0.10146752 -0.0039709904 -0.045606446 0.055253275
0003b0 0b 4e 7a bc a8 dc 15 3d f2 15 42 bf 5f 13 7d 3e
       -0.015277396 0.036587387 -0.75814736 0.2471442
0003c0 80 6d a2 3d 20 2f c0 be f7 12 36 3f 3e be 80 be
       0.07931042 -0.37535954 0.7112269 -0.25145143
0003d0 82 ce 8a 3f 88 f2 59 bd 7e 3d 40 be 32 88 cc be
       1.0844271 -0.05320981 -0.18773457 -0.3994766
0003e0 44 7e b7 be cb e0 07 bd 0d cb 10 3d 68 40 93 bd
       -0.3583852 -0.033173364 0.035349894 -0.07190019
0003f0 06 4b f9 3c b0 ff bd ba 3d d5 e0 3c 1d ee 65 3e
       0.030431282 -0.0014495756 0.02744543 0.22454114

fc1.bias f4 [128]
000000 79 d8 0f 3f 46 a0 3c 3e 67 0e a5 3d 11 12 bd 3d
       0.56189686 0.18420514 0.08059388 0.092319615
000010 5e 3d 3e bf 78 a6 2e 3f 09 c4 c1 3d ff 98 6f be
       -0.7431239 0.6822276 0.09461219 -0.23398207
000020 50 6e 35 be 87 b7 08 3e ca 5e da be c4 65 b9 bd
       -0.17717862 0.1335126 -0.42650443 -0.090526134
000030 d1 d3 c1 3e 4e 9a 70 3f b0 54 8d 3e a0 0a 9c 3e
       0.37856916 0.9398545 0.27603674 0.30476856
000040 af 67 31 be 60 25 2a be 86 1a 55 be 8c 16 92 be
       -0.17324708 -0.1661582 -0.20810899 -0.28532827
000050 8c 39 05 3e 82 4c 8c be 38 53 bd bc a7 b9 41 be
       0.13010234 -0.2740212 -0.02311097 -0.18918477
000060 d8 d9 be be 61 99 17 3f 13 d9 c4 3e 22 57 10 3f
       -0.37275577 0.5921841 0.38446864 0.56382954
000070 8f 01 2f bf 0a 5e 40 bf 5d c1 88 be 94 b1 3a 3e
       -0.68361753 -0.7514349 -0.26710024 0.18231803
000080 02 d4 7b bd 7c fa 04 3f 0b 8a 35 be a9 f7 2d bd
       -0.061481483 0.5194471 -0.1772844 -0.042472515
000090 03 c6 3a be 7b a0 8a be 81 8d e8 3d 14 5d 93 be
       -0.18239598 -0.27075562 0.11355115 -0.2878195
0000a0 50 fd a5 3e f3 a3 82 3e 65 65 80 3f f0 51 d0 be
       0.32419825 0.25515708 1.0030943 -0.40687513
0000b0 80 01 00 bd a6 17 12 3f 9e 26 c7 3e de c3 0d 3f
       -0.03125143 0.57067335 0.3889665 0.55376995
0000c0 21 2c e5 bd 14 bf 59 3d 12 cb a4 be 9d 59 17 3e
       -0.111900575 0.053160742 -0.3218618 0.14780279
0000d0 15 01 fc 3e b3 53 f5 bd a8 14 98 3e 94 6f 4e be
       0.49219576 -0.11978855 0.2970326 -0.20159751
0000e0 67 8c 7b 3e b4 f9 d8 be 84 32 e5 be 70 4c 3d be
       0.24565278 -0.42378008 -0.44765103 -0.1848619
0000f0 54 5d 04 bf ec 28 8a bd e4 3f eb 3e 97 3c 86 3e
       -0.5170491 -0.067460865 0.45947182 0.262181
000100 a8 3d 0b bf e1 46 e5 be 52 72 9b be a7 ac 07 bf
       -0.54390955 -0.4478064 -0.30360657 -0.5299782
000110 c5 33 dd be 76 7c 3b bc 78 9e 30 3f 8d 8f 06 3f
       -0.4320356 -0.011443248 0.68991804 0.5256279
000120 5b d6 83 be c3 93 b6 bd d5 df 85 be 46 28 24 bd
       -0.25749478 -0.08914902 -0.26147333 -0.04007747
000130 78 a9 2a 3d 91 f9 7e bd c5 39 06 3f f5 fc 19 be
       0.041665524 -0.062249724 0.524319 -0.15037902
000140 30 b3 04 3e a3 5f 3c 3f 41 c2 2e 3f 66 b7 0e 3e
       0.1295898 0.7358343 0.6826516 0.13937148
000150 59 5c 8f 3e f9 ad 0d be e7 4b 1b 3f 64 c7 0f 3f
       0.28000143 -0.13835897 0.6066269 0.5616362
000160 23 75 30 be c9 5c af 3d e7 be c6 be a0 42 02 3f
       -0.17232184 0.08562619 -0.38817522 0.5088291
000170 9f b1 68 be b2 ab 79 3c d4 fa 3f 3f 63 4e 97 be
       -0.22724007 0.015238689 0.7499211 -0.29551992
000180 4a 9d 99 be dc c7 60 be b5 f8 ac 3d 19 03 2b 3d
       -0.30002815 -0.2195124 0.084458746 0.041751
000190 3a 60 71 be 9d fd 93 be 8c 22 70 bf ed 6f 02 3f
       -0.23571864 -0.2890443 -0.93802714 0.50952035
0001a0 0a 0e b9 bc 4c 72 a5 3f ac e3 81 3d 79 f1 e4 be
       -0.022589702 1.2925506 0.06342253 -0.4471548
0001b0 f2 de 30 3e df c7 87 3d b3 ed 35 bd bf cc 32 be
       0.17272547 0.06629919 -0.04441614 -0.17460917
0001c0 a1 bf 84 be a8 b2 0a 3e 34 02 23 be 29 1a 0c 3f
       -0.2592745 0.13544714 -0.15918809 0.5472742
0001d0 6a cc e3 3e 53 dd f4 bc 5c f1 a9 be 46 5b 68 3e
       0.44491893 -0.029890692 -0.33191955 0.22691068
0001e0 78 c4 0f bf 6b 14 3a bd 55 a4 8c 3f f5 54 35 3f
       -0.5615916 -0.04542963 1.098765 0.7083276
0001f0 18 13 c0 bd 68 55 38 be 66 af ac be f2 3a 9f 3e
       -0.09378642 -0.1800133 -0.33727568 0.3109966

fc2.weight f4 [128, 128]
000000 e1 07 ce bc 20 32 8e bd 13 9a 49 3e ae 1d c4 be
       -0.025150241 -0.06943154 0.19687681 -0.38303894
000010 22 5f 62 3d 7d f0 7b 3c b1 90 44 bd 34 46 0a 3e
       0.055266507 0.015377161 -0.04798955 0.13503343
000020 54 f4 ec 3c a1 04 4f be 4d 05 6b be d8 53 42 3d
       0.028925098 -0.2021661 -0.22951241 0.04744324
000030 fd 0a 2f 3e 86 75 4f bd 84 fb 9c be 75 d8 d2 be
       0.17094035 -0.05064919 -0.3066064 -0.4118077
000040 d4 0d e2 3d 6a e2 54 3d f7 d6 3b 3d 51 7c f0 be
       0.11037794 0.051973738 0.045859303 -0.46969846
000050 24 99 20 3e ba bf 9f 3d b6 fe 75 be ad 1e 50 be
       0.15683419 0.07800241 -0.24022946 -0.20324202
000060 9a e4 38 3d 5c 38 01 3e 91 1d d7 bd db 92 1e be
       0.045139886 0.12619156 -0.10503686 -0.15485708
000070 1a a7 e1 3d 38 7a 2c 3e 81 5c b9 3b 95 c4 7e be
       0.110182 0.16843498 0.0056567793 -0.24879678
000080 ee 03 8b bc 8b 3a 6c be da 43 f4 3c 24 77 b7 3d
       -0.016969647 -0.23069207 0.02981751 0.08958271
000090 37 ad 5a 3d 7b d9 71 bd 31 c4 49 3e 15 cb 31 3e
       0.053387847 -0.059045296 0.19703747 0.17362626
0000a0 b3 57 fd bb 08 ac 96 bd 88 18 63 be ad 56 96 bc
       -0.007731402 -0.07357031 -0.22177327 -0.018351877
0000b0 b6 9f 82 3d 46 38 ae 3d 82 4e 71 3c d2 01 f5 bb
       0.06378119 0.08506827 0.01472819 -0.0074770236
0000c0 b3 8b 65 be f2 b8 82 be b8 75 8e be b9 8e c3 3a
       -0.22416572 -0.25531727 -0.27824187 0.0014919854
0000d0 8d f1 9e be 42 57 ab 3e 9a 73 02 bc 58 a8 da be
       -0.31043664 0.3346501 -0.007962132 -0.4270656
0000e0 59 37 63 be 7b 5b 58 bd ef d2 51 3d 84 0f ed bb
       -0.22189082 -0.052821618 0.051226553 -0.0072345156
0000f0 53 83 5a bd 3d 76 4b be 46 b6 90 be 04 a5 02 3e
       -0.053347897 -0.19869323 -0.28264064 0.12758261
000100 e3 6e a6 3d c1 81 1d be 30 98 ab be e2 b2 0d be
       0.08126619 -0.15381528 -0.33514547 -0.1383777
000110 b6 0b 32 be c5 48 f7 bd 76 9d b3 be 49 0d 2c bc
       -0.1738728 -0.120744266 -0.3508107 -0.010501214
000120 38 0f c4 3d b4 a6 17 3e de ec 34 be 15 15 84 3d
       0.09573215 0.14809686 -0.17668483 0.064493336
000130 d8 8d 55 3e b1 1f 05 be e5 06 14 be d1 67 a7 bd
       0.2085489 -0.1300037 -0.14455755 -0.08174098
000140 bc 08 6b bd 07 8d 7f bc d9 15 b6 be f7 29 1c bd
       -0.057381377 -0.015597588 -0.35563543 -0.03812596
000150 a2 cd 3e be f9 7e 27 be a2 e4 46 bd 30 2a 47 bc
       -0.1863313 -0.1635703 -0.048557885 -0.012156054
000160 c4 8a 79 be 56 b7 51 be c1 77 04 be 69 8a d8 be
       -0.24369341 -0.20480093 -0.12936307 -0.422931
000170 e9 15 e5 be ac cc 7c 3b 07 3c 12 be 53 9c c7 3d
       -0.4474328 0.0038574142 -0.14280711 0.09746613
000180 a1 40 05 be d0 2f c6 bd 22 cf 91 be a2 ed f7 bd
       -0.13012935 -0.09677088 -0.28478342 -0.12105872
000190 b5 98 23 bd 79 03 2f bd 53 80 e5 bd 5f 37 26 3c
       -0.039940555 -0.04272792 -0.112061165 0.010145037
0001a0 38 da f2 bd 92 d6 a3 be 7f 0b d5 bc d8 23 e5 3c
       -0.11858028 -0.31999642 -0.026006458 0.027971193
0001b0 e7 29 72 3d 5a 95 db bd 7e 1d c3 be 90 f3 9f 3c
       0.059121992 -0.10721846 -0.38108438 0.01952532
0001c0 38 0e 93 be b2 b6 03 3c e3 a9 29 3e 8c 24 bd bd
       -0.28721786 0.008039163 0.16568713 -0.092354864
0001d0 76 ce 93 be 44 02 51 be d3 da b8 bd da dc 88 3d
       -0.28868455 -0.2041102 -0.090261124 0.06682749
0001e0 d5 ff 60 3d 39 04 7d 3e c5 38 26 bf 61 e6 84 bd
       0.05493148 0.24708642 -0.64930373 -0.06489254
0001f0 08 60 a0 bd 98 04 08 3e 99 7d 50 3c 39 bc 21 be
       -0.078308165 0.13283002 0.012725257 -0.15794457
000200 8a e5 5a bf 46 88 94 3e 95 e0 38 be c7 4c 69 bf
       -0.855065 0.29010218 -0.18054421 -0.9113278
000210 a4 40 b4 3e ab f7 fc bd 68 cb 54 bf 74 a2 58 3e
       0.35205567 -0.123519264 -0.83122873 0.21155721
000220 2c 6b 72 3e e1 e1 29 be 99 68 06 bf 19 ff e3 3d
       0.23673695 -0.16590072 -0.52503353 0.111326404
000230 6b c1 f8 bd c0 b5 e8 be f8 58 44 bf 31 9b 02 be
       -0.121462665 -0.45451164 -0.76698256 -0.12754513
000240 88 d8 3f 3c 24 dd 04 bf cc 65 ac 3e 90 c7 21 3e
       0.01170934 -0.51899934 0.33671415 0.15798783
000250 c6 44 d4 3e bb 85 07 bf 40 06 9f be 2e 28 96 be
       0.4145872 -0.5293843 -0.31059456 -0.2932753
000260 fc 9d 88 3e b5 0d 15 bf 25 db a5 be ca aa d4 bd
       0.26683033 -0.5822404 -0.32393757 -0.10384138
000270 04 2c d7 3d 82 13 03 3e c1 f4 b5 3e 28 b6 98 bf
       0.10506442 0.1280041 0.35538295 -1.193059
000280 9a 96 d8 be fb fd f2 be 23 3c a2 bc 79 0e bc 3d
       -0.423024 -0.47459397 -0.019804066 0.09182448
000290 61 79 5d 3e 84 12 08 be 90 51 24 bf 7e 19 44 be
       0.21628334 -0.13288313 -0.64186954 -0.1915035
0002a0 9f 41 4b 3e 12 7c b3 3e c8 02 ca be d5 f5 03 3e
       0.19849251 0.35055596 -0.39455247 0.12886746
0002b0 2e c9 32 be 7e 02 96 3e 66 81 65 bd f9 15 74 3e
       -0.17459556 0.29298776 -0.056031607 0.23836507
0002c0 22 b2 1f bf 2a 43 cf bd 32 27 9e 3e a0 48 8c be
       -0.62381184 -0.101202324 0.3088928 -0.27399158
0002d0 99 2b ed be 04 2a 6d be f6 c5 97 be 5d 67 ea 3c
       -0.46322325 -0.23160559 -0.2964322 0.02861374
0002e0 d0 2d 90 3c da f6 93 bd 85 68 a3 be 51 08 12 3e
       0.01759997 -0.072248176 -0.3191568 0.14260985
0002f0 32 6d 8c be c6 71 67 3e a5 26 b1 be 59 b4 23 bf
       -0.2742706 0.22601995 -0.34599796 -0.63947064
000300 c4 2f 46 3d 32 96 45 be e8 e5 8f 3e c7 76 05 be
       0.048385397 -0.19295576 0.28105092 -0.13033591
000310 9b 5d e7 bc a8 b3 88 bd 0a 90 96 be 01 f8 5c bf
       -0.028242877 -0.06674892 -0.29406768 -0.86315924
000320 8f 65 e9 be e2 3d 8c be 8c 31 1d 3e 7b 4d 66 be
       -0.45585296 -0.27390963 0.15350932 -0.22490494
000330 0a 05 f1 bc 5f fa 8b be 70 7f 79 bd 11 08 9a be
       -0.029421348 -0.27339455 -0.06091255 -0.3008428
000340 34 ce 51 be eb 74 ae bd 9f 59 be bd 06 55 39 bc
       -0.20488816 -0.08518394 -0.092944376 -0.011311775
000350 6d 55 c0 be 6c 85 0b bf 4b 1e 7d bf bb 1c f8 be
       -0.37565175 -0.5450046 -0.9887435 -0.4845942
000360 f5 61 c1 bd 2c c6 76 bd c4 39 73 be c7 d7 3f bd
       -0.09442512 -0.060247585 -0.23752505 -0.04683664
000370 99 a9 9e be cc 7b b3 be 07 78 29 be dd 03 f3 bd
       -0.30988768 -0.35055387 -0.16549693 -0.11865971
000380 3c f6 7d 3d b0 ab 93 be 6f c2 e9 bb 78 a5 83 be
       0.062002406 -0.28841925 -0.007133774 -0.2571218
000390 a7 24 08 bd 34 d3 9c be 60 cd a5 3d b9 5e 20 bf
       -0.03323808 -0.30629885 0.08095813 -0.62644535
0003a0 b0 dd b6 be 74 2e 29 bf 72 91 e7 be ba 96 64 3e
       -0.3571601 -0.66086507 -0.45228153 0.22323123
0003b0 0c de 0f bf 8b 77 0d be f1 5e 1f 3c 15 a9 17 be
       -0.5619819 -0.13815133 0.009727226 -0.14810593
0003c0 d4 25 1f 3e 9b a3 2a be 57 fb bf be 57 42 97 3c
       0.15541774 -0.16663973 -0.37496445 0.01846425
0003d0 26 09 6f be e3 62 c6 3b 4a f7 af bd 5c 59 44 bf
       -0.23343334 0.0060542687 -0.085920885 -0.7669885
0003e0 a4 a2 1a bf 5d 1a 13 3e 57 77 87 bf 1c 49 9b be
       -0.6040442 0.14365526 -1.0583295 -0.30329216
0003f0 6b ce 8a be 2d 3c 66 bd 0a c3 47 3e 45 1e 33 3e
       -0.2711061 -0.05620973 0.19507995 0.17492016

fc2.bias f4 [128]
000000 24 22 4a be c5 04 38 be 34 54 5c bd ad 88 fc 3d
       -0.19739586 -0.1797057 -0.05379124 0.12330756
000010 b4 a1 a4 3e 76 64 73 3e 3f 24 f9 3d 83 01 27 3d
       0.3215462 0.23768792 0.121651165 0.040772926
000020 92 57 ef 3b 64 7e a1 be 4f 23 93 bd 99 63 a7 3e
       0.0073041404 -0.3154174 -0.07184469 0.32693174
000030 05 10 3f 3d 43 b7 03 be 33 97 e3 bd 13 6e 13 be
       0.046646137 -0.12862878 -0.11112823 -0.14397459
000040 b1 13 e4 bd 19 69 43 3d 8e 07 87 bb c6 df d1 bb
       -0.11136568 0.04770765 -0.0041207736 -0.0064048497
000050 68 61 e0 3d e4 b4 76 be 95 93 58 3d b4 ad 9c bd
       0.10956079 -0.24092442 0.05287512 -0.07650319
000060 8e 2b 7f 3e 90 35 85 be fa a2 b5 3d b6 c0 a4 bb
       0.24918959 -0.26017427 0.08868976 -0.0050278557
000070 37 b1 69 3e 0d 74 e3 bd fe bb 0b be 95 c6 50 3a
       0.22821508 -0.11106119 -0.13645932 0.00079641613
000080 13 dd 92 bc 13 46 68 3d b1 5f e2 3d 33 37 9c bc
       -0.017927682 0.056707453 0.11053408 -0.01906929
000090 12 d9 39 be de 0e 9a 3d 9d 45 04 be 68 5b f5 3d
       -0.18149212 0.07522367 -0.1291718 0.11980325
0000a0 68 10 b7 be 00 26 a4 be db 9e 83 bd ad 1f cb bd
       -0.35754704 -0.32060242 -0.06426784 -0.09918151
0000b0 d0 0c 29 bc 28 97 e5 bd 56 df 1f bc 0c 19 28 be
       -0.010317996 -0.112104714 -0.009757837 -0.16415805
0000c0 9e c8 81 bd 42 e1 46 be e2 0c 81 3e ab 49 36 be
       -0.06337093 -0.19421867 0.2520514 -0.1780154
0000d0 56 22 b1 3d 2f 89 38 be 99 b9 3a be 03 d3 81 bd
       0.08649127 -0.18021081 -0.18234862 -0.063390754
0000e0 61 b5 14 bd b7 ed d0 bd c4 4c 9e bc 01 00 f8 bb
       -0.03630579 -0.102015905 -0.019323714 -0.00756836
0000f0 2d 36 a9 3d 9e 6c b3 bd c3 bf 28 be 20 c4 9d bd
       0.08262286 -0.087609515 -0.16479401 -0.077034235
000100 c0 79 df bd 0d c6 b1 3d cf ae 84 bd 42 17 18 39
       -0.10911894 0.08680353 -0.064786546 0.00014504514
000110 90 77 43 bd 0b 19 e4 bd 8a c6 b9 ba d5 06 5f be
       -0.047721446 -0.11137589 -0.0014173549 -0.2177995
000120 2f 28 9f bd 2b cd 71 bd d5 1b fa bd 8b f6 2b be
       -0.07771336 -0.059033554 -0.1221234 -0.16793267
000130 50 4f a9 3c f9 6e fe bd fb ca 86 be 73 07 6c be
       0.020667702 -0.1242351 -0.26326737 -0.23049717
000140 fc ba 73 be c5 56 7a 3e 42 b9 b3 bd 7f af b5 3b
       -0.23801798 0.24447162 -0.087755695 0.0055446024
000150 32 a7 c6 bd d6 7f 2c bd 4d 7e 8a 3e 06 4b a3 bd
       -0.09699859 -0.0421141 0.27049485 -0.07973294
000160 0c 62 e2 bd 7e a4 ff 3c 6d 13 32 3e f1 25 0a be
       -0.11053857 0.031206366 0.17390223 -0.13491036
000170 9c 3b a7 3a 5f 0f b2 bd 07 eb 37 3e 66 24 51 be
       0.0012758854 -0.08694338 0.1796075 -0.20424041
000180 cf 34 01 3e 25 88 c0 3d cb ef 33 be 03 2c 85 bd
       0.12617801 0.094009675 -0.17571943 -0.06502535
000190 ab 62 70 bd b8 df 63 bd b1 d4 76 be 86 a9 cd 3c
       -0.058687847 -0.055633277 -0.24104573 0.02510525
0001a0 33 98 26 be 21 2b b1 3d b4 da 33 3c 8e d3 33 bd
       -0.16268997 0.08650804 0.010977436 -0.043902926
0001b0 92 15 48 3e a1 01 bc bd f0 0d 62 be a6 bf 69 be
       0.19539478 -0.09179998 -0.22075629 -0.22827014
0001c0 ff 52 46 be 3d 5f d7 3d f9 63 1f 3e 77 4b 1b bc
       -0.19367598 0.10516212 0.1556548 -0.009478441
0001d0 c6 a1 a1 3e ea d1 75 bd d2 97 9b 3e 9e db ca 3c
       0.31568736 -0.060014643 0.30389267 0.024762925
0001e0 c2 f4 60 be 72 3d 81 3d 14 92 05 3b ab 86 25 be
       -0.21968368 0.06310548 0.0020381259 -0.16164653
0001f0 21 5b 0f be 0b a6 2e 3c 7f 28 b5 bd 15 99 e8 bd
       -0.13999607 0.010659705 -0.08845615 -0.11357323

fc3.weight f4 [6, 128]
000000 d7 c1 7f 3e 76 69 be bf 48 ea e0 bd 32 b5 3c bf
       0.24976288 -1.4875934 -0.109821856 -0.7371398
000010 d3 9e 28 3d 9a ba e2 be 1b f7 22 3e aa c0 37 bd
       0.04116709 -0.4428299 0.15914576 -0.044861473
000020 0f b0 3b bd 70 26 30 3e 86 f3 93 be d4 4c 95 bc
       -0.0458222 0.17202163 -0.2889673 -0.018225111
000030 61 07 7e be b1 a0 24 bf 74 10 55 3e 12 2e 01 3e
       -0.24807502 -0.64307696 0.20807058 0.1261523
000040 51 ac ed be 92 57 13 bf 60 d6 d1 be d1 18 54 be
       -0.4642053 -0.57555497 -0.40983868 -0.20712592
000050 97 31 64 bf ea 9b 27 3f bb 3b 0d c0 2a 71 da be
       -0.8913817 0.6547228 -2.2067707 -0.42664462
000060 d8 01 96 bf f4 aa 0f bf 82 11 35 be 56 7d 95 be
       -1.1719313 -0.5612023 -0.1768246 -0.29197186
000070 77 c9 7a 3f 4d 70 af 3e 6c 00 b8 3e a9 b6 de be
       0.9796366 0.34265366 0.35937822 -0.43498734
000080 ee ac 94 3e 3c a8 ae be c9 4b 8f 3e 2e 4d 9e 3f
       0.29038185 -0.34112728 0.27987507 1.2367303
000090 d0 ea f3 be 1e 70 10 3e 73 31 87 be 86 3a 9f 3d
       -0.47640085 0.1410527 -0.26404914 0.07774834
0000a0 cd ba 94 3e ca 2a 5c 3e 4d 24 81 bf 8a a5 12 3f
       0.29048768 0.21500698 -1.0089203 0.5728384
0000b0 c5 2b 5e 3f e3 83 f0 3e a2 35 45 be 32 6d 58 3e
       0.86785537 0.46975622 -0.1925874 0.21135405
0000c0 8b 1b 49 be af 94 02 bf 92 1f c2 3e 84 ec 76 3e
       -0.19639413 -0.51008123 0.3791471 0.24113661
0000d0 b6 f6 09 be 75 c1 76 3d 64 0e fb 3e 0b 6a 0c bf
       -0.13473019 0.06024309 0.49034417 -0.5484931
0000e0 34 1e 66 be 99 6f 85 3e a2 74 d1 bf 84 f7 3d be
       -0.22472459 0.26061705 -1.6363719 -0.18551451
0000f0 25 47 10 3f 61 28 89 bf 2f 09 ad 3f 3f 02 1c be
       0.5635856 -1.0715448 1.3518428 -0.15235232
000100 88 c1 e4 3e 2f 3a c5 3e fd e4 8d 3e 6a c6 01 3f
       0.44678903 0.38520953 0.27713767 0.5069338
000110 93 eb 63 3d 87 a2 9b 3f 7d 81 c1 bf c6 24 8b 3d
       0.055644583 1.2158974 -1.5117642 0.06794123
000120 9a de 1f bf 21 32 34 3f df 49 11 3f 7f 04 e1 bd
       -0.6244904 0.7038899 0.56753343 -0.10987186
000130 7e f8 c0 3e 8b e5 6d bd ac f9 e8 3e 72 2f fa bd
       0.37689584 -0.058080237 0.45502985 -0.12216081
000140 92 09 0b bf 5b 57 0f c0 c2 9c c3 bd ab 71 95 3b
       -0.5431148 -2.2397068 -0.095513836 0.0045606694
000150 4c bd 27 3e 48 87 91 3e 76 46 52 3f 8d c5 af be
       0.16380805 0.28423524 0.82138765 -0.34330407
000160 cb 9a 59 3e 96 30 3d 3f 80 76 92 3f 11 08 6a 3f
       0.21250455 0.7390226 1.1442413 0.9141856
000170 be 3c 51 3f bd cd 63 3f d7 f6 7e 3e ac d6 e4 bd
       0.8173331 0.88985807 0.2489885 -0.11173758
000180 86 5f 0c 3f 66 58 9b be e8 f5 20 3e db 5c 16 3f
       0.5483326 -0.3034088 0.15718806 0.58735436
000190 33 a4 ab bd 66 3c ff bf d3 d5 60 3c 08 bf 85 3f
       -0.08380928 -1.9940307 0.013722855 1.0448923
0001a0 22 86 ea bd 4d 6c 65 be 7a 2a d1 bd c9 85 17 3f
       -0.11451365 -0.22404595 -0.1021318 0.59188515
0001b0 ac 5f c4 3e 4d f1 40 3f b1 22 b9 3e 24 dc 11 3f
       0.38354242 0.75368196 0.3615928 0.5697653
0001c0 00 e5 fd 3e a1 7b c2 3d 7a ef 43 be e7 1d fa 3e
       0.49588776 0.094962366 -0.19134322 0.4885094
0001d0 3a 65 d9 be ca be a2 3c 3e f0 9b 3e 06 9d dc be
       -0.42460042 0.019866366 0.30456728 -0.4308855
0001e0 28 85 8d 3f 51 1c b3 3a 5f 98 97 3e 2a 54 43 3f
       1.1056261 0.0013665055 0.29608437 0.763003
0001f0 06 54 05 be 97 49 11 3f 8f ff 28 3d 64 ec f3 3e
       -0.13020334 0.56752914 0.041259345 0.4764129
000200 3c 55 77 bd 04 b8 c4 3f 6c ba 16 be e8 f4 bb be
       -0.06038402 1.5368657 -0.14719552 -0.36710286
000210 65 31 8f be 5c 98 a5 3d d7 6e a1 bd 4e 4f c7 3c
       -0.27967373 0.08085701 -0.07882469 0.024329808
000220 89 b0 b3 bd 48 59 ca 3d d3 86 b7 be 13 3f 3e bf
       -0.08773906 0.0988031 -0.3584505 -0.74314994
000230 a0 24 94 3e 98 b6 a6 3d 86 c3 bd bd 23 93 25 3f
       0.28934193 0.08140296 -0.09265809 0.6467764
000240 9e ff 00 3e b3 78 47 be f2 0a a8 3e ac 65 b7 be
       0.1259751 -0.19479637 0.3282085 -0.35819757
000250 2b b1 ac be df 21 08 bf 0c ed bf 3e 4f 69 98 be
       -0.33728918 -0.53176683 0.3748554 -0.29767844
000260 dd 43 48 3f 96 ba ea 3e de bd 12 bd 1b 1d 66 3d
       0.7822855 0.4584548 -0.035825603 0.0561801
000270 fd 4f f3 3d 87 22 82 bf 80 90 f0 be aa f7 f8 bd
       0.11880491 -1.0166787 -0.46985245 -0.12156613
000280 f7 a1 e2 bd f3 52 c3 bd 13 d6 5c 3e b9 f9 c8 be
       -0.110660486 -0.09537306 0.21566038 -0.39253023
000290 11 20 ff be 63 1f 4f 3d 8a c9 36 be 21 2e 08 3a
       -0.49829152 0.050567042 -0.17850319 0.0005194862
0002a0 44 4c 11 3f 67 77 1f bf e7 e7 67 bf a3 24 1b bf
       0.56757 -0.6229157 -0.9058823 -0.6060278
0002b0 70 74 65 3f 21 36 f1 3d 88 67 e7 be 44 8e 53 bd
       0.89630795 0.117779024 -0.45196176 -0.051649347
0002c0 62 48 15 3e a0 ce 39 bb 56 26 f3 3e 03 b1 f0 3e
       0.14578393 -0.0028351918 0.47490185 0.4701005
0002d0 39 0b fa 3c 1b ec b4 be 6f ba 5e be af 16 61 be
       0.03052293 -0.35336384 -0.21750806 -0.2198131
0002e0 e4 28 32 3d 69 d4 b9 3e a8 1a c7 3f 01 8b 84 bd
       0.043496028 0.3629487 1.555501 -0.064718254
0002f0 c4 42 fa bc 5e 67 a7 3f 74 85 80 be 44 ef 94 3d
       -0.030549414 1.307842 -0.25101817 0.07272199
000300 4f ca a2 3d aa 74 09 3e 0c df 88 bd b7 01 5c bd
       0.079487436 0.1342341 -0.06683168 -0.053712573
000310 1c 6d 66 bd be 75 20 bf dd aa 90 be 04 d5 ad bd
       -0.0562564 -0.6267966 -0.28255358 -0.08487895
000320 0d bc 82 be 39 c1 8d 3e 5a 15 77 3f 2e 1a b7 3e
       -0.25534096 0.2768648 0.96516955 0.3576216
000330 3e 9d da be 15 50 9e 3e 7f 8b 2e 3f af 30 78 3e
       -0.4269809 0.30920473 0.68181604 0.24237321
000340 48 37 e2 3e 62 13 8e 3f 7d f0 08 3f 8f 2a 11 3f
       0.441828 1.1099665 0.53491956 0.56705564
000350 53 02 91 be 45 c6 12 3e 58 43 08 bf 57 62 c1 3e
       -0.28322086 0.14333446 -0.5322776 0.3777034
000360 55 b6 a9 3d f0 c8 01 bf fe eb 79 be eb ec 04 bf
       0.0828673 -0.5069723 -0.2440643 -0.5192401
000370 92 d1 eb be 11 4d 30 bd f8 11 06 3e 84 5d 02 bf
       -0.46058327 -0.043042246 0.13092792 -0.50923944
000380 ab 21 16 3e c9 a6 a3 bd 07 ac de be 6b ab 1a 3f
       0.14661281 -0.07990796 -0.4349062 0.60417813
000390 6b 4f 94 3e 45 ed 90 3e 74 a4 4f 3f bc 2e a7 bf
       0.2896684 0.28306022 0.8111031 -1.3061137
0003a0 2d 72 a4 bd dc 6e 3a 3e 93 41 19 bd c9 b9 17 3e
       -0.0802959 0.18206352 -0.037416052 0.14816965
0003b0 21 2d 6f 3a 51 61 51 bf ff 1d 9c 3c 8d d2 b9 3e
       0.0009123851 -0.8178912 0.019057272 0.3629345
0003c0 14 b8 d9 3e e0 dd 1f 3f 64 f0 54 3d d9 95 d5 3d
       0.42523253 0.6244793 0.051987067 0.10428972
0003d0 64 f2 5f 3f 67 6b 18 bf 61 45 fa 3d 90 6f 5f 3e
       0.87479234 -0.5953888 0.12220264 0.21819901
0003e0 75 84 55 be fb 5f 9a be d6 55 1f 3e ac 80 21 3e
       -0.2085131 -0.30151352 0.15560088 0.1577174
0003f0 84 b6 69 3e 47 2a 4f 3e 53 6f 65 bf 48 8c 80 be
       0.2282353 0.20230971 -0.8962299 -0.25107026

fc3.bias f4 [6]
000000 f7 e4 84 bc 13 22 40 be 14 82 df 3d 44 6c 83 3e
       -0.01622246 -0.18762998 0.10913482 0.25668538
000010 80 29 59 bd 9f e9 29 3e
       -0.053018093 0.16593026
