HW3/preTrained/ddpg_critic_Pendulum-v1_05112024_181619_.pth (torch, 155650 bytes, 11 tensors)

fc_state1.weight f4 [64, 3]
000000 a4 4e 9d be 5e cd 4a 3f 3b 66 26 bd 61 6f 45 bd
       -0.3072406 0.79219615 -0.04062484 -0.048201922
000010 10 85 c9 bf d3 8c b0 be 44 df 88 be e2 a2 b5 bf
       -1.5743732 -0.3448244 -0.26732838 -1.4190333
000020 e1 61 1b be e7 ce 74 be b6 94 d1 3d 16 24 fa 3e
       -0.15174057 -0.23907052 0.102334425 0.48855656
000030 04 d5 93 3f c0 9e be be ba 7c b2 be 86 f8 84 be
       1.1549382 -0.37230492 -0.34860784 -0.25970858
000040 d5 d0 42 bf 68 b8 b5 3e c9 96 ac bd d9 27 26 be
       -0.760999 0.35492253 -0.084271975 -0.16226138
000050 ae 99 91 3c 95 d4 46 bf f3 d7 2c bf d1 58 2b 3e
       0.017773475 -0.77668124 -0.6751701 0.167331
000060 fb 71 ec 3d 3a e0 14 3f d0 39 02 be 79 d5 a4 bd
       0.115451775 0.5815464 -0.12717366 -0.08048529
000070 2e ba d9 bd 94 d8 69 ba 98 1b 49 be 9e cc ee bf
       -0.10631214 -0.0008920517 -0.19639432 -1.8656194
000080 a2 0c c7 be ab df 12 bf 15 00 bb bd 51 af d1 bd
       -0.38876826 -0.5737254 -0.09130875 -0.10238517
000090 94 e9 89 3f 95 78 07 3f 2c 6a 28 bd f4 17 02 3f
       1.0774407 0.5291837 -0.04111688 0.508178
0000a0 cd e7 90 3e c8 db d2 3e ac 74 ed 3d 09 96 75 bf
       0.2830185 0.41183305 0.11594519 -0.9593206
0000b0 08 89 5c be 8a c4 d1 3e 3c 93 80 3f 65 3f cb 3e
       -0.21536648 0.4097026 1.0044932 0.39696804
0000c0 4c 12 e8 3e d0 f9 98 3f ce 55 b8 3e d4 c9 f5 bd
       0.4532646 1.1951237 0.36002964 -0.12001386
0000d0 f5 75 32 3f a6 12 6b be 8a e6 26 bf c7 8a b8 bf
       0.6971124 -0.22956333 -0.65195525 -1.4417351
0000e0 33 7b b6 bd 0e a4 5c bf 13 b4 a2 3a 26 ed 03 3e
       -0.08910217 -0.8618783 0.0012413285 0.12883434
0000f0 a4 c1 a0 3e 77 2d 25 bd 41 55 00 3e d9 75 af bc
       0.31397736 -0.04032656 0.12532522 -0.021418499
000100 e3 8c 5f 3e 71 6d ae 3e b1 5c b7 be 3f 7f 13 3f
       0.21831088 0.34067872 -0.35812905 0.5761604
000110 c7 c4 bb 3e 1b 44 b6 3f 94 83 19 3f 39 ad 00 3f
       0.36673567 1.4239534 0.599664 0.50264317
000120 5f 90 c9 3c a7 12 a3 3f 37 32 d5 3e 0f 80 fe bd
       0.024604974 1.2740067 0.41639873 -0.12426769
000130 7f fc 42 3e d4 eb ca be 8e 60 c0 be 30 43 75 3f
       0.19041632 -0.39633048 -0.37573665 0.95805645
000140 d9 20 91 3e 0a 39 a6 3e 09 4d b7 3f aa 99 a2 3e
       0.28345373 0.32465392 1.4320384 0.3175786
000150 87 e5 b8 bd 07 c4 c3 3d de 0e b3 be 46 d1 06 be
       -0.09028154 0.095588736 -0.3497228 -0.13165769
000160 69 8a 96 3c 80 81 3d 3e 73 62 1e bf 02 f9 b0 3e
       0.018376546 0.18506432 -0.6186897 0.34564978
000170 dc dd e0 3d e1 51 10 3f b2 a8 87 3f 90 63 47 3e
       0.10979816 0.5637494 1.0598357 0.19471574
000180 41 30 11 bf f0 2a e6 3e c7 5e 05 be 92 92 0a 3f
       -0.56714255 0.44954634 -0.13024436 0.541299
000190 d8 e2 9a bf ed 31 4c be 21 6e 3e bf 1b b5 fd 3c
       -1.2100477 -0.1994092 -0.74386793 0.030970147
0001a0 79 03 1d 3e e3 e9 3a 3f 99 50 6e 3f 4e cc bd 3d
       0.15333356 0.7301313 0.9309173 0.09267484
0001b0 16 43 4d bf b0 7f 76 bf c4 61 94 3c 65 80 1d be
       -0.8018049 -0.96288586 0.018113025 -0.1538101
0001c0 b3 e7 5a 3d 01 4e 64 3d 6b 92 97 3e bb 4f 59 3f
       0.05344362 0.055738453 0.29603896 0.84887284
0001d0 5f 11 63 be ca 0c 9c 3f 11 32 a8 bf 9d b3 c0 be
       -0.22174595 1.2191403 -1.3140279 -0.37637034
0001e0 60 55 12 be 5d 97 ba be ef 5e 8d 3e d2 25 cc 3e
       -0.1429038 -0.36443606 0.2761149 0.39872605
0001f0 23 d8 17 bf 7b 80 71 3e c2 57 bd be a1 ce 9d bd
       -0.59314173 0.23584168 -0.36981016 -0.07705427
000200 0e bc 04 3e 07 5a 62 3d 9b b8 8a bf b3 cf 8d 3d
       0.12962362 0.055261638 -1.0837587 0.06924381
000210 eb 5a 46 bf de be 21 bf 1d 06 a7 bd 88 6e 24 bf
       -0.7748248 -0.63181865 -0.08155463 -0.6423116
000220 cc 51 34 3f 6b 9f 8d 3d 27 27 1d 3e f0 80 e8 3f
       0.7043731 0.06915172 0.15346967 1.8164349
000230 e9 eb b1 3e a5 38 a3 bd f1 1e bc bf cc 54 79 be
       0.34750298 -0.079697885 -1.4696943 -0.24348754
000240 b4 1a 7f 3e a1 45 64 3e 4f a3 56 3e 3a bd 45 be
       0.2491253 0.22292186 0.20960735 -0.19310465
000250 40 65 88 bf a7 c7 34 be bd 53 74 3e 59 4d 42 bf
       -1.0655899 -0.17654286 0.23860069 -0.75899273
000260 84 40 c4 3e 70 97 70 3f aa a0 b4 be 5f f9 b4 be
       0.38330472 0.93981075 -0.35278827 -0.35346505
000270 a3 84 e6 3e b6 65 87 3f ad 66 01 be fc e9 ba 3e
       0.4502307 1.0577915 -0.12636824 0.3650664
000280 20 8f 8a 3e 3c 89 ca 3e d3 e4 7b be 01 c5 a5 bf
       0.2706232 0.39557827 -0.24599008 -1.2950746
000290 30 53 8d be fa 87 49 bf f6 5f 7a 3d b3 53 81 bd
       -0.2760253 -0.7872311 0.06112667 -0.063147925
0002a0 39 38 bf 3a 10 c2 3b 3f 9a 70 07 3e 74 e7 ab 3e
       0.0014588899 0.7334299 0.13226548 0.33575022
0002b0 ae e0 ba be 9f a2 a0 be 46 39 0e 3f 9f 70 1e 3e
       -0.36499542 -0.3137407 0.5555614 0.15472649
0002c0 23 c4 96 3e 98 e0 25 be 3a 7a 1f 3f 8c 74 79 3e
       0.29446515 -0.16198957 0.6229588 0.24360865
0002d0 35 f7 47 bf 50 cc 6b 3c f8 68 97 bd 46 9b c1 3d
       -0.78111583 0.014391974 -0.07393068 0.09453444
0002e0 34 31 99 be 22 9b 46 be ef c3 0a 3f 45 ed d7 3f
       -0.29920352 -0.19395116 0.5420522 1.6869284
0002f0 d5 97 d5 3e 97 8e 3e be ba c7 cf be 33 6c d2 bd
       0.417174 -0.18609081 -0.40582067 -0.102745436

fc_state1.bias f4 [64]
000000 29 f8 18 3f 62 b6 6c be f8 ca 05 3c 4e 68 20 bf
       0.5975366 -0.23116449 0.008166067 -0.62659156
000010 9c ea 7b bf 2f 66 02 bf 29 f4 9e 3e 15 69 a0 bd
       -0.9840486 -0.5093717 0.31045654 -0.07832543
000020 61 98 a3 3b e8 30 10 be 66 92 07 be 2a e5 1b 3f
       0.00499253 -0.14081156 -0.1323944 0.6089655
000030 99 39 ca be ca f5 f7 3d 79 37 14 3e 7d f7 35 be
       -0.3949707 0.121074274 0.14474286 -0.1777019
000040 8a 8f 39 bf 7d 2c e4 3d 11 3c 92 be 60 83 75 3e
       -0.7248465 0.11141298 -0.28561452 0.23975897
000050 08 84 bf 3e 00 c9 71 bf 6c 07 e4 be 3a 97 28 bf
       0.3740542 -0.94447327 -0.44536912 -0.65855753
000060 88 94 96 3e 2a cd de be 20 53 fb be 05 6b 5f 3d
       0.29410195 -0.43515903 -0.49086857 0.05454542
000070 11 63 89 bf e0 91 4f 3d ba 3e 0e 3f ac 1b 34 3e
       -1.0733358 0.050676227 0.55564463 0.17588681
000080 a4 ec 2f bf 0d 1b 78 3e ae 74 ac 3e 34 1d ae 3e
       -0.6872046 0.24229069 0.3368277 0.34006655
000090 b9 9c 11 bf 2c 8d f3 3e d7 6f bd bd 25 4b f3 be
       -0.56879765 0.47568643 -0.092498474 -0.47518268
0000a0 6d b1 06 3e 3e c5 ae 3e 1d ff 0d be 5e 98 ad 3e
       0.1315362 0.3413486 -0.13866849 0.3390531
0000b0 38 18 dd be 2b 9c 0c be 69 77 1f bf 7e 15 54 3e
       -0.4318254 -0.13731448 -0.6229158 0.20711324
0000c0 aa c5 3c 3e 56 01 aa be fa c8 20 bf d6 c9 0d bf
       0.18434778 -0.33204144 -0.62806666 -0.553861
0000d0 1b 8f 78 3c 23 2f 13 bf 6b f2 fb 3c 61 3a 70 3e
       0.015170838 -0.574938 0.030755242 0.2345977
0000e0 0b 92 22 3e 0b 25 d2 bd f6 07 4f bf 14 45 da 3d
       0.15876023 -0.10260972 -0.8087152 0.10657707
0000f0 74 6c 72 3e 80 84 2b bd 01 08 15 be 39 8b c7 3c
       0.23674184 -0.04187441 -0.14553834 0.024358379

fc_state2.weight f4 [64, 64]
000000 d0 79 05 3e c7 b6 0e be cc 4c 81 3e 99 8c 1f be
       0.13034749 -0.13936912 0.25253904 -0.15580977
000010 fb ae a3 bf 39 2e f1 be 11 2a be 3d 4a e6 92 bd
       -1.2787775 -0.47105578 0.09285367 -0.071728304
000020 e8 05 89 bd f8 65 bd bc 5a a6 88 bd 3a 4b 61 3e
       -0.0669058 -0.023119912 -0.06672354 0.22001353
000030 63 55 80 3e 5f 00 2b 3e 06 ac ee bd cf a6 19 3e
       0.25065145 0.1669936 -0.116539046 0.15005039
000040 12 57 f6 bf 31 4c a1 3c b1 61 8c 3e eb be 12 be
       -1.9245322 0.019689651 0.27418283 -0.14330642
000050 23 c7 30 3d f5 b9 bf be 9a da 55 be af 61 9d bd
       0.04315866 -0.3744656 -0.20884171 -0.07684647
000060 03 1e 6b 3e fc 05 ca bc 04 fe ee be 86 5b 9f 3e
       0.22960667 -0.024661057 -0.46678174 0.31124514
000070 b9 1f 98 be 14 af b4 3d 75 bd ae 3e 62 99 77 3e
       -0.29711702 0.08822456 0.3412892 0.24179605
000080 5b dc a7 be 15 61 49 bf 69 ed 8e 3d 76 3b 44 3e
       -0.32785305 -0.7866376 0.06978876 0.19163308
000090 2f 43 f7 3e c8 9a c2 3d 8a 86 41 3e da 11 9c bf
       0.48293445 0.095021784 0.18898979 -1.2192948
0000a0 df 52 9c be 53 7f 9e bc a1 6d 5d bd b6 44 33 be
       -0.30531976 -0.019347822 -0.05405963 -0.1750668
0000b0 20 18 0d 3d ee f4 1f be 7c d1 aa bf 7b 32 30 3e
       0.034446836 -0.15620777 -1.334518 0.17206757
0000c0 cd bc a6 bc 3d 54 b9 3d 0f d3 15 be 6f df 09 bf
       -0.0203537 0.0904927 -0.14631294 -0.5385656
0000d0 69 04 57 3e ff 8f a6 3e 98 52 8a 3e e3 cb c8 3e
       0.20997776 0.32531735 0.2701614 0.39218053
0000e0 d3 06 e7 3d 3c 4f 33 bd 4b c2 9a be 27 ae 5e bd
       0.112805985 -0.043776736 -0.3022636 -0.054365303
0000f0 60 6d bb 3e b9 60 b1 3c 3d 6b dd 3e 65 41 ed bc
       0.36606884 0.021652566 0.4324588 -0.028961847
000100 a9 74 6e 3c ef 12 ba be 66 aa 9c 3e 74 e8 28 be
       0.014554181 -0.3634257 0.30598754 -0.16494924
000110 94 6e 0c bf 11 c6 4f be 4a ab 36 bc 6d 62 2e 3e
       -0.5485623 -0.202904 -0.011149237 0.17029734
000120 09 86 7b bd 28 ed fb 3d 4a c8 73 be a0 d6 f3 bd
       -0.061407123 0.12301093 -0.23806873 -0.11906171
000130 ad 97 4d bf 55 08 86 3c 01 6a 21 3e 62 4b 44 3d
       -0.80309564 0.016361395 0.15763094 0.047923453
000140 a3 09 e9 3c 28 70 87 be 78 86 5d 3e 35 c6 9a bc
       0.028446978 -0.26452756 0.21633327 -0.01889334
000150 4f 49 94 bd 47 bf c7 3c 17 92 c0 3d 2b 3d e5 bd
       -0.07240545 0.0243832 0.094028644 -0.111933075
000160 9e a7 26 3d 35 60 ee bf d8 c7 96 3d 9d 9d 61 3d
       0.040687196 -1.862311 0.07362336 0.055081952
000170 9a 5b 8d bf 34 f2 1b 3e 40 51 77 3e ed 58 fc bc
       -1.104358 0.15229112 0.24152088 -0.030804122
000180 85 f1 8d bf 6f 34 d3 3d 72 b0 ff 3d 02 b1 b7 bd
       -1.1089331 0.10312735 0.12484826 -0.089693084
000190 93 b9 72 3e aa 18 fe 3c 63 2c b0 be 03 d2 2f 3d
       0.23703603 0.03101762 -0.34408864 0.042924892
0001a0 bc 25 a5 bb ff bd 37 3d b5 1f 46 bd f3 ea 18 3e
       -0.0050398987 0.04485893 -0.048370082 0.14933376
0001b0 e4 ec e3 3c 1a ca 01 3e b4 d5 a1 3e 03 1f 39 3e
       0.02782292 0.12674752 0.31608355 0.18078236
0001c0 8e ab f0 3d 28 83 3e bd 77 85 2d 3e 0f 17 9f bf
       0.117514715 -0.0465118 0.16945444 -1.2428912
0001d0 ce e7 d5 bb de e9 9d 3d 5d 83 13 3e c5 64 3b 3d
       -0.0065278774 0.07710622 0.1440558 0.0457504
0001e0 fd 5b 0e be 79 ba f8 bf de e7 d9 be 8a ec 86 3d
       -0.13902278 -1.9431907 -0.42559713 0.06588085
0001f0 08 b0 1e be ef 32 af bf 92 37 92 3d b3 55 d8 3d
       -0.15496838 -1.3687419 0.071395054 0.10563221
000200 25 4a 1b bd bc 20 f6 bd a5 df 8f bd 25 87 8e bc
       -0.037912507 -0.12017962 -0.07025079 -0.017398426
000210 82 e2 36 3c 9b af d4 bb 85 32 85 bc 97 e3 d5 3d
       0.011162402 -0.0064906604 -0.016259441 0.104438
000220 ab 2e 0b be 5c c8 1e bd 70 86 e7 bd f4 20 45 3c
       -0.13592021 -0.038765296 -0.11304939 0.012031782
000230 0c 07 07 be 0c 85 ae bd b4 d5 5d bc eb 98 a3 bd
       -0.13186282 -0.085214704 -0.01353972 -0.07988151
000240 4b 7a 3c 3d 4e 3a f5 bc 34 0b 40 bc 51 8b c9 bd
       0.046015065 -0.029935028 -0.011721421 -0.098410256
000250 c7 0b 9b bd a0 ab e2 3d 11 d1 96 bd 0a 91 c0 3d
       -0.07570606 0.11067891 -0.07364095 0.09402664
000260 6d 1b f1 bd 55 2e 3c bb 77 c7 50 3c fa 2a a0 bd
       -0.11772809 -0.002871414 0.012742869 -0.07820697
000270 69 02 ee bd f0 21 3c 3d 02 0e 55 bd ad 0e 09 be
       -0.116215535 0.045930803 -0.052015312 -0.13384505
000280 84 09 da bd c7 4a d5 bd 74 00 0d 3c b5 86 ed bb
       -0.10646346 -0.10414653 0.008606065 -0.0072487243
000290 42 2b ec bd 24 37 b4 3b 74 1a 42 3d e9 f2 26 3d
       -0.11531688 0.0054997373 0.04738851 0.040759
0002a0 04 e0 8f 3d 70 c3 51 bd 39 ca 28 3d 62 c5 14 bd
       0.070251495 -0.051211774 0.04120848 -0.03632105
0002b0 d3 51 a5 3d c4 88 da bd 13 d9 7b 3d d1 60 1f be
       0.08072247 -0.10670617 0.061486315 -0.15564276
0002c0 85 a0 7c bd ad 37 19 3d 6f e3 aa 3d da bf c6 bc
       -0.06167652 0.037406612 0.08344161 -0.024261404
0002d0 a9 15 a9 bc 5f 64 13 3d f6 57 f3 bd eb 9c c6 bd
       -0.020640211 0.035984393 -0.118820116 -0.096978985
0002e0 77 8b 74 bd 70 51 2a be db f3 ca bb 6e b3 d0 3d
       -0.059703317 -0.16632628 -0.0061936206 0.101904735
0002f0 a4 10 7c b8 66 c7 6f bd b2 c0 35 bd 41 60 d3 bd
       -6.009698e-05 -0.05853977 -0.04437322 -0.10321093
000300 fa 54 25 bb 30 87 ae be b0 7f 05 3e 77 eb 7c be
       -0.0025227652 -0.34087515 0.1303699 -0.24699198
000310 ac b0 77 3f d6 bf 71 be f0 25 19 3d 58 d3 d6 3d
       0.96753955 -0.23608336 0.037389696 0.10489529
000320 0c af 80 3d 45 bf 03 bf b5 ab c0 be f2 da 99 bd
       0.062833875 -0.5146373 -0.37631002 -0.07512464
000330 b8 c6 3a bf 77 d6 59 be 88 8c aa 3a 8d ee c6 be
       -0.7295947 -0.21273218 0.0013011852 -0.38853875
000340 72 6b fa 3c 4c af 73 be df 67 02 3e e4 0e 18 3e
       0.030568812 -0.23797339 0.12734936 0.1484943
000350 c9 15 04 be 41 e9 95 be 0b ff 0c be 52 8f 34 bf
       -0.12898935 -0.2927952 -0.13769166 -0.7053119
000360 86 01 3b bc 81 01 9d be 51 1d e4 3d d5 7b 99 bd
       -0.011413937 -0.3066521 0.11138404 -0.07494322
000370 1d 7d ee 3e e7 f0 68 bd 53 70 10 3e 0b dc 72 be
       0.4657983 -0.056870367 0.14105348 -0.23716752
000380 77 46 4e be 3d 60 f0 3e ff ea 3b 3e 10 9c ae be
       -0.20144068 0.46948424 0.18351363 -0.3410344
000390 19 14 34 be 46 0a 59 3d 70 3d 3b 3e 1a e3 07 3f
       -0.17585792 0.052988313 0.18285155 0.53080904
0003a0 64 35 2a 3e 5a 88 50 3e 1d 90 16 3c c6 9b f1 3d
       0.1662193 0.20364514 0.009189633 0.117972896
0003b0 ca 45 38 bf 7b 26 31 3e 63 b0 b6 bd 49 fc 3b 3e
       -0.7198149 0.17299835 -0.08920362 0.18357958
0003c0 22 84 66 be e8 ff a6 be 51 96 4e be fc 5d 5e 3f
       -0.22511342 -0.32617116 -0.20174529 0.8686216
0003d0 d4 73 42 be 62 11 02 bf de 8b 0a 3b a6 eb 5c bc
       -0.18989497 -0.50807774 0.0021140496 -0.013483917
0003e0 65 10 0b be e1 78 9f be 72 84 fc bf c9 a7 f0 3a
       -0.13580473 -0.3114691 -1.9727919 0.0018360551
0003f0 2a da cc bd 49 0b d9 be 29 d2 c4 be ab 9b 29 be
       -0.10002549 -0.42391422 -0.3844159 -0.16563289

fc_state2.bias f4 [64]
000000 ea 27 85 3e e1 56 30 3e 5a 59 2c bc de 3b 19 3e
       0.26007015 0.17220642 -0.01051935 0.14964244
000010 86 a9 1f be 7a f7 26 bb cc 20 42 3e 6a 86 0c 3f
       -0.15592012 -0.0025477097 0.18957824 0.548926
000020 c3 b8 51 3e 99 e2 df 3c ec fd e8 bd ee 0e a4 3e
       0.20480637 0.02732973 -0.11376557 0.3204264
000030 41 32 b1 3e 9a 96 7e 3e c6 ba 45 3d 07 c0 87 3d
       0.34608653 0.24862137 0.048273824 0.06628423
000040 2f 01 f7 3d f6 5e 23 be 87 14 b8 bd 47 be 9b 3e
       0.12060773 -0.15954193 -0.0898829 0.30418608
000050 72 a9 03 be ef 5f e2 3e 35 3d c4 3d d5 04 e4 bd
       -0.12857607 0.44213817 0.09581987 -0.11133734
000060 96 8a 72 3e f7 06 d2 bd a2 6d dd 3d 46 68 3a 3d
       0.23685679 -0.10255235 0.108119264 0.0455096
000070 0a f2 08 bd 9a 7a 23 3d 9d c3 cf bd e9 72 7f 3e
       -0.03343395 0.039911844 -0.10144732 0.24946178
000080 ab 0b 0c 3d 6f 68 d9 bd 7a 2a f9 3d f5 c8 f9 bb
       0.034190815 -0.10615622 0.12166305 -0.007622833
000090 d2 60 fc bc 28 b3 59 bd 1f ac 27 3e 3c e9 60 bd
       -0.030807886 -0.053149372 0.16374253 -0.05490993
0000a0 d7 0d f2 bd b8 b8 a1 3e 81 74 31 3e 08 dc 94 bc
       -0.11819046 0.31586242 0.17329599 -0.018171325
0000b0 19 c7 53 bd c7 20 25 be d2 e8 02 3c d7 fb 1b 3e
       -0.051703546 -0.16125785 0.007990079 0.15232788
0000c0 62 41 ca 3e 56 94 cb bd 8e 62 8b 3d 74 59 29 bd
       0.39503008 -0.09940402 0.06805907 -0.041345075
0000d0 6b 61 45 bf ac 39 30 bd 7d 3e f5 3d 9c 70 a7 3d
       -0.77101773 -0.04302375 0.11974809 0.081757754
0000e0 1d 87 24 3e f0 6f af be de 0f 4a 3e b5 cc 85 3e
       0.16067167 -0.3426509 0.19732615 0.26132742
0000f0 20 84 f5 bb 88 ec 90 bd 74 a3 07 bf 0f a4 12 3e
       -0.007492557 -0.07076365 -0.52983785 0.14320396

fc_action.weight f4 [64, 1]
000000 ac 91 bd be 02 67 4a 3f 45 03 31 3f 84 c5 82 3e
       -0.370252 0.7906343 0.69145614 0.25541317
000010 c9 cc d1 be dc 6c dd be e8 86 07 3f 9e 9b 93 bf
       -0.4097655 -0.43247116 0.52940226 -1.1531866
000020 85 08 20 3f b4 35 a8 3e 02 0f 40 bf 5a ed de 3e
       0.62513 0.32853472 -0.750229 0.4354046
000030 f8 a3 91 be 1e d7 28 bf 65 ab 1c 3e 43 af 66 3f
       -0.2844541 -0.6595324 0.15299757 0.9011118
000040 bf fb 40 3e 9a 1c e7 ba 51 8f cc be aa 72 8b bf
       0.18846034 -0.0017632425 -0.39953092 -1.0894368
000050 f9 26 3a be f0 25 86 3b 90 4d 28 bf cf f6 60 bf
       -0.1817893 0.004093878 -0.6574335 -0.878766
000060 6f d4 b3 3e 30 98 44 be 6a fe 6f bf 16 68 75 3f
       0.3512301 -0.1919868 -0.9374758 0.9586195
000070 5c 3e 25 3f d4 17 9a be 80 ba c2 be ad 37 a4 3e
       0.6454828 -0.30096304 -0.38032913 0.32073727
000080 74 99 af 3e a0 2c ed 3e 28 19 63 be 05 ab 6f 3f
       0.34296763 0.4632311 -0.22177565 0.9362033
000090 27 59 e6 3e b5 ef f2 be fa ea 13 3f bc 0b 25 3e
       0.44989893 -0.47448507 0.5778042 0.16117758
0000a0 bd 24 09 3f 20 05 64 3c 50 0a d7 be a8 9d 86 3f
       0.53571683 0.0139172375 -0.42000055 1.0516863
0000b0 08 96 61 3e 1d 60 c8 bd 1a e4 12 3f 0e 55 cc 3d
       0.22029889 -0.09783957 0.57379305 0.099771604
0000c0 cc 5d 8b 3b 9b f8 29 3f 96 c8 02 3e b6 ba 04 bf
       0.004253125 0.66394967 0.1277183 -0.518474
0000d0 e1 df d9 3a 02 80 b9 be 6f ed eb be a1 ef 44 bf
       0.0016622507 -0.36230475 -0.46079585 -0.76928145
0000e0 40 9e 48 3f 6e a5 f9 3d 8a 5d 27 bf 23 6b 6d bd
       0.7836647 0.12189756 -0.65377104 -0.0579635
0000f0 e1 0a 84 bf 85 ce 49 bf 5c 0d 00 3f f4 17 c1 bc
       -1.031582 -0.7883075 0.50020385 -0.023570992

fc_action.bias f4 [64]
000000 8a e8 66 bf 1a 1f a0 bd be 8c fd be 7c 82 1e bf
       -0.90198576 -0.07818432 -0.4952144 -0.61917853
000010 88 61 85 3e 69 c0 23 bf cf 9a 87 3e ba ff 71 bf
       0.26050973 -0.6396547 0.26485297 -0.9453083
000020 6c 61 e7 3e d0 51 29 bf 4f e3 7b be c0 cc d8 3e
       0.45191514 -0.6614046 -0.2459843 0.42343712
000030 88 d1 06 bf ce 36 97 be 76 af 3d 3e c1 43 0d bf
       -0.5266347 -0.29534 0.18523964 -0.5518151
000040 4f 2f cb 3d 51 f3 7b bd c8 6f f5 be 7f a5 3e bf
       0.09921133 -0.06151134 -0.47936845 -0.74471277
000050 a5 a8 50 3e 9d f8 34 bc 9b 14 11 bf cd fc b6 be
       0.20376833 -0.011045602 -0.56672066 -0.35739747
000060 dc 71 7c 3e bc 96 f0 be 71 b3 69 bf dc 1f ae be
       0.24652809 -0.4699 -0.9128943 -0.34008682
000070 15 8d f6 be 38 47 45 bf 54 45 20 bf c9 37 09 3f
       -0.48154512 -0.77061796 -0.62605786 0.53600746
000080 06 1a 21 bf 40 0d 74 bf 38 09 bb be 20 be 54 bf
       -0.62930334 -0.9533272 -0.3653047 -0.8310261
000090 e1 92 10 3f 8b f4 6e 3e 92 d5 14 bf e2 5c 4c 3d
       0.5647412 0.23335473 -0.5813838 0.049893267
0000a0 4c 4f 52 bf 4a d9 9d bc b4 4e 77 bf 03 df 47 bf
       -0.8215225 -0.01926865 -0.96604466 -0.78074664
0000b0 24 4c be be eb 12 1d 3f 70 27 d2 3e dd 6c b2 3e
       -0.37167466 0.6135699 0.41045713 0.3484868
0000c0 9d 5f 0a bc a5 30 80 bf a2 94 86 3d a7 ea ee 3e
       -0.008445648 -1.0014845 0.06571318 0.466634
0000d0 e1 3f bb bb 91 de 8f be 87 2e 67 be f6 a9 a3 be
       -0.005714402 -0.28099492 -0.22576343 -0.31965607
0000e0 65 05 4a bf bd 49 51 be 7b 35 f9 3e f7 91 bd 3e
       -0.7891448 -0.20438285 0.48673615 0.37025425
0000f0 97 65 5c bf b1 a4 3f 3f d6 29 77 bf a6 37 2f 3f
       -0.86092514 0.74860674 -0.9654821 0.6844429

fc1.weight f4 [128, 128]
000000 c5 46 aa 3c 2b 95 06 be 0c 23 a4 3d fc 5e 0e be
       0.020785699 -0.1314284 0.08014497 -0.13903421
000010 cf 29 98 bc bf 62 e7 bc f8 6e 7a bd 56 00 a8 bd
       -0.018574623 -0.028245328 -0.061140984 -0.08203189
000020 6c 03 c2 bd 78 cb 62 3d 92 df fa 3c c3 55 a3 bb
       -0.09473309 0.055369824 0.030624185 -0.004984589
000030 10 47 d0 bd b9 c6 fa bc f1 23 a3 3d c0 01 91 bc
       -0.10169804 -0.030612336 0.0796584 -0.01770103
000040 8f 9c 4d bc f2 53 76 3b 67 d7 a8 bc d6 0b ae bd
       -0.0125495335 0.0037586656 -0.020610524 -0.08498351
000050 db 76 4d 3d 19 03 20 3c 55 34 30 3d 75 e3 bb bd
       0.050162178 0.009766364 0.043018658 -0.09174243
000060 80 90 b6 bd 40 d3 0a bd ba 88 5d bd 18 65 5d bd
       -0.0891428 -0.03389287 -0.05408547 -0.05405149
000070 c1 70 36 3c c3 4f d8 3c 00 74 13 bd 20 b0 4b bd
       0.011135281 0.02640522 -0.035999298 -0.049728513
000080 03 cf f2 bd 32 c2 02 bb 36 d2 8e bd 1c b2 f2 3b
       -0.118558906 -0.0019952175 -0.06973688 0.007406486
000090 da c8 00 bb 52 ae 9a bd b5 74 99 bd 20 d7 6e 3c
       -0.0019650967 -0.0755278 -0.07492963 0.014577657
0000a0 46 05 63 bd af 9b 17 be ca 88 82 bd 13 87 40 bd
       -0.05542495 -0.14805482 -0.06373747 -0.047003817
0000b0 4a 89 8b 3c 5a ad 45 bc 8e 8e 51 bb eb e5 4e bd
       0.017033238 -0.012065256 -0.0031975838 -0.050512236
0000c0 96 d2 9e bd e8 10 a8 bd f6 7f f9 bd 66 e3 d3 bd
       -0.0775501 -0.082063496 -0.1218261 -0.10346107
0000d0 83 7d 8e bd 5b 32 b5 3b c0 26 8f bd 81 26 7b bd
       -0.06957533 0.0055296845 -0.06989813 -0.061316017
0000e0 f0 3c 2c bd 73 3a 4a bd 1d 24 5a bc a2 75 0b bd
       -0.042050302 -0.049372148 -0.013314274 -0.03404773
0000f0 cc b6 3e bd d5 d2 b4 bd dd 0e 52 bd 6f df ac bd
       -0.046561047 -0.088292755 -0.051283706 -0.08441054
000100 bf 5e 9f 3d 61 36 fa bd 83 6c 9d bd bc 3e 70 bc
       0.07781743 -0.12217403 -0.076867126 -0.014663395
000110 54 a2 2c bd 46 2a a8 bc 1b bc c7 bd 49 6a 0a 3c
       -0.042146996 -0.02052797 -0.09752675 0.008448192
000120 a7 c9 eb bd 2a 80 13 3d eb 84 b8 3c ac d3 55 bd
       -0.115130715 0.0360109 0.022524318 -0.05220382
000130 b4 4e b1 bd 15 90 00 bd f7 bb 90 bd ea c2 bd bc
       -0.086575896 -0.031387407 -0.070671014 -0.023164231
000140 be d4 9b bc 03 d7 a4 3c a4 1b 9e 3a 5b b7 42 3d
       -0.019022342 0.020122057 0.0012062681 0.047538143
000150 6e fa c3 bd 46 58 5b 3d d8 1b 52 bd 04 4d a9 bd
       -0.0956925 0.05355098 -0.051296085 -0.08266643
000160 c2 77 19 3d 77 9c aa bd 0b 0e 2a bc 10 46 c3 3d
       0.037467726 -0.083306246 -0.010379325 0.09534848
000170 19 5b af bd d6 5d a7 3d 67 7a 8e bd e9 11 32 bc
       -0.085622974 0.08172195 -0.0695694 -0.010868528
000180 55 60 a2 3d 98 54 81 3c fb f7 90 bd 88 54 13 be
       0.0792853 0.015787408 -0.070785485 -0.14387715
000190 d2 0e 9f bc 3a d4 c2 bd 2b 8a 13 3d c6 48 8c 3c
       -0.019416247 -0.09513135 0.03602044 0.017124545
0001a0 9d 73 95 bd f4 d0 dd bb 4d b6 a7 bd 25 d3 08 bd
       -0.07297442 -0.006769294 -0.08189068 -0.033404488
0001b0 65 05 6d bd 34 0c bd bd 34 43 a3 3c 3d 59 ac bd
       -0.057866473 -0.09230843 0.019929506 -0.08415458
0001c0 b5 20 24 3d 8d 3b f4 bc 3b 35 03 be 70 3d 5c 3c
       0.040070254 -0.029813552 -0.12813275 0.013442382
0001d0 ec 5f 01 3d 80 1a 05 bd 96 ab ca bd f9 cb 11 3c
       0.03158562 -0.032495975 -0.09896009 0.0088987285
0001e0 6a 8a 5d 3d 08 9b a6 bd 79 b7 e2 bd 73 64 9a bd
       0.05408708 -0.081350386 -0.11070151 -0.075386904
0001f0 37 53 15 3d 37 eb 66 3b 05 a8 04 bd f3 83 f7 bd
       0.036456313 0.0035235414 -0.0323868 -0.12085714
000200 27 ae 85 3e bb 0a 24 3e a1 b9 a9 bb 84 c3 2e 3d
       0.2610943 0.16019718 -0.0051795994 0.042666927
000210 65 fe 89 be bf 61 32 be 42 ff 84 3f 70 70 3b be
       -0.269519 -0.174201 1.0390399 -0.1830461
000220 83 b8 a7 be 88 33 37 3f 80 0e da bc eb e5 ba 3d
       -0.3275796 0.71563005 -0.026618242 0.091258846
000230 1b 42 a5 3e 3e 3e bd 3e ca 6f 66 bd 17 9c d3 3d
       0.32276997 0.3696155 -0.056258954 0.10332506
000240 7b ef 55 be c1 d0 ad 3e 13 aa 4a 3e f8 31 8a be
       -0.20892136 0.3394833 0.1979144 -0.26991248
000250 ca 4d 2b bd a5 44 51 3e 51 a3 ab 3e b9 1c 62 3d
       -0.041822232 0.20436342 0.33523038 0.055203173
000260 3e 14 8a 3e f1 71 da 3e f7 35 7e be 17 1b 1a bf
       0.2696857 0.42665055 -0.24825273 -0.60197586
000270 4c ae 1b bd 2d ed 8f 3c e8 a3 99 3d 32 85 dc 3c
       -0.03800802 0.017569149 0.07501966 0.026918981
000280 ae 4e 26 bb ce b8 d0 bd 52 2a 3e 3f d0 c0 5c bc
       -0.0025376487 -0.10191499 0.74283326 -0.013473704
000290 8c 34 33 3d 82 47 a7 3d b6 da ea 3d a6 d5 93 bd
       0.043751284 0.08167936 0.11467497 -0.072184846
0002a0 ce 8d 75 3e 55 87 67 bf fb a5 75 3e 3e d8 d3 bd
       0.23979875 -0.90440875 0.23989098 -0.10343979
0002b0 56 c8 e1 bc 93 58 61 3b 48 5b c1 bc f4 4a fb 3d
       -0.027561348 0.003438507 -0.023603097 0.122701555
0002c0 e3 f3 59 3e cc 9c d0 3d 28 e6 fb 3e 26 fd 35 3e
       0.21284442 0.10186157 0.49199033 0.1777235
0002d0 b3 31 00 3f 99 fb 02 bf a6 b0 96 3e 81 f0 ad 3e
       0.50075835 -0.5116516 0.29431647 0.33972552
0002e0 2d 62 d4 3e 51 ba 37 bd d9 8a 4f be 55 9f 91 3e
       0.41481152 -0.04485542 -0.2026781 0.28441873
0002f0 75 ed d5 3c 1f be 0b 3f c2 e4 a1 3c ad 5e 11 c0
       0.026114205 0.54586977 0.0197624 -2.2714036
000300 da 8a 8e 3d ef 7b bd 3d b6 e4 05 3f 89 bc 3d bd
       0.069600776 0.09252154 0.5230211 -0.04632238
000310 0b 0f 86 be 74 db 7b bc 21 04 24 3d f7 e2 32 3f
       -0.26183352 -0.015372146 0.040043 0.6987757
000320 c9 ab 8c bd 08 e8 94 3d b4 5c 95 bf 25 85 3b bd
       -0.06868703 0.07270819 -1.1668916 -0.045781273
000330 80 00 b4 3d 41 67 99 c0 a1 84 1c be c3 46 e5 be
       0.08789158 -4.793854 -0.15284969 -0.4478055
000340 6b d9 1a 3b dc 48 47 3c 25 1b 89 be 55 90 1f 40
       0.0023628126 0.012163367 -0.26778522 2.4931843
000350 6b a4 8e be b5 23 ca 3d 04 db f1 be fc c7 82 c0
       -0.27859816 0.09870092 -0.47237408 -4.086912
000360 fb 91 7c 3c 34 0d a2 3d 9f 5a 20 3e bc f5 c8 3d
       0.015415664 0.079126745 0.15659569 0.09812495
000370 92 e8 83 bf cc a7 95 3c 06 a8 18 bc 34 d1 09 be
       -1.030535 0.018268488 -0.009317404 -0.13458711
000380 4e 1a ac 3d da 53 8d bd 88 d6 92 3d c5 8a 42 bf
       0.08403455 -0.06900759 0.07169825 -0.75992996
000390 63 09 26 bc 87 8b 39 be 5c 98 35 bf 6a e6 ea 3c
       -0.010134074 -0.18119632 -0.70935607 0.028674323
0003a0 14 70 61 3c 70 84 df 3c 6b c8 7b bd 47 fc ed 3e
       0.013759632 0.02728483 -0.06147043 0.46481535
0003b0 36 de 93 3c 48 43 ee bd ee 6b b7 3d da ad 11 be
       0.018050294 -0.11633927 0.08956133 -0.14226475
0003c0 b1 ba 38 be 79 e9 01 3e 90 f2 6a bd 7d 2d a2 be
       -0.18039967 0.12686719 -0.057360232 -0.3167533
0003d0 dd a5 92 3c c6 d6 1c c0 53 e3 79 c0 00 6c 97 c0
       0.017901355 -2.4506087 -3.9044998 -4.7319336
0003e0 cb 44 25 3f 01 f0 7b 3e 13 d4 2d be b2 1a 40 be
       0.64558095 0.24603273 -0.16975431 -0.18760183
0003f0 46 35 09 3f df c4 bc be 97 7e d3 bc 1b 8d 69 be
       0.53596914 -0.3686895 -0.025817199 -0.22807734

fc1.bias f4 [128]
000000 c9 4b 8a bd 9e 39 82 be a1 32 13 3e 3b af b5 bc
       -0.06752736 -0.25434583 0.14374782 -0.022178283
000010 ca 2d 83 3d a6 3a b2 3e 69 4e 58 3e e7 f0 87 bd
       0.06405218 0.3481037 0.21123661 -0.06637745
000020 d6 f7 25 3e ea 5e b7 3e 21 3a 38 3e 97 e9 82 3e
       0.16207823 0.358146 0.17990924 0.2556884
000030 7e ad 78 3e e4 76 76 bb 1c 4d aa 3e d9 27 4d 3c
       0.24284932 -0.0037607485 0.33261955 0.012521707
000040 ab 8a da bd e3 d0 0b 3e e0 5d 3b 3b 3b e0 1b 3d
       -0.1067098 0.13653903 0.002858989 0.03805564
000050 13 c1 88 3d a5 5e a1 bd 5d c8 8c 3e 69 bd 5e bd
       0.06677451 -0.0787938 0.27496615 -0.054379854
000060 18 6a 69 3e d3 c2 de 3c 8f 79 4b 3e 69 5f d3 bd
       0.22794378 0.027192509 0.1987059 -0.103209324
000070 24 b3 ee 3d 0e 58 8a bd da df ac 3e 6b 53 a7 3e
       0.11655262 -0.06755076 0.33764535 0.3268083
000080 28 cf d8 3d a7 ac 75 3c 5e be 59 3d b2 b0 99 3d
       0.10586387 0.014994777 0.053160064 0.07504405
000090 fa 1f 56 3e b2 f0 c5 3e 78 20 91 3c 5f aa 50 3e
       0.20910636 0.38660198 0.017715678 0.20377491
0000a0 fa 03 f2 bc 60 bf 06 bd 25 76 0b be 48 e7 2f 3d
       -0.029542912 -0.032897353 -0.13619287 0.042945176
0000b0 5e b3 a3 bd 25 c8 4e bd 2b 15 d9 3c 62 62 22 3e
       -0.07993196 -0.05048384 0.026499351 0.15857843
0000c0 2a a1 81 3d 63 c6 01 3e 86 b8 02 3d 10 25 06 3e
       0.06329568 0.12673335 0.031914257 0.13100076
0000d0 11 90 8b 3e 9b 1d 39 3e 63 bd 4e bd 05 1c 2f bd
       0.2725835 0.180777 -0.050473582 -0.04275133
0000e0 be 75 af bd 85 87 ab 3c 9c 22 19 3e 75 42 c0 3d
       -0.085673794 0.020938644 0.14954609 0.09387676
0000f0 3f 2a 8a 3e d2 8d 7b 3e 3f 0f 8a 3c ec 3e 86 3b
       0.26985356 0.24565819 0.016852973 0.0040968563
000100 72 db a8 3e f2 56 1e be 74 a5 4d 3d 7c 63 a7 3d
       0.32979923 -0.15462855 0.050206617 0.08173272
000110 bb 43 20 3e 91 1c 2b bd c1 34 bd bd d2 f4 4e bd
       0.15650837 -0.04177529 -0.09238578 -0.050526448
000120 f7 ba fe 3d 6e d5 1c 3e 2e 0e 66 3e 18 00 54 bb
       0.124380045 0.15315792 0.22466347 -0.0032348689
000130 d6 84 00 3e c7 c2 90 3e 4f 78 6b 3e 60 e6 ed bc
       0.12550673 0.28273603 0.22995113 -0.029040515
000140 3b 09 a7 bd 30 0b 01 bd d8 fc 03 be 5c 4f cc 3d
       -0.081560574 -0.03150481 -0.12889421 0.09976074
000150 21 82 68 bd da eb c6 3d d7 c1 65 3d 4b 1b 4a bd
       -0.056764726 0.09712954 0.056093063 -0.049342435
000160 d3 a0 ef 3d 90 ed 7d be 97 bc f2 bd 13 30 d3 3b
       0.11700597 -0.24797654 -0.11852377 0.00644494
000170 b8 37 31 3d e5 b5 0e 3e a0 3e f5 bd b8 51 04 bd
       0.04326603 0.13936575 -0.119748354 -0.032304496
000180 bf fc 17 3c 7f ac c2 3c 01 6b 55 3d 38 fd 0a be
       0.009276568 0.023763893 0.052104 -0.13573158
000190 93 15 8f 3e 4b 4a a4 3e 16 81 33 3e 9e 97 cd bd
       0.27946147 0.3208793 0.17529711 -0.10038684
0001a0 91 35 05 3b 49 c5 08 3e 04 f2 51 bd 07 20 08 bb
       0.0020326118 0.13356508 -0.051256195 -0.0020771043
0001b0 89 7c 72 3e c7 5b 60 3e db ed 91 bd 3c 24 e0 3c
       0.23680319 0.2191001 -0.071254455 0.027361028
0001c0 05 a9 7e 3d 8a 78 30 bd 00 e2 5a bb f9 84 4a 3e
       0.06217291 -0.043083705 -0.0033398867 0.19777288
0001d0 05 8d 62 bd 8d 4f 08 be 50 a1 00 3e 0b 24 84 bd
       -0.055310268 -0.13311596 0.12561536 -0.06452187
0001e0 9e ad bc bc 0e 03 ff 3c af 06 85 3e 80 c9 5d 3d
       -0.023032006 0.031129386 0.25981662 0.054147243
0001f0 8c 83 fa 3d ed 8d 00 3e 0c 35 09 3d 48 a7 4b 3e
       0.12232122 0.1255414 0.033497855 0.19888031

fc2.weight f4 [128, 128]
000000 21 f2 2c bd 6f e7 c1 be a9 ef 26 bd da 35 6c 3e
       -0.0422231 -0.37871882 -0.0407559 0.23067418
000010 96 70 89 3d 1e b5 a2 3e 8f 18 47 3c 61 90 22 bd
       0.06710927 0.31778806 0.012151851 -0.03968847
000020 c5 87 46 bd 7e 72 51 3c 42 81 76 be c0 a2 82 3d
       -0.048469324 0.012783645 -0.24072745 0.06378698
000030 a3 c3 87 bf 99 31 25 3d 49 f1 d8 3d fb c3 e6 bc
       -1.0606579 0.040330503 0.105928965 -0.028169623
000040 aa e0 57 bd 46 79 57 3e bd 5e 43 3d 39 53 1e bd
       -0.05270449 0.21042356 0.04769777 -0.038653586
000050 19 6a 26 3d bc 1f bc 3c 42 b1 2e 3d a8 23 07 be
       0.040628526 0.02296435 0.042649515 -0.13197196
000060 a0 f7 87 3c 04 da f4 bd 4b 64 a9 3c 6c 8d c3 3d
       0.016597569 -0.11955646 0.020677706 0.095484585
000070 6c 59 20 3f 30 c4 b4 3d 83 5c 16 3d fb be 95 3d
       0.62636447 0.08826482 0.03670932 0.07311817
000080 68 78 ce bc 32 f4 30 be ad b9 6b 3e 51 98 18 3d
       -0.025203899 -0.17280653 0.23020048 0.037254635
000090 a1 dc c5 bd 68 17 1c 3d 6b f4 a8 bd 6f 61 e5 3c
       -0.09661222 0.03810826 -0.08249744 0.028000562
0000a0 26 23 94 bc b0 05 c7 bc 44 a0 79 bd b0 72 b7 3d
       -0.018083166 -0.024294704 -0.060943857 0.08957422
0000b0 aa 52 8f 3c b9 7f 43 3d 10 b8 67 be 7e aa 1c 3e
       0.017495472 0.047729228 -0.22628808 0.15299413
0000c0 6e 9e 90 3d 07 fa 46 bf ef 84 30 ba 09 14 0c 3e
       0.07061468 -0.7772526 -0.0006733676 0.13679518
0000d0 f8 3d b9 3d 33 75 ce 3d 42 3e 1a 3e fe b1 05 be
       0.09045023 0.10080948 0.15062812 -0.1305618
0000e0 62 88 74 bd 34 1e b4 3d c3 05 b1 3d 05 1a 24 3e
       -0.059700377 0.08794823 0.08643677 0.1602555
0000f0 c7 fe 1e 3d 63 c7 26 3d 45 dc f6 3e 0b 99 af bd
       0.038817193 0.040717494 0.48214927 -0.085741125
000100 f9 9c 35 3d 46 c6 85 bd 93 36 37 3e b9 40 07 3e
       0.044339154 -0.06531958 0.17891912 0.13208283
000110 1c 29 5d be d0 9e 5f 3d a6 b2 9f 3d 0a 8c 30 bd
       -0.21597713 0.054594815 0.07797746 -0.0431023
000120 54 5d ac 3d 72 b9 86 3d a1 db 27 3d 96 e2 88 3d
       0.084162384 0.0657834 0.04098094 0.06683843
000130 19 9d 4d bf 04 63 ee 3d ad dc ba 3d 26 d7 84 3d
       -0.80317837 0.116399795 0.09124122 0.06486349
000140 42 ad 83 3d ad 91 b7 bc 80 0c 6c bf 12 9d 46 3e
       0.06429531 -0.02240833 -0.92206573 0.19395855
000150 be 3b 2a bd 70 7d 28 3c d6 b0 28 3d 0d 7e ca bb
       -0.04156088 0.010283813 0.04118427 -0.006179577
000160 84 47 a1 3d b0 07 02 bf ad 5b a6 3d 6e a7 5f bd
       0.07874969 -0.5079298 0.081229545 -0.054603033
000170 99 0d b0 bd 00 37 35 3e 54 ea b1 3d 1a 55 60 3e
       -0.085963435 0.17696762 0.08687273 0.21907464
000180 46 bd e0 bc b5 3b 88 3d e0 55 e3 be 62 6e 18 bc
       -0.027434003 0.06652013 -0.44401455 -0.009303661
000190 11 7e 0e 3e bb 03 62 3d f4 23 8a 3e e7 7f 63 3d
       0.13915278 0.05517934 0.26980555 0.0555419
0001a0 ad d4 57 be aa 25 08 3d 83 1f ab bd 73 40 8c bd
       -0.21077223 0.033239044 -0.0835562 -0.0684823
0001b0 f6 a8 95 3e eb ad 3f 3e 06 c7 3b bd 5b 2d 09 bf
       0.2923047 0.18718688 -0.0458441 -0.5358483
0001c0 59 9a c9 3d ab 87 84 3e 84 00 a1 3d 1f 9b ff 3d
       0.098438926 0.25884756 0.078614265 0.12480759
0001d0 ee 58 b9 3d d6 f4 f9 3c ec 7c 52 3d a6 86 f6 3c
       0.09050165 0.030512255 0.051388666 0.030093502
0001e0 c6 fc 52 bd 38 d2 85 bd a7 d3 ea 3e bb 01 f0 be
       -0.051510595 -0.06534237 0.45864603 -0.4687632
0001f0 98 8a c8 3b 4e b3 d1 3d 04 64 97 bd df 63 88 bc
       0.0061200373 0.10239278 -0.07392123 -0.016649185
000200 d2 c8 e3 bb fd 54 4f be fe 9b 80 3b b0 f7 8b 3e
       -0.00695143 -0.20247264 0.0039248457 0.27337408
000210 10 e1 89 bd 40 60 cb 3e 94 cf a0 bc 9c 56 7b 3d
       -0.067323804 0.3972187 -0.019630231 0.061361894
000220 66 d6 07 3e ca 0a ae 3d 24 f6 96 be a4 d3 8c 3d
       0.1326538 0.084981516 -0.29484665 0.06876305
000230 85 b5 f3 be a3 89 c1 bd e4 9d 07 3e 38 30 f7 bc
       -0.47599426 -0.0945008 0.13243824 -0.03017436
000240 21 7c 37 3d 5c e1 76 3d ed 23 40 3d 86 5b 07 3d
       0.044796113 0.060273513 0.04690926 0.033046268
000250 bf 0e 65 3d 40 ed 4f 3d a8 b3 68 3c 24 c5 a9 bd
       0.055922266 0.05076337 0.01420299 -0.08289555
000260 39 72 01 3e 81 b9 3f be e7 c6 2d 3e da 86 e6 3d
       0.12641229 -0.18723108 0.16970406 0.1125619
000270 1f 88 df 3e eb a7 dd 3d fb fd a6 3d 9f ad d3 ba
       0.4365854 0.108230434 0.08153912 -0.0016149766
000280 0e cf 19 bc 08 53 40 3d 25 91 6e 3e 6e 2b 78 3d
       -0.009387745 0.046954185 0.23297556 0.060588293
000290 3f f3 52 bd 7d 65 5b 3e 1c 0c 88 bc 6d 99 35 3d
       -0.05150151 0.21425433 -0.016607337 0.04433577
0002a0 23 58 61 bd 09 0a 7a bd 8d 0f cd bb f8 1c 16 bc
       -0.055015694 -0.061044727 -0.0062579573 -0.00916218
0002b0 78 eb 87 3d 90 15 40 bd 99 89 63 be 39 c9 a6 3d
       0.06636709 -0.046895564 -0.22220458 0.08143849
0002c0 f2 89 28 3d 17 42 e0 be 45 78 fe bd a1 ae 79 3d
       0.04114718 -0.43800423 -0.12425283 0.060957555
0002d0 a0 26 22 3e 99 5b bb 3d 58 0d f4 3d 44 02 eb bc
       0.15835047 0.0914833 0.119166076 -0.028687604
0002e0 c5 35 8e 3d 70 13 bc bb 7e e9 9b 3d ed 06 0c 3e
       0.069438495 -0.005739622 0.076128945 0.13674517
0002f0 8d 6c 81 3d 98 e7 16 3e a6 af 9c 3e 44 79 e2 3c
       0.063195325 0.14736784 0.3060276 0.027645715
000300 8e 35 0f 3e 89 ac ab bb 81 b7 0d 3e 29 bf 6a 3d
       0.13985273 -0.0052390737 0.13839532 0.05731121
000310 5d 82 57 be ac ed 70 bd 41 95 d1 3d 70 e0 a5 bd
       -0.21045823 -0.05882041 0.10233546 -0.08099449
000320 db b2 bd 3d 3b ae c1 bc 38 e6 33 3d 46 0a ae 3c
       0.092626296 -0.02364265 0.043920726 0.021245133
000330 72 71 2f bf a0 bd fc 3d ef a9 d3 3c ca 3e 33 3b
       -0.6853248 0.123408556 0.025837867 0.0027350658
000340 64 82 8d 3d 1d 0d 8a bd 49 dc 64 bf fd 6c 07 3e
       0.06909636 -0.067407824 -0.8939863 0.1322517
000350 9f 90 80 3d dc a9 76 bd db c4 f0 3d 36 d8 48 bd
       0.06277584 -0.060220584 0.11756297 -0.04903432
000360 69 f7 c4 3d 38 1c 0d bf 77 ba af 3c dc 77 04 3d
       0.09617502 -0.55121183 0.021451218 0.03234087
000370 a1 94 37 bd 09 c6 3f 3e d0 e4 7a bc a2 e2 82 3e
       -0.044819478 0.18727888 -0.015313342 0.25563532
000380 b3 41 bd 3c 45 97 40 bd 68 84 6f be 4e 88 4b 3d
       0.023102617 -0.047019262 -0.23390353 0.049690537
000390 84 91 2d 3e 75 31 25 3e dd 67 bb 3e cf 22 86 3b
       0.16950041 0.16132148 0.3660268 0.004093505
0003a0 a0 07 64 be 55 f3 75 3d 63 59 36 3d 1d 71 eb 3c
       -0.22268534 0.060046513 0.04451884 0.02874046
0003b0 28 7a ec 3e 79 b5 41 3e c3 b6 89 bd 43 d4 32 bf
       0.46186948 0.18916883 -0.06724312 -0.69855136
0003c0 65 87 52 3e 9e 73 58 3e ef 12 b7 3d 04 00 f8 3d
       0.20559461 0.21137854 0.08939158 0.12109378
0003d0 82 34 8f bd 72 29 ff 3c f5 29 ab 3d d1 00 8d bd
       -0.06992437 0.031147692 0.08357612 -0.06884921
0003e0 d8 a9 75 3d a8 f2 ea bc e0 83 af 3e c7 a0 e7 bd
       0.05997643 -0.02868016 0.342803 -0.11309963
0003f0 63 9e 03 bd ee 43 9e 3c ac 27 82 3d 76 4a d2 bc
       -0.03213347 0.0193195 0.06355223 -0.025670271

fc2.bias f4 [128]
000000 10 21 f8 3e ab 3e 0b 3f dc cb ff bc 9a c8 4d bc
       0.48462725 0.543925 -0.031225137 -0.012560034
000010 16 e4 7f bc d3 6e 83 3c 11 59 0b 3f 54 36 db 3e
       -0.015618345 0.016044056 0.5443278 0.42814887
000020 1a 63 8f 3a a7 a7 c7 3e 3f 28 d1 3e f2 57 df 3e
       0.0010939569 0.38995096 0.40851018 0.43621784
000030 46 0f c9 3e e6 ba 79 bd ac 4b e3 3e 50 5b 94 3e
       0.39269465 -0.060969256 0.4439367 0.28975916
000040 76 42 83 3e 0b b1 9a 3c 27 d4 b3 3e 62 1e 94 bd
       0.25636643 0.018883249 0.35122797 -0.072323576
000050 05 d3 07 3f 85 5d d9 3e 6e 7e aa 3e 31 96 f7 3e
       0.53056365 0.42454162 0.33299583 0.48356774
000060 de c5 6f 3c c8 f9 fe 3e 45 6f fc 3e 21 a8 e7 3e
       0.014634578 0.49799943 0.49303642 0.4524546
000070 9c 34 6e bd 09 00 89 3d 76 58 ed bd fb 17 ce 3c
       -0.05815564 0.0668946 -0.11589138 0.02515792
000080 6d 72 7c bc f3 26 93 3d 9d f6 a9 bd f9 e5 08 3f
       -0.015408141 0.07185163 -0.08298991 0.5347591
000090 51 67 5b bc 83 9b 0d 3f 1b 82 ac bd 72 72 2f bd
       -0.013391332 0.5531542 -0.08423253 -0.042833753
0000a0 5c 5f bd 3e 60 2e cb 3e df 3d c7 bd b6 7f cf 3d
       0.36986816 0.3968382 -0.09728598 0.10131781
0000b0 54 0e bb 3d 9f 54 d8 3e c4 51 df 3e 21 97 4b 3e
       0.09133592 0.4225206 0.4361707 0.1988187
0000c0 40 ba 7a bd e3 83 87 bd 4b 50 0b bc fe 11 74 bd
       -0.061212778 -0.06616952 -0.00850303 -0.05958747
0000d0 73 2f 45 3a 13 ee e1 3e c2 95 cd 3e 4d 25 c2 bd
       0.0007522024 0.4412695 0.4015332 -0.09479771
0000e0 ef 63 1d bd 08 70 16 3f f7 91 51 bc 14 84 b9 bd
       -0.038425382 0.58764696 -0.012791148 -0.09058395
0000f0 f5 f6 cb bd 14 e5 15 3d 1e b4 fb bd ed c3 1b 3f
       -0.09959213 0.03659542 -0.12290214 0.60845834
000100 88 da 09 bd 24 53 72 bd e6 8f 24 bd d8 9b c7 3c
       -0.033655673 -0.05916132 -0.040176295 0.024366304
000110 a2 7b aa bd e6 3f 3f 3d c4 08 02 3f 03 ed 63 bc
       -0.08324362 0.046691798 0.50794625 -0.0139114885
000120 cc 90 0b 3d c0 e7 09 3f 06 18 bf 3e b3 7e 86 bd
       0.034073636 0.5386925 0.37323016 -0.06567135
000130 1f 92 85 bb 2b 9d ef 3a b4 f0 f9 3e 45 7c 88 bb
       -0.004076257 0.0018281093 0.48816454 -0.0041652047
000140 80 f2 ca 3e 3d f2 51 3d df af 0a 3f c9 88 0e 3f
       0.39638138 0.051256407 0.5417461 0.5567747
000150 74 22 0f 3f 39 a1 78 3d c3 e5 d1 3e 7c 46 b2 bd
       0.55911946 0.06070063 0.40995607 -0.0870485
000160 c3 91 6c 3d 76 63 d0 3e c1 ca 2a bd d7 4a 63 3d
       0.057756197 0.40700883 -0.041697267 0.055491295
000170 01 3f fe 3e 33 b3 82 3d e7 29 35 bd a0 29 62 3e
       0.49657443 0.06381836 -0.044229414 0.22086191
000180 4c bd 65 3d 69 8d 0e 3f f6 22 e9 3e 08 c0 fb 3d
       0.05608873 0.55684525 0.45534486 0.122924864
000190 73 7e 66 3c f3 49 f6 3c 8f e8 17 bd 1c 83 df 3e
       0.014068234 0.030064559 -0.03708702 0.43654716
0001a0 63 1f bc 3e 9e a0 fc 3e 0d 55 03 be fd d5 0f 3f
       0.36742696 0.4934129 -0.12825413 0.56185895
0001b0 1f fe 90 bd 74 87 a8 bc 99 1b d7 3e 7a 8a f2 3e
       -0.0707972 -0.020572402 0.42013243 0.47371274
0001c0 96 59 ff 3e 29 a2 22 3c 44 8e c6 bc b9 26 dd bd
       0.49873036 0.009926357 -0.02423776 -0.107984014
0001d0 48 f4 db bd ee b2 c0 bd 74 de ef bc 14 62 bb 3e
       -0.10739952 -0.09409128 -0.029280879 0.36598265
0001e0 f1 4d 07 3f 1e 9a 04 3f 0d 6a 24 3e e5 ea 62 bd
       0.52853304 0.51797664 0.1605608 -0.055399794
0001f0 08 28 55 bd f8 71 e0 3e 1d 13 fa 3e eb a0 09 3f
       -0.05204013 0.4383695 0.48842707 0.53761166

fc3.weight f4 [1, 128]
000000 ca fd b7 bd a2 9a d0 bd 37 9f 37 3d 9f 15 1c 3d
       -0.08983953 -0.10185744 0.044829573 0.038106557
000010 09 2e 34 3c e2 1d e8 bc ed 39 05 be 14 42 3e be
       0.010997304 -0.028334562 -0.13010378 -0.18579894
000020 88 1d 84 3d cd fb 38 be ed b3 83 bd 3c d4 d9 bd
       0.06450945 -0.18064804 -0.064308025 -0.106361836
000030 e4 12 0f be ba 7a 57 bc 58 6a 3b be 4c 1b f9 bd
       -0.1397205 -0.013151819 -0.18302286 -0.121634096
000040 9a 1d 98 3f 70 e7 79 3d 56 44 c0 bd e6 25 c2 bc
       1.1884034 0.06101173 -0.09388034 -0.023699712
000050 38 4e 26 be a0 86 ec bd 8f 6a a4 bd 7c 76 e2 bd
       -0.16240776 -0.11549115 -0.08028137 -0.11057755
000060 3c fe e8 3c 1b 5f 1b be cb b5 97 bd 1b 6f 41 be
       0.02844154 -0.15172999 -0.07407721 -0.1889004
000070 0c 2b e8 bc a8 fa 86 3d 94 92 81 bc 77 5f c0 3c
       -0.028340839 0.06590778 -0.015816964 0.023483021
000080 26 ca 28 3c 59 ea 55 3f 42 e8 d5 bc 9d ec 04 be
       0.010302102 0.8356071 -0.026111726 -0.12980886
000090 e9 bb ab 3b 61 5b 17 be 23 57 84 3d b7 f3 88 3c
       0.0052409065 -0.14780952 0.064619325 0.016717775
0000a0 e4 c2 ae bd f1 85 e1 bd bb 2d 6e bc 7c aa 51 3f
       -0.08533266 -0.110118754 -0.01453727 0.81900764
0000b0 61 67 8a 3f 9a b2 90 bd b6 f3 3f be 52 ac 6f 3f
       1.0812799 -0.070653155 -0.18745312 0.93622315
0000c0 0f 15 19 3d 86 2f a3 3d af 02 01 bc fc 29 91 3b
       0.0373736 0.07968049 -0.007874175 0.0044300538
0000d0 01 ee 8b bc a8 b2 1d be a2 02 fb bd 35 0a 86 bc
       -0.017081263 -0.15400183 -0.122563615 -0.016362289
0000e0 ec af 2d 3d ce a8 a7 be fa e4 6e 3c 8c 76 02 bb
       0.0424041 -0.32745975 0.014580959 -0.0019907085
0000f0 85 14 d5 3c de e9 01 bb c0 03 c3 bc 28 16 9f bf
       0.026010761 -0.0019823234 -0.0238055 -1.2428637
000100 b3 4c 1f 3c 5a 34 4d 3c 7d f6 8b 3d 41 e8 79 3c
       0.009722876 0.012524689 0.06834123 0.015253128
000110 03 73 5d 3c c7 29 96 3c 6f 69 7b bd 8b ef 5e 3c
       0.01351619 0.018330468 -0.061379846 0.013606916
000120 fc 5e e6 3c de 07 0a be 3e 48 62 bd c7 37 11 3d
       0.028121464 -0.13479564 -0.055244677 0.035453584
000130 37 81 b3 3b 91 be f1 3c 9d 54 ee bd 6c 1f ab 3c
       0.00547805 0.029509814 -0.116372325 0.020889007
000140 15 0f 81 bd c3 57 29 bb d2 41 41 be 62 d3 50 be
       -0.06301705 -0.0025839664 -0.18872765 -0.20393136
000150 80 97 f1 bd ef 14 f3 39 d8 42 0d be 52 5d 33 3d
       -0.117964745 0.00046364169 -0.1379503 0.04379017
000160 54 50 20 bb ad d5 92 bd 11 3d 2a bd 1e 79 5b 3d
       -0.0024461942 -0.07169662 -0.041562144 0.053582303
000170 75 39 ad bd 26 29 cc b9 da 41 a9 3b 4d 0a 86 3f
       -0.08458225 -0.0003894057 0.005165321 1.0471894
000180 e3 c5 b5 3c 57 86 7a be a6 4e 88 bd 93 59 5c 3f
       0.022189086 -0.24465309 -0.06655626 0.8607418
000190 0a 2b 7c bd 48 c3 2b 3d 85 95 91 bd c2 74 ff bd
       -0.061564483 0.04193428 -0.07108597 -0.12473442
0001a0 55 bd a2 bd b1 a9 fa bd 41 40 3b 3d 7d e1 1d be
       -0.079462685 -0.12239397 0.045715574 -0.15418048
0001b0 e8 ef 23 3d f7 25 18 3d c6 5e d7 bd cb 83 90 bd
       0.040023714 0.03714558 -0.105161235 -0.070563875
0001c0 bb 13 47 be 25 d7 a2 3c 68 e1 b0 3c b3 c9 66 3c
       -0.1944112 0.01987798 0.021591857 0.014086175
0001d0 f5 1a c7 bb 05 50 bd 3b 6e 59 8c 3d 94 93 e5 bd
       -0.0060762116 0.0057773613 0.06852995 -0.11209789
0001e0 73 ef 87 bd 58 02 0f be 5e 7c 46 3f fe ff a1 3e
       -0.06637468 -0.13965738 0.7753352 0.3164062
0001f0 9a 4f 55 3c f4 01 34 be 2f 6f 15 be b7 15 fe bd
       0.013019467 -0.1757887 -0.14593194 -0.124064855
