HW3/preTrained/ddpg_critic_Halfcheeta-v3_05112024_210844_.pth (torch, 160546 bytes, 11 tensors)

fc_state1.weight f4 [64, 17]
00000000: da18 6fc0 4079 83bf 8e14 95bf a5ba a4be
00000010: e105 32be 727e 5a40 0951 ff3f bfb1 c53e
00000020: 26c2 f53e 5fee 1c3e f1a1 f83d c11c 5e3e
00000030: 8dad bb3e 48f3 d83c 7d91 15bf 13c0 dabe
00000040: 8317 c5be afa0 5a3f 4591 1bbf 04d1 2b3f
00000050: 9764 8a40 e224 17bf 1cbb 0540 2ee8 533f
00000060: d73c 973f 4f84 38bf 2dbc 1440 b2c9 4a3f
00000070: fc56 023f d65f 263f aae3 203c 7b49 7c3f
00000080: 6e39 e83e 3cc5 663d 0324 0b40 cab7 c1bf
00000090: 9b8e 13c0 d573 acbf 3d1a 8ebf 1d1b 96be
000000a0: bf02 0840 6838 61bf 4368 0840 7a38 a8be
000000b0: 8aa8 24bf c16e 84be c162 5bbe 801a c43d
000000c0: 38ab e8bd 7156 043c e178 c23d 2985 7740
000000d0: 0ec9 8dbf 5a36 bc3f 34f7 67c0 016c 56bd
000000e0: 1b87 da3e aa6e f8bf e884 153e 7bf8 09c0
000000f0: f1d9 d83f 4aed 92bf 1ef3 35be 1ae8 e8be
00000100: 1a0c c93e 53ed ebbc a565 bc3e 9f6d 51be
00000110: 1458 94bf c069 f9be a58f 2340 ae0e 80be
00000120: 2137 74bf ce35 1f40 f564 5b40 9af0 683f
00000130: 9c27 8cbf 83ad ccbe b384 193f 1e9b 4c3e
00000140: 5412 95be ffbe 73bc 8d88 083f 6f37 ea3c
00000150: d1f6 2bbe f619 2040 3017 ddbf 0d2d 2abe
00000160: 59b6 f1be 76cc d0bb b518 3540 8c40 22c0
00000170: 2c14 213f 65fb 6a3f c284 07be b449 3dbf
00000180: 4196 a7bd b77f c7bd 9a60 cdbd d1cf 40be
00000190: 0a4f 8abe 81fb 9f3d 3d9d d7bd 0b1c d2bf
000001a0: c3e3 92bf 487b e3bf 7da0 c9be cce4 84bf
000001b0: db1a 23c0 1baa f3bf 5933 45be 6f44 51bf
000001c0: a4f9 a73e 4b66 f93e b93f 0c3d d797 81be
000001d0: b146 653f 4a6d 183f df0f 993d b00d bebe
000001e0: b4cf 01be 2840 833e 8d5f 22bd a5b2 61bf
000001f0: b005 f0bf 61ac 983d 4432 febf 91d2 d93e
00000200: 238f 0fc0 1c92 f0bf 93fd 03bf 1d77 1f3f
00000210: 2527 6f3e 0886 9b3e 2e1d 3cbe b897 40be
00000220: 4781 2740 8d8e a43e 848e 09bf eb23 233f
00000230: c8bb 1a40 638b f03f 9513 3e3f c7bc 25c0
00000240: cfb5 3abf 2fa6 5540 ecb4 b83f 56c8 8e3e
00000250: d861 963e f314 3a3d 4a74 17bf cc17 98be
00000260: 65c6 85be e18a 1cbe da0a 91bf 26df 913f
00000270: 57d3 9b3d 0126 903f 5b48 5f3f 8b1e a23f
00000280: c8ac 3340 bc89 c2be 329f bebf 2df8 dcbf
00000290: effe 103f 41a1 de3d 39ce 74be 3e60 47be
000002a0: 40d0 073e 064c a33e f0c4 11be 4e19 28bf
000002b0: 3f3f f0be db3c 48bf 3555 67bf 46ad 80bf
000002c0: 128c da3e a38e 1cc0 0edb f1bc 58de 4abf
000002d0: 2eb9 813f ceac a2be 3e60 babe 4580 02be
000002e0: b693 88be 7cb4 143c 2415 4c3f 57c7 023f
000002f0: 4565 993b fb6f 523f 5506 babf d818 bdbf
00000300: 8f8e 06bf 5380 e03f b51c 7ac0 886f bcbf
00000310: 2892 2a40 e2a4 8a3f 07fd c5bd 0784 21be
00000320: 3d3a d73c 9452 71bf ada7 85be 6256 e63e
00000330: e01f d8bf 93db 993d 4005 1440 466d debf
00000340: bc55 923f 669f a13f 0142 2940 69af 0940
00000350: 9ff1 b6bf d49e b4bf 890a a5bd 0b22 13bf
00000360: 6ee4 973e d092 893e 273f 393e 6766 b33d
00000370: e6b0 b13e 27ca ba3e 9c7d 74be cf10 82c0
00000380: c4c8 9ebf e799 82bf 613c bd3f 2258 8540
00000390: ac1e 43c0 346f 70bf 1154 31bf 4f66 21c0
000003a0: 0e04 b6be e0da 16bf f3fb a8be f47c 1e3d
000003b0: effe c8bc 4882 023f 9fa6 1140 11ed ddbf
000003c0: 837f fcbe a6e6 29bf 1a97 6abf a933 a4bf
000003d0: 86c3 65bf f0dc d93d d0af 0bbf b474 fcbf
000003e0: 626b a23f 2162 39be 4868 a6bc deeb f63e
000003f0: c27d 71bf 0902 a2be e908 093f 0ea4 2e40
-3.7358918 -1.0271378 -1.1646898 -0.32173648 -0.17385055 3.4139676 1.9946605 0.38612172
0.47999686 0.15325306 0.12140263 0.21690656 0.36655846 0.026483193 -0.5842512 -0.42724666
-0.384945 0.85401434 -0.6076854 0.6711581 4.324779 -0.59040654 2.0895452 0.82776153
1.1815442 -0.72076887 2.3239853 0.7921401 0.5091398 0.64989984 0.009819904 0.9854962
0.45356315 0.05634044 2.174073 -1.5134213 -2.305579 -1.3472849 -1.1101757 -0.2931756
2.1251676 -0.87976694 2.1313636 -0.32855588 -0.6431967 -0.2586575 -0.2142439 0.09575367
-0.113607824 0.00807725 0.09495712 3.8675025 -1.1076982 1.4704087 -3.624463 -0.052349094
0.42681202 -1.9408772 0.14601481 -2.155791 1.694151 -1.1478665 -0.17768523 -0.4548958
0.39267045 -0.028799688 0.367963 -0.20451973 -1.1589379 -0.48713493 2.5556424 -0.250112
-0.9539662 2.487659 3.428037 0.9099213 -1.0949588 -0.3997613 0.5996811 0.19981048
-0.29115546 -0.01487708 0.5333336 0.028590886 -0.16793372 2.5015845 -1.7272701 -0.16618748
-0.47209433 -0.00637203 2.829633 -2.5351896 0.62921405 0.9178985 -0.13234237 -0.7394059
-0.081829555 -0.097411565 -0.10028191 -0.18829276 -0.27013427 0.078116424 -0.10528038 -1.6414808
-1.1475757 -1.7771997 -0.39380255 -1.0382323 -2.5485141 -1.9036287 -0.19257869 -0.81745046
0.32807648 0.48710856 0.03424046 -0.25311157 0.8956099 0.5954176 0.0747373 -0.37119818
-0.12676889 0.25634885 -0.039641906 -0.88163215 -1.8751736 0.07454754 -1.985909 0.42543462
-2.2431114 -1.8794589 -0.515588 0.6229113 0.23354776 0.30375695 -0.18370506 -0.18807876
2.6172655 0.32140008 -0.53733087 0.6372668 2.4177113 1.8792537 0.7424863 -2.589647
-0.7293367 3.338268 1.4430213 0.2788722 0.29371524 0.045430135 -0.5916182 -0.29705656
-0.26127926 -0.15287353 -1.1331437 1.1396224 0.07608669 1.1261598 0.8721978 1.2665571
2.8074207 -0.37995708 -1.4892333 -1.7263237 0.56639 0.108706005 -0.23906793 -0.19470307
0.13263035 0.3189394 -0.14235282 -0.6566361 -0.46923253 -0.7821786 -0.9036439 -1.0052879
0.4268499 -2.4462059 -0.029523399 -0.7924552 1.0134637 -0.31772465 -0.36401552 -0.12744243
-0.26675195 0.009076234 0.7971976 0.5108542 0.0046812617 0.8220212 -1.4533182 -1.4773207
-0.5256128 1.7539161 -3.9080021 -1.4721537 2.6651707 1.0831568 -0.09667402 -0.1577302
0.026272887 -0.9426663 -0.2610449 0.4498778 -1.6884727 0.075125836 2.3128204 -1.7377098
1.1432414 1.262677 2.6446536 2.1513312 -1.4292487 -1.411097 -0.0805865 -0.5747382
0.29666466 0.26869822 0.18090497 0.08759766 0.34705275 0.36482355 -0.23876041 -4.064552
-1.2405019 -1.0203217 1.4784051 4.1670084 -3.048747 -0.9391968 -0.692689 -2.5218694
-0.35549968 -0.58927727 -0.33004722 0.038693383 -0.024535624 0.50980043 2.2757947 -1.7337972
-0.49316034 -0.66367567 -0.9163681 -1.2828265 -0.8975147 0.106378436 -0.54565144 -1.9723115
1.2689021 -0.1810384 -0.020313397 0.48226827 -0.94332516 -0.31642178 0.5352922 2.728763

fc_state1.bias f4 [64]
00000000: daf4 adbf 8309 37be 0149 1e3f a057 ba3f
00000010: 5b9a efbe 207e d03f 331a 53bf b046 a7bf
00000020: dbf7 8dbf c104 babf 7a19 f7bf a045 88be
00000030: 8cfb 32bf ab06 933f 5661 4d3f ad94 80be
00000040: 5586 42be 117d 15bf ef2e 4a3e adf2 c7be
00000050: 3b3d 0cbf f96a 603e 0dd9 85bf 26b5 d9bd
00000060: f147 bd3f 2c4c d73e 6360 30bf fda5 34bf
00000070: ce2b 42bf 2c51 d4be 80d4 193e 2abd 203f
00000080: ecfb 83bf 605f e0be 8c5c 4fbe d263 ea3d
00000090: be4d cfbe 771f 3cbf ea17 28bf 39eb 2e40
000000a0: fba3 98bf 7461 2fbf 3eae debf c8c7 aabf
000000b0: ba43 28bf 1466 22bf 1a98 90bf c224 ae3d
000000c0: 606c dbbf de51 b13f 513a debf 2a34 1cbf
000000d0: aac6 91bf 69bd 0540 add6 7abf a369 9bbf
000000e0: e4b9 ccbf bc49 4dbe e486 8dbf 8e76 19c0
000000f0: ea47 21c0 e93c e73e 45a0 80be 5d94 cfbf
-1.3590348 -0.17874722 0.61830145 1.4557991 -0.4679745 1.628849 -0.8246185 -1.3068447
-1.1091264 -1.4532701 -1.930465 -0.2661562 -0.6991508 1.148641 0.8022665 -0.2511343
-0.18996556 -0.5839396 0.19744466 -0.39052334 -0.5478093 0.21915807 -1.0456864 -0.106302544
1.478758 0.42050302 -0.68897074 -0.7056578 -0.7584809 -0.4146818 0.15022469 0.6278864
-1.0311255 -0.43822765 -0.20250148 0.114448205 -0.40489 -0.7348551 -0.6566149 2.7331069
-1.1925043 -0.68508077 -1.7396924 -1.3342218 -0.6572834 -0.6343701 -1.1296418 0.08503105
-1.7142448 1.3853109 -1.7361547 -0.61017096 -1.1388752 2.0896857 -0.9798382 -1.2141613
-1.5994229 -0.20047659 -1.105679 -2.397861 -2.5200143 0.45163658 -0.25122276 -1.6217152

fc_state2.weight f4 [64, 64]
00000000: e782 1d3e a79f e4be 2531 c7bc 64a6 84bf
00000010: cf98 0a3e 5a31 7cbf 6f47 26be 3c7a 0d3f
00000020: 3df3 31be 2a1e 0cbf ca2c 0c3f a1c7 98be
00000030: b9e9 0ebc 4d2a e53d ce7b 563e 04c4 80bd
00000040: 405e c63c f356 413e 9ad1 0a3a b9e1 90be
00000050: 9ac8 693e a9b5 02bf e685 ebbf 57c8 aebe
00000060: a3fa b63b 7454 55bf 94d7 573e f519 2a3f
00000070: fd9d c33e e378 a53d f5c5 eb3d a958 623d
00000080: 0865 aa3e 32a6 de3d d620 073d 66ae fbbe
00000090: 9341 16be 164f a93e 6c7e a83f 0d46 9dbf
000000a0: 63a8 25be 5c11 f1be 3b7d 59be 2d79 193f
000000b0: e30c 5c3c 3b3b 29be ede6 a63e 79b5 70bf
000000c0: 5f70 38bf d3f2 71be 0845 b6bf 8fe2 ef3e
000000d0: ea19 5f3e 32dc b53e 44b0 c0be 3eee b0be
000000e0: 6c8c f3bd ebc2 113e 4f05 32bf 17bc cb3e
000000f0: e046 03bc b6c3 cf3d 3b4c e43d 11bb b93e
00000100: f972 573e c28e a43f a1e0 2fbf ad16 84bf
00000110: 212f 2dbf c250 983e 09c6 d3bf c3b0 babe
00000120: 15e9 3fbf fbe3 0b3f 779e e73e 42c8 2f3f
00000130: 72b4 77be d283 db3d fd06 853d 4057 803f
00000140: 18c4 573e 1cab b83e 6df0 c4bc 84dc 873e
00000150: 3501 783e 0001 9d3e b1c0 0ebd 37ec 77bc
00000160: 2dd1 d1bd 9982 eabf 8198 0cbe e68c 8abf
00000170: dfc3 1cbd df24 53bf 5e88 0dbf 8be6 0b3f
00000180: beea 983e 232c 9dbf ef4b 7c3e 079d d5bd
00000190: 59e3 dc3e 9107 e63e 18be 6b3e 68ec 81be
000001a0: 2eed d0bf ab1e 9e3e f5d9 8dbf d9e3 4cbe
000001b0: b6ff b2be dc02 e7bd 38bd cebe c91c 663f
000001c0: b3f2 603e b373 43bf a38a 6bbf 90c3 a33d
000001d0: d914 e03d fef8 adbc 9eec 403f ee99 c13e
000001e0: cee8 b13f 1bc2 36be 77ea 6a3e 75e2 10bf
000001f0: 6287 803d 2908 d9be 452e a83e e44a 8e3c
00000200: 9d93 c03e 277b 693f fdb0 a7be c138 d9bf
00000210: 23bd 35be 5e8b 92be 2a90 033f 5b76 71be
00000220: f646 d8bf bf31 bfbe 6e7e f83b 6e34 6ebf
00000230: 7a36 fc3c 96bf b0be 8709 ce3c a256 b1be
00000240: 245a 463f 4168 3dbf f3ef 6b3d 5546 133c
00000250: e35a 873e cd6a 3bbf 62e7 8d3e f689 14be
00000260: da9e 9ebf 5633 1fbf 84d4 223e d4fe a6bf
00000270: ea2f c83e d6bc 413e b246 993f 5624 043c
00000280: 089c 293f 2402 3a3e 1a89 85be 53de 513e
00000290: e503 95bf 02bb 823f ef23 50be a452 88bf
000002a0: 5761 3abe 6202 053f af7d e63e cda4 a83e
000002b0: edb1 01c0 0cf3 493c 950a f93d fbc2 52bf
000002c0: c8ae 48be 6c6e dc3e fe67 d5bd 44d6 c7bf
000002d0: 1056 97bf a8e5 ef3d f558 92be 308c 83bf
000002e0: 7a60 bb3f 8d4e 9bbf c197 1a3f 8345 21bf
000002f0: e42b 363e 7adf 9f3d b542 543f 92a3 4b3f
00000300: aab9 a63e 7ec4 a6bf f7ff e43e 0e21 6ec0
00000310: b211 d9be 6dc3 ca3e 8f87 3fbb 9d69 733f
00000320: 063e 24c0 b246 1e3e 080f 89be d38e 22bf
00000330: 9d05 69bf 0b7c 06bf a810 72bf a840 3cbf
00000340: 1542 34bf 91be c63e 03a2 75be 0510 07c0
00000350: 9a44 84c0 3456 423f 8ddd 1fbf b320 0dc0
00000360: 8a1d 4abf 5ada a2be d08c 4bbd 6720 9dbe
00000370: b0bc fbbe 5bf3 a43f 6293 433f 154d a3ba
00000380: b053 b4bf 2f4a 3b3f 9cec e9be ea64 2dbf
00000390: ebfa 7abe 51ba f1be e5a6 a83e 10db 8bbf
000003a0: 4c12 3f3f a408 89be 0e8a a2bf 8a14 8e3e
000003b0: b2ce 62bf 1602 26bf 230b 12c0 ed76 36bf
000003c0: 8b48 d6be 86ac e3bd c451 34bf 1829 1fbf
000003d0: cb2d eb3f 99f9 e63e 7aed 99be 86d9 a03e
000003e0: 8815 e6be 551a e93e b3cc 19be cbab a13f
000003f0: 299e 10bf dbc9 b7be b563 153f 88db 37bc
0.15381967 -0.44653055 -0.024315426 -1.0363278 0.13534854 -0.98512805 -0.16238187 0.5526464
-0.17377944 -0.54733527 0.5475584 -0.29839805 -0.008722716 0.11189709 0.20945665 -0.06287387
0.024214864 0.18880825 0.00052955153 -0.28297213 0.2283043 -0.5105844 -1.8400238 -0.34137222
0.0055840774 -0.8333199 0.2107833 0.6644586 0.38206473 0.08079698 0.11512367 0.055260334
0.33280206 0.10871543 0.0329903 -0.49156493 -0.14673452 0.3306815 1.3163581 -1.2287003
-0.16177516 -0.47083557 -0.21239178 0.59950525 0.013430807 -0.16526501 0.32598057 -0.94026905
-0.72046465 -0.23627786 -1.4239817 0.46852538 0.21787229 0.35519558 -0.3763448 -0.34556764
-0.11892018 0.14234512 -0.6953935 0.3979194 -0.008012503 0.10144751 0.11147352 0.36275533
0.21039952 1.2856066 -0.6870213 -1.031942 -0.6765004 0.29749113 -1.654481 -0.36462983
-0.7496503 0.54644746 0.45238087 0.68664944 -0.24189928 0.10718502 0.064954735 1.0026627
0.21070898 0.36068046 -0.024040425 0.26535428 0.2421921 0.30664825 -0.034851734 -0.015132002
-0.10244975 -1.8321105 -0.1373005 -1.0824249 -0.038272735 -0.82478136 -0.55286205 0.54648656
0.29866594 -1.2279094 0.24638341 -0.10430341 0.43142202 0.44927648 0.23021734 -0.25375676
-1.6322381 0.30882773 -1.108214 -0.20008792 -0.34960717 -0.11279842 -0.40378737 0.8988767
0.21967582 -0.7634842 -0.9200842 0.07996285 0.109414764 -0.021236893 0.7536105 0.37812752
1.3899171 -0.17847483 0.22941004 -0.56595546 0.06275822 -0.42389038 0.328478 0.017369695
0.3761262 0.9120354 -0.3275222 -1.6970445 -0.17747931 -0.28621954 0.5139185 -0.23580305
-1.6896656 -0.3734264 0.007583431 -0.9304875 0.030787695 -0.34521168 0.025151027 -0.34636408
0.77481294 -0.73987204 0.05760188 0.008988936 0.2643653 -0.7320984 0.27715594 -0.14505753
-1.2392228 -0.6218771 0.15901381 -1.3046517 0.39099056 0.18919691 1.19747 0.008065304
0.6625371 0.18164879 -0.26081163 0.20494966 -1.1641814 1.021332 -0.20326208 -1.065022
-0.18201195 0.5195676 0.45017764 0.32938233 -2.0264847 0.012326013 0.121602215 -0.82328767
-0.19597924 0.43052995 -0.104202256 -1.5612264 -1.1823139 0.11713725 -0.28583494 -1.0277157
1.4638817 -1.2133347 0.6038781 -0.6299669 0.1779018 0.07806297 0.82914287 0.79546463
0.32563525 -1.3028715 0.44726536 -3.7207675 -0.42396313 0.39602223 -0.0029225086 0.9508303
-2.5662856 0.15456656 -0.2676928 -0.6349918 -0.9102419 -0.52533025 -0.94556665 -0.7353616
-0.70413333 0.38817266 -0.23987584 -2.1103528 -4.133374 0.75912786 -0.62447435 -2.2051208
-0.78951323 -0.31807214 -0.049694836 -0.30688784 -0.49167395 1.2886766 0.76396763 -0.0012458885
-1.4088039 0.7316007 -0.4568833 -0.6773211 -0.2450978 -0.4721246 0.3293983 -1.0926228
0.74637294 -0.26764405 -1.2698381 0.27750045 -0.8859664 -0.6484693 -2.2819297 -0.71275216
-0.4185222 -0.111168906 -0.70437264 -0.6217208 1.837335 0.45112303 -0.30063993 0.31415957
-0.44938302 0.45527902 -0.15019493 1.2630552 -0.56491333 -0.3589619 0.58355266 -0.011221774

fc_state2.bias f4 [64]
00000000: 87d2 07bf a6f0 86be f129 35bf 942a c93d
00000010: 51c4 82bd 6427 1f3f a1d9 7cbe aecd 33be
00000020: c6de f43d e989 1dbf 9040 8a3e 0f2f d33c
00000030: 8189 18bf aadd 95be ebc9 3abe 633b 47bf
00000040: 59b4 f63d f131 23bf e8e8 7abe fd0a 32be
00000050: ae78 82be fddc f73e f2ee b0bd 1c32 65bf
00000060: 9e8d 393c 938c f93e 00e9 a73e 1b41 c9be
00000070: 99a3 fbbe 1746 55bf c29d f3be b235 3bbe
00000080: c2c0 3ebf 82dc 00bf 4ca4 edbe f471 68bf
00000090: d6d2 c8bd a211 f73f 5300 4dbe 9f72 9cbf
000000a0: fc98 fabe 5ebe 08bf 5595 093f aab6 5c3f
000000b0: fcad febe 7507 233e 3a60 e63c d87b cfbe
000000c0: 6ac8 633e 7483 95bf e884 9c3c 3f6b 49be
000000d0: d357 55be 0a78 10bf f22a 9fbf e230 e23e
000000e0: a731 5bbe 75a1 99be c6c5 fe3c 9d57 0f3d
000000f0: 5141 45be 7cdc 61c0 33aa e6be 8b0b 863c
-0.53055614 -0.26355475 -0.7076712 0.09822574 -0.06385101 0.6216948 -0.24692394 -0.1755893
0.11956553 -0.6153856 0.27002382 0.025779275 -0.59584814 -0.2927068 -0.18241088 -0.7782499
0.12046117 -0.6374808 -0.24502909 -0.17387004 -0.25482696 0.48410788 -0.08639325 -0.89529586
0.011325268 0.48740062 0.32794952 -0.39307484 -0.49148253 -0.83310074 -0.47581297 -0.18282202
-0.74512875 -0.5033647 -0.4641441 -0.9079888 -0.09805839 1.9302256 -0.20019655 -1.222248
-0.48944843 -0.5341548 0.5374349 0.86216223 -0.49742115 0.15920813 0.028122056 -0.40524173
0.2224442 -1.1680741 0.019106343 -0.19669817 -0.20834284 -0.56433165 -1.2434981 0.4417792
-0.2140566 -0.30005994 0.031100165 0.034995664 -0.19263197 -3.5290823 -0.45051727 0.016362926

fc_action.weight f4 [64, 6]
00000000: 97c5 9abf de1a 2cc0 3d78 b8bf b43c 25be
00000010: c833 debb da12 fd3f 72b6 1c3f 3bcf 793e
00000020: 8e91 e2bf ab95 2f3f 1d1d da3f a400 89bf
00000030: 527f 02bf 0db6 f43e 3ba6 06bf 6071 0bbf
00000040: e460 babd 1e47 15bf f6e9 c23e dd0a ba3d
00000050: 0e68 c83d eeb7 583f 6961 9b3e a901 f13e
00000060: 5ee4 b73e 6228 79bf 792a 953f c549 0fbf
00000070: 96d2 1840 807b cf3f f2c1 153f 87a4 113f
00000080: af43 30c0 20ce 86bf 6684 f93e 74a0 6c3d
00000090: 4b5d 60bf 465a 693f 1b7d d43f 1bf3 933f
000000a0: 526c 8abe d3c8 ac3f a0a0 f03f 75e1 4fbc
000000b0: 1ec6 d63e 9ec2 15c0 553f ef3f 93cf 5e3e
000000c0: a4cc 853e 1b5d 003e 9622 e7b9 8127 79bd
000000d0: 4ef3 673d 11b3 353c d2ec 66be 20bb 47bf
000000e0: b9ac 67bf 7b74 d63f 3351 dabc ef98 debf
000000f0: 229d 5f3f 96e5 87bf 92c6 b2bf cc80 073f
00000100: 8e9d b7bf 220f 3abe 3132 be3e e9b3 1fbf
00000110: f5a9 843e 92fa 1b3f 2080 d8be 5c0e 893d
00000120: d02e 7cbf 0da5 24c0 eb40 79bf acd2 aa3f
00000130: cf6a f43f 35bb f73d e5c4 72bf 4367 dabf
00000140: 1597 0cbf 7401 56bf 5da0 a03f a04d 5940
00000150: 0828 23bf d20c efbe d78a 943c f345 8fbf
00000160: 3d26 bfbe 216f 3dbf 7af7 ae3e 022a f43e
00000170: b69f aabf 8b2b e63f 2538 d23f 5acd b2bf
00000180: 8001 423f a996 95bf 6b2d f53e 4798 0b40
00000190: ab05 413f 924e 1b3f d5a4 0fbf eff8 0d3e
000001a0: e228 49bf 9921 a1bf f93f fcbf 8acc 523e
000001b0: e826 0e3e 2472 393f d8f7 8dbf adcd 87be
000001c0: b3c0 01c0 7fe5 03c0 5ff0 e0be d5b4 0e3e
000001d0: fa99 4a3f 0d74 233f ff96 eebf 3f9f 32bf
000001e0: 3eef d53e c81e e8be 5807 b4bf 818c 92bf
000001f0: 26c1 8fbd cd49 10bf b9e4 c83f e394 1ebd
00000200: ac1f cdbf 0f3b bc3f 8fe4 a13f f62f b9bf
00000210: 1cf9 2c3f 6e53 e83f 87bd c23f 7ca4 8dbe
00000220: 645d 093f 5791 143f 7c71 4bbf 5b8d 4640
00000230: f565 e13f b3ef d93f 7ba5 6b3e 6bb6 7cbf
00000240: 2c28 92bd f739 47bf 92fb 25bf 2d8d 333f
00000250: 8fa4 cfbf e919 07be 4493 7dbd 8fd0 a7be
00000260: 8d23 4b3f bc27 e7be 1f1c 343f 1ed9 28bf
00000270: 7499 fb3e 5f6d 393f b161 e43d 4298 be3e
00000280: 1500 92be 5d3e a23f 07a5 55bf fc70 763f
00000290: 75c9 5f3f 82c3 e6be 283c b9bf c0bf 2a40
000002a0: 7a81 713f 6d74 3d3f a891 1d40 d60a fcbe
000002b0: f3b9 363e ccd0 23be 2e4f 1b3f 58b1 9dbe
000002c0: e3fb dc3e 83d3 253f 01c6 b93d 573a 423f
000002d0: 07e5 c0be ed83 a73e 9861 6ebf 3ad2 8bbe
000002e0: 0396 6fbf 50fd ec3e 6484 0e3f 89a3 6dbf
000002f0: a946 a6bf a156 4c3e 858a ac3e f24e 203f
00000300: faa7 febd d641 403d d89d 71be 23d7 3b3d
00000310: ceb1 cdbc edfc 913e 5988 d9bf 7766 c33e
00000320: f35c d5be 13bb 85bf 170b ecbf a0e5 84bf
00000330: 4cce 4c3f ea10 f4be f44a 16bf 5268 04bf
00000340: fa1b cbbf 33e0 bc3f 0e20 963d da54 b03e
00000350: e11f 8f3e b46b 87bd 286b 84be a338 943e
00000360: 517e b33f 74f2 1d3e 3391 ebbf 3b2c 83be
00000370: 4b4e 60bf dbb4 21c0 1378 7d3f 712a 00be
00000380: d73f 3c3f 0e4d 34bf bf8f 28c0 59e6 d1bf
00000390: 8c15 61bf fa36 2dbe 03d5 7bbf 5086 86be
000003a0: ad21 953e f61e f03d 0d67 b2bf 6ef3 0fc0
000003b0: e341 87bf a7db 52bf 6c4a 9c3f 3553 d1be
000003c0: adbf 0d3f b1fc 12bf e8d6 473f 94f1 1f3f
000003d0: 1205 6d3e 7a34 0a3f 1e78 99bf 9007 97bf
000003e0: 8d2a b73e 43ce 84bf bfc0 fcbf b33f b33f
000003f0: 9f06 a4bf 2518 e6be e7b4 3a3f 7293 a93f
-1.209155 -2.6891398 -1.4411694 -0.16136438 -0.006781075 1.9771378 0.6121589 0.24395458
-1.770067 0.6858775 1.7040135 -1.070332 -0.50975525 0.47795144 -0.525974 -0.5446987
-0.09100512 -0.5831164 0.38069123 0.09084103 0.09785472 0.84655654 0.30347756 0.4707158
0.35916418 -0.97327244 1.1653587 -0.5597194 2.3878531 1.6209564 0.5849906 0.56891674
-2.754131 -1.0531654 0.48733824 0.057770208 -0.87642354 0.9115337 1.6600679 1.1558565
-0.27035767 1.3498787 1.8799019 -0.0126880305 0.41948026 -2.3400035 1.8691202 0.21758871
0.2613269 0.12535517 -0.00044085522 -0.06082869 0.056628518 0.011090056 -0.22551277 -0.78019905
-0.9049793 1.6754297 -0.026650047 -1.7390422 0.8734914 -1.0616939 -1.3966849 0.52930903
-1.4344957 -0.18169835 0.37147668 -0.62383896 0.25910917 0.60929215 -0.42285252 0.06692192
-0.9850893 -2.572574 -0.9736468 1.3345542 1.9095095 0.12096254 -0.9483169 -1.7062763
-0.5491803 -0.8359597 1.2548939 3.3953629 -0.6373296 -0.4668947 0.01813261 -1.1193222
-0.3733386 -0.73997694 0.34173185 0.476883 -1.332999 1.7982038 1.6423384 -1.3968918
0.7578354 -1.1686603 0.47886214 2.1811693 0.75399274 0.60666764 -0.5611089 0.13864492
-0.7857801 -1.2588378 -1.9707023 0.20585838 0.13882029 0.7243979 -1.1091261 -0.26524106
-2.0273864 -2.0608823 -0.4393339 0.1393617 0.791412 0.63848954 -1.863983 -0.6977424
0.4178409 -0.45335984 -1.4064741 -1.1449128 -0.07019262 -0.5636261 1.5694801 -0.03871621
-1.602529 1.4705523 1.2647876 -1.4467762 0.6756761 1.8150461 1.5214089 -0.27664554
0.5365813 0.5803427 -0.7947004 3.1023777 1.760924 1.7026275 0.23012345 -0.9871585
-0.071365684 -0.7782282 -0.6483699 0.7013729 -1.6222094 -0.13193478 -0.06190802 -0.32776305
0.7935112 -0.45147502 0.7035541 -0.65956295 0.49140513 0.7243251 0.11151446 0.37225538
-0.28515688 1.2675282 -0.83454937 0.9626615 0.87416774 -0.45071036 -1.4471483 2.6679535
0.9433819 0.74005777 2.4620152 -0.49227017 0.17844371 -0.15997618 0.60667694 -0.30799365
0.43160924 0.64775866 0.090709694 0.7587027 -0.37674734 0.3271784 -0.93117666 -0.27308828
-0.93588275 0.46287012 0.5567076 -0.9282766 -1.2990314 0.19954921 0.33699432 0.6262046
-0.12434383 0.046937786 -0.23595369 0.045859467 -0.025109198 0.2851328 -1.6994735 0.38164112
-0.41672477 -1.0447716 -1.8440884 -1.0382576 0.80002284 -0.47669154 -0.5870812 -0.5172168
-1.5867913 1.475592 0.07330333 0.34439737 0.2795401 -0.066123396 -0.25863004 0.2894946
1.4022924 0.1542452 -1.8403686 -0.25619683 -0.87619466 -2.5266635 0.99011344 -0.1251619
0.7353491 -0.70430076 -2.6337736 -1.6398422 -0.879235 -0.16915503 -0.98371905 -0.26274347
0.29127255 0.11724655 -1.3937699 -2.2492328 -1.0566982 -0.8236641 1.2210212 -0.40883794
0.553706 -0.57416826 0.78062296 0.62477994 0.23146465 0.5398632 -1.1989782 -1.1799183
0.3577465 -1.0375446 -1.9746321 1.4003814 -1.2814521 -0.44940296 0.72932285 1.3248122

fc_action.bias f4 [64]
00000000: fda5 adbc f9fe 45be 93b4 9c3f 644c ad3f
00000010: 1410 11bf aef6 13bf 7a35 cabf a65e 22bf
00000020: 388b fd3f 3f4f d63e 8312 c1bf 75a5 a73f
00000030: 80c8 a73e 2c36 5c3e 02c1 a0bf d065 803f
00000040: 2c39 5abf 97da 08be c23c dfbe a799 30bf
00000050: da7d 6d3c 5f38 903d 4850 553f ce78 143f
00000060: 56b8 013f 288e 683f 7bbc a0bf 2f03 d6be
00000070: 7831 313e 2638 abbf 4da3 eabd 55f2 68be
00000080: 28e8 0040 6b18 323f 7290 98bf 102a 0e40
00000090: b4d1 2c3e 7e5d 09bf abf6 a33f 8de0 9a3e
000000a0: 277c b7bf 7f7b dbbc cbbc dfbe 772f 1040
000000b0: a1ea 883f 770a 923f 1aa7 39bd 6372 0940
000000c0: e498 8ebf 68e8 42bf 9f98 523e 9f13 0d40
000000d0: d0bc 00be c0a8 c0bf cace f53f 4332 a1bf
000000e0: d9e0 d7bf d1e2 60bf 9afe 093f 2a34 cebe
000000f0: c40a 1abf 4203 abbe ec14 d13f dbcb cbbf
-0.021197313 -0.19335546 1.2242607 1.3538938 -0.5666516 -0.5779828 -1.579757 -0.6342567
1.9808111 0.41857335 -1.5083774 1.3097368 0.32770157 0.2150504 -1.2558901 1.0031071
-0.8524349 -0.13364635 -0.43601042 -0.68984455 0.014495337 0.07042002 0.83325624 0.57996833
0.506719 0.90841913 -1.255752 -0.41799304 0.17304027 -1.337651 -0.114569284 -0.22748692
2.0141697 0.6956851 -1.1919081 2.2213173 0.1687687 -0.5365828 1.2809652 0.30249444
-1.4334763 -0.026792286 -0.43698725 2.252897 1.0696603 1.1409444 -0.045325376 2.1476066
-1.1140409 -0.76135874 0.20566033 2.2043226 -0.12572026 -1.5051498 1.9203732 -1.2593464
-1.6865493 -0.87846094 0.53904116 -0.40274173 -0.6017268 -0.33400923 1.633451 -1.5921587

fc1.weight f4 [128, 128]
00000000: d9f0 3b3e d95b 2f3e 7171 87bd 583d b1bc
00000010: 336d cdbe 9505 083e 806c 1abf 63ba 60be
00000020: e2e3 b93d 31af 8dbf 5c71 25bd ded3 823e
00000030: 29ca 11bf ca41 0fbd eec9 84bd 72c8 0abe
00000040: b45c 8ebe 89db d1be 40ce debd 6e76 e33c
00000050: 7f55 e6bd c923 a339 3b4c c8bc abf9 eebd
00000060: 46f6 c03e d5d2 783f 5e1e e7be 7d60 0b3e
00000070: c7aa b2be f74c 58be dca8 0ebf c102 0bbc
00000080: a4b0 ca3e cdea 543d 3651 58be db34 58be
00000090: 66be c4bd 405c 0ebe c217 0cbe f7bb 27bd
000000a0: f9a9 d1be 747f 9abe dd3d 21bd 49af 80be
000000b0: ab6c 3b3e 3e51 ed3e 02c4 85bd 2828 813e
000000c0: fc46 fc3e 3160 a7bd e753 e63d 9d20 993b
000000d0: c0eb a83e 09b5 49be 51d3 203f 1466 28bf
000000e0: 8115 29bc 243f 58be 1a0f ab3c 046b fb3a
000000f0: e0e0 c3bd 3cf4 e6bf 794c 36be 8f73 aebd
00000100: d476 10bf 7bcf c4bd 69f0 ee3e 802c 1e3f
00000110: cd9c 273f 8f35 0cbf b277 72bd c2ef 75bf
00000120: c9c2 893f 1eb6 403e 3ee6 f23c feb9 4a3e
00000130: 502e 90be 3d19 58be 4603 9b3f 4503 dfbe
00000140: af45 9bbe 1bb1 b4be fe8f b93e fe34 24bf
00000150: 0679 f8be ec8f c3bd 616b 88be 86ee 1fbf
00000160: a24b efbd 6a1d 0dbe 1d89 81bf 567f 9fbe
00000170: 591d a5be 0d12 86bf 7650 34be 868a b0be
00000180: b74b 963f f2f8 42be c012 36bf 7e8d 943f
00000190: 1cfb 8ebe 25ee 38bf ba8d 113f 9c13 12bf
000001a0: b363 44bf 88bb 49bf 55b4 bb3d 54d4 953f
000001b0: c7b1 4d3e 1c2a 6a3e a39e dcbe ef87 b03f
000001c0: eba2 d73e 0c00 1dbf 9fc1 49bd 204c 9a3f
000001d0: b4a3 91be 1180 e0be cd0f 4c3f 2a45 9bbe
000001e0: e6f7 9e3e fadc febe 36f3 b2be 3734 68bd
000001f0: 626f c53d 39be febd 4606 ec3d f960 93bf
00000200: 0480 813f d6d8 a7be b161 d1bf a075 2fbe
00000210: 2d6c cb3f 1d75 31bf 49d5 b2bd 03a6 13bf
00000220: ab63 c7be aa10 1a3f d0dc 73bf 5619 bfbf
00000230: bf4b 85bd 47f5 33c0 9491 b2bb 8430 29bf
00000240: fc37 aebf c210 423e 149a 5dbf a898 ac3d
00000250: 314d debe a54a f13e 495c 353e e8a0 89bd
00000260: b62e 11bf 45a3 a1bf 9e9d c7bf 367d f8bf
00000270: e063 a4bf 30b1 34bf 5913 2cbe 75a7 f73e
00000280: a463 0fbf 4524 2d3f 73f7 5fc0 5a7d aebf
00000290: 47f0 253f 16a5 08bf 53b5 62bd 5d28 8abe
000002a0: 7d11 78c0 54c9 b43f 0eb4 a0bf f65d 69bf
000002b0: 96c8 16bf ccfd dbbf 5f9e 10c0 5c95 a2bf
000002c0: 6b1c 3dbf 0137 d03d 71ec 9bbe 40ce 3ebf
000002d0: e780 253e 7297 0f3d 6843 d9bf 7b2c 9dbf
000002e0: 971e 123d 37d8 d7bf d6d7 4ebf 47e0 ba3f
000002f0: 1f7e f73e 2009 4bbf ded5 c83d 6d41 0bc0
00000300: 4850 a0bd 712c 18bf b3e8 b5bf 4de8 923d
00000310: 5350 16c0 8387 54bf cf53 48c0 981a 62bf
00000320: ff16 c9be b5af 2fbf 153b 81bf 1f6a 3b3c
00000330: caac 203f 4dd1 a0be 6b55 a7c0 f268 b9be
00000340: c7b6 2f40 48e9 d5be 586f 83be e0d5 ef3f
00000350: 6380 0fc0 0523 153e 8ba8 ae3d 328a 1ac0
00000360: 9d92 c2be c018 b13d 8c56 0c40 5994 943f
00000370: f25b c23f 1c8f 12c0 99da 9cbf 2b7f 3abf
00000380: e7c9 2cbf 9e51 9b3d 2699 44bf 47f7 1cbf
00000390: 3bb8 1f3f 7e4e 12be be54 d8bf e309 bfbf
000003a0: 17c3 48c0 a9ce 15bf 563f cebf 6520 bfbd
000003b0: 39a5 a0be 642a 723e 7b31 0ac0 0fda 13be
000003c0: 0fd6 afbf fd56 ef3e c4d0 863f c2f3 3e3d
000003d0: fc79 4ebe f887 31c0 d8a0 23bf d783 a5bf
000003e0: f45b 23c0 e240 42c0 236b 15bf aa60 11bf
000003f0: 6c9b 37be 9761 75bf 70f8 14bf 3336 4cbf
0.18353595 0.17124881 -0.06613434 -0.021635696 -0.40122375 0.1328338 -0.6032181 -0.21946101
0.09076668 -1.1069089 -0.04039131 0.25552267 -0.56949097 -0.03497485 -0.064838275 -0.13553026
-0.27805102 -0.40987805 -0.10879183 0.027766433 -0.11246776 0.00031116445 -0.024450412 -0.11668714
0.37687892 0.97196704 -0.45140356 0.13611026 -0.34895918 -0.2112311 -0.5572641 -0.008484543
0.3958789 0.051981736 -0.2112473 -0.21113913 -0.09606628 -0.13902378 -0.13680938 -0.04095074
-0.4094999 -0.30175364 -0.039365638 -0.25133732 0.18303172 0.46351045 -0.06531526 0.2522595
0.49272907 -0.08172644 0.11246472 0.0046730773 0.32992363 -0.19697966 0.62822443 -0.6578076
-0.010320068 -0.21117836 0.020881224 0.0019181673 -0.09564376 -1.8043284 -0.1780261 -0.08518135
-0.5643132 -0.09609886 0.46667793 0.6178665 0.65473634 -0.54769224 -0.05919618 -0.96068966
1.0762569 0.18819472 0.029650804 0.19797513 -0.28160334 -0.21103378 1.2110374 -0.43557182
-0.30326602 -0.3529137 0.3624267 -0.6414336 -0.48529834 -0.09548935 -0.26644424 -0.6247333
-0.11684348 -0.13780752 -1.0119969 -0.31151837 -0.32248953 -1.0474259 -0.17608818 -0.34480685
1.1741856 -0.19040278 -0.7112236 1.160568 -0.27925956 -0.7223838 0.5685688 -0.5706117
-0.7671463 -0.78801775 0.09165255 1.1705422 0.20087348 0.22867626 -0.4308978 1.3791484
0.42116484 -0.61328197 -0.049256917 1.2054482 -0.28445208 -0.43847707 0.7971161 -0.30326205
0.31048506 -0.49777967 -0.3495118 -0.05669042 0.09640385 -0.12438626 0.11524634 -1.1513969
1.0117192 -0.3278262 -1.6357938 -0.17134714 1.5892388 -0.69319326 -0.08732087 -0.5767519
-0.38943228 0.6018168 -0.9525881 -1.4929607 -0.06508588 -2.8118455 -0.005449483 -0.66089654
-1.3610835 0.18951705 -0.8656323 0.08427554 -0.43418267 0.47127262 0.17710985 -0.067201436
-0.567119 -1.2627951 -1.5594976 -1.9413211 -1.284298 -0.70582867 -0.16804256 0.48369947
-0.56011415 0.6763347 -3.499478 -1.3632004 0.6481976 -0.533769 -0.055348706 -0.2698392
-3.8760674 1.412394 -1.2554948 -0.91159 -0.5889982 -1.7186828 -2.2596662 -1.2701831
-0.7387149 0.10166741 -0.30453828 -0.7453346 0.16162454 0.03505654 -1.6973696 -1.2279199
0.035673704 -1.6862859 -0.8079809 1.4599694 0.4833841 -0.793108 0.09806417 -2.1758683
-0.078278124 -0.5944281 -1.4211639 0.07173214 -2.3486526 -0.83019274 -3.1301153 -0.8832183
-0.39275357 -0.6862748 -1.0096155 0.011438875 0.62763655 -0.31409684 -5.229177 -0.3621288
2.7455308 -0.41779542 -0.25670886 1.8737144 -2.242211 0.1456414 0.08528241 -2.4146848
-0.38002482 0.08647299 2.1927824 1.1607772 1.518431 -2.2899847 -1.2254211 -0.7285029
-0.6749558 0.075839266 -0.76796186 -0.61314815 0.6239049 -0.14287755 -1.6900861 -1.4924892
-3.1369073 -0.58518463 -1.6113079 -0.09332351 -0.31376055 0.23648983 -2.15927 -0.14438652
-1.37372 0.46746054 1.053246 0.046619184 -0.20163721 -2.7739239 -0.63917303 -1.2930859
-2.5524874 -3.0352101 -0.583666 -0.5678812 -0.17930382 -0.95852035 -0.58191586 -0.797702

fc1.bias f4 [128]
00000000: bb02 e23f 1b64 9cbe 83a1 a3bd c184 08bf
00000010: 63e5 1fbf 06cc c1be 90f4 6fbe 3575 63bf
00000020: 0c9f 823e 1637 9ebe 52dc b23c d913 fbbd
00000030: 03c9 ea3f ea50 cf3e c200 70be 4500 64bf
00000040: 011c d7be bd43 98be d1b4 36bf 85e9 25be
00000050: d8c5 07be eb7d 6abf 278e 47bf e125 7d3e
00000060: 9820 e2bd 34f4 a2bd 4879 db3d 7e75 2e3d
00000070: d1f6 5fbd 9313 a4bc 9cf9 7ebe 210a d5bd
00000080: 133b f9bf 6fce 86be ff9f b4bf f9d3 b1bd
00000090: 317b 123e ffba 0bbf 76b1 613e 7cbd 94be
000000a0: fd95 03be 6cd2 2cbf 6d88 e2be f1ab 58bf
000000b0: 7d36 13bd e541 20bf 757d adbe 3d48 54be
000000c0: 52c3 153d 0053 29bf 9bdd 8d3e 8f8b 0040
000000d0: 693f 46bd e2f1 2f3d 4891 4b3e d7ca 9fbd
000000e0: fe3d 48be 31a0 81be e962 ebbe 6b6c 8fbf
000000f0: 5d37 90be 2ab9 40be ae8d 92bd 9b85 23be
00000100: d0e8 52bf 12e7 0540 2edd d53e 4aef 5ebe
00000110: 7d9b 5e3f c214 9bbe 0916 a1be df3a a1bf
00000120: 9d43 02bf e9ed 0d40 7562 c6be 2fab 8bbf
00000130: 0061 423f 8ede cbbd 8cc1 50be 6ea0 96be
00000140: b76d 4ebe d3c1 bfbe 57fe 92bf 3a99 0dbe
00000150: 2b72 743e afc5 a8be 7f9d a23e e0ea 693e
00000160: eb75 f53e afa2 dabe 5392 28bf c4e7 68bf
00000170: fb4b 35be 3423 c03e b14d cbbf beda d93d
00000180: 7d16 ccbe 9d7a 36be af31 0cbe d0e8 c63f
00000190: 671e 08be d136 2340 4cda 41bf 7400 b43d
000001a0: f336 b9bd 438a 0dbf 0f8a 60bd c85a d1bd
000001b0: 2e1a 593e 764f 2ebe 4c23 07bf 27aa bb3f
000001c0: 6c6c 27be daa1 8dbe 86dc b7bd 7942 983e
000001d0: 827e 86bf 99a3 b1be 0229 01bf ac40 c83e
000001e0: b218 b63f ff33 acbe e4fd 05be 6ea3 42bf
000001f0: 2006 08bf cceb 99bd f5e8 36bd 5419 dfbd
1.7657083 -0.30545124 -0.0798979 -0.53327566 -0.6245939 -0.3785097 -0.23433137 -0.8885072
0.25511968 -0.30901402 0.021833573 -0.12259645 1.8342594 0.4049142 -0.23437789 -0.8906291
-0.42013553 -0.2973918 -0.71369654 -0.16202362 -0.13259065 -0.91598386 -0.7795128 0.24721481
-0.11041373 -0.07956734 0.10716492 0.042592518 -0.05467874 -0.020028865 -0.24899906 -0.104023226
-1.9471153 -0.2632937 -1.4111327 -0.08683009 0.14304806 -0.5458221 0.22040352 -0.29050815
-0.12850185 -0.6750858 -0.4424471 -0.8463736 -0.035940636 -0.6260055 -0.3388478 -0.20730682
0.036563225 -0.6614227 0.27708134 2.008518 -0.048400316 0.042955287 0.19879639 -0.078023605
-0.19554898 -0.2531753 -0.459739 -1.1204962 -0.2816724 -0.18820634 -0.071559295 -0.15968935
-0.82386494 2.0922284 0.4177031 -0.21770969 0.86956006 -0.30289274 -0.31462124 -1.2596091
-0.5088442 2.217646 -0.38746992 -1.0911616 0.7592926 -0.09954558 -0.20386332 -0.29419273
-0.2015904 -0.37452564 -1.1483868 -0.13827983 0.23871677 -0.3296332 0.31760785 0.22843504
0.47941527 -0.42702243 -0.65848273 -0.90978646 -0.17704765 0.37526858 -1.5883085 0.10637425
-0.39860907 -0.17820211 -0.13690828 1.5539799 -0.13292848 2.5502207 -0.7572372 0.08789149
-0.09043684 -0.55289096 -0.054819163 -0.10222393 0.21201393 -0.170225 -0.52788234 1.4661301
-0.16349953 -0.27662545 -0.089776084 0.29738215 -1.0507357 -0.34695128 -0.504532 0.3911184
1.4226286 -0.3363342 -0.13085133 -0.76030624 -0.53134346 -0.07515678 -0.04465576 -0.10893503

fc2.weight f4 [128, 128]
00000000: 40ae 8a3c 7ceb d8be e689 d1bc b2e5 a6be
00000010: 6573 9d3f ae96 883f 03a6 0a3f 0915 84bf
00000020: 7f85 90bf cbd7 40bf 6cb5 e0be 5961 a5bc
00000030: 8d18 e03d c49a a43e 6777 8fbf dea6 113e
00000040: 2ed3 6cbe 0021 2fbf 61f7 52bb 0a58 cdbc
00000050: 4272 febf cd90 b9bd c99a 75bf 3db8 15bf
00000060: 94bf 773c 3a01 d8bf 6e46 cbbc 090f 01bf
00000070: 6dc7 80bd cd00 c1bf ae90 29be 1d08 ad3d
00000080: 3bca 243e e40a 643d 0dfa c6bf 7daf b2bf
00000090: b9b9 5bbe 58ba 8dbf e868 453e 06f3 8abd
000000a0: 1ec5 83bf 7d13 96bf f7df b5be 1f40 a0bf
000000b0: de58 5cbe 05c7 873d a696 95bf 687d 6bbf
000000c0: a5e4 15be ec25 bc3e 106b a13e f898 243e
000000d0: fa48 30bd 2470 cc3f 955c 76bf 21ce 19bf
000000e0: f857 abbd df26 5ebe bad5 9cbf 101c 04be
000000f0: f87c 343f 851e 89be 384e b8bd 430f 8fbd
00000100: 75bc 08bf 82f5 573e 17d7 04c0 e560 93bf
00000110: f252 e7be 3587 b33d 4e8f ad3e d79a f2bf
00000120: 4b47 10be 8ebd 193e ea7b 4cbd 0973 e3bf
00000130: c66d c4be 5b14 82bd af1e 5cbd 34de 73be
00000140: c9a6 32bd 6d72 eebf 2f1e a5bf f2f3 abbd
00000150: e340 ab3b b89f 9fbf 9657 20bc 3a0b 423f
00000160: 695d e2be 71d6 97bf e158 8f3e b32d e6bf
00000170: b6d2 bf3d 098f 04be 266c 1fbe 8624 a6bf
00000180: 7b63 92bf 9a14 33bc 35d9 c9bd 637e 633e
00000190: e09a e03c 3bbc 163f c842 77bf e711 7fbd
000001a0: 0e37 d93b a5b7 dcbe a088 ab3d 275e 83be
000001b0: c34a 0abe 3289 e1bc 9ae0 91bf 24fe b03d
000001c0: 1554 21bd adf4 82bf 8300 dc3c f024 a3bf
000001d0: 82f0 10bf ac61 a2bf 4e87 af3c 6702 e5be
000001e0: 2646 273c 0957 20bf 4484 c1bd f544 80bf
000001f0: 9df5 5ebf 600b 6ebd ff97 7abf d679 3a3c
00000200: 64e4 1fbe b7f5 15c0 025b d7bd 448f f2bf
00000210: b623 e8bf d942 cfbf 6507 babf 80cf 30bf
00000220: bdfb af3e 6b5d ccbf 87b3 9cbc 466b b2bd
00000230: 36ad 97be 6474 3dc0 d21b da3e 99e0 38bd
00000240: e28b d6be 52fb 35bf 43e9 103d 8736 81be
00000250: 1ec1 943f 8e58 933f aaa7 fabf b55a 7ebf
00000260: ae82 8cbd e902 3abf f319 55bd 5431 32c0
00000270: de93 b43d 001e 56bf e9e4 cabc b066 93bd
00000280: 1a01 88be 05e5 e1bc b275 15c0 d6a5 83bf
00000290: 6366 07bf 8f6e 533f 69e8 4a3f 9e2a 043d
000002a0: ba25 ce3c b878 06bd 3810 77bf 847b eebf
000002b0: 880b edbf 9c9a c0bd 8d09 6c3e d5c1 42bf
000002c0: 4db1 5ac0 3e84 f4bd fa3c f7bf 2c07 7c3e
000002d0: 330b 6c3d a319 e5be c6dd b13f 33d8 cdba
000002e0: b3ff 5e3d 8615 07c0 8a22 b6bf e752 7fbf
000002f0: db0b 143f 13ed 5a3d 60ac 583e 8c90 cdbc
00000300: 5baa 573f 9b39 2abf f6f6 293f 8880 ae3d
00000310: 0ae7 89bf e08a 03bd c183 c1bc b548 8bbf
00000320: c8d5 e9bf a393 eabe 233b e0bd 5728 97bf
00000330: 2c75 6fc0 1f03 b83c 7668 fdbf 5b84 59bf
00000340: d7e5 3ebd fad9 463d 1141 bbbf 679d 103d
00000350: 75c6 84bf ff55 a5b9 306e 773f e89e 3a3e
00000360: 25a2 fd3e 39dc 9abe 042e 0c3f 9394 88bf
00000370: 9d98 a43d 9ea5 dbbf 7e89 3cbe 1abf 2cc0
00000380: 4f97 b9bd d6c9 543d 2bc5 b6bc ab55 1cc0
00000390: 5262 22bc 337e d7bd d4ae 07be e172 edbe
000003a0: 3088 4dc0 23f1 e3bd 1d46 39bc b53a cdbf
000003b0: f23d a73d 43ee 443d cb03 edbd 94f3 09c0
000003c0: 7341 80bd ad0f dfbf afeb 05bd 6f56 c1be
000003d0: 77ed 5b3d a54e 133d 2785 4bc0 ff56 08bf
000003e0: 09a3 103f d8f3 563e 395c 4c3d 1c3e adbf
000003f0: 9e0a a9bf 304e a5bd 7d8b 973f 622f 403d
0.016928792 -0.4236716 -0.02557845 -0.3259712 1.2300841 1.0670984 0.54159564 -1.031892
-1.129074 -0.75329274 -0.43888414 -0.02018802 0.10942183 0.32149327 -1.1208314 0.14223811
-0.23127434 -0.6840973 -0.0032190906 -0.025066394 -1.9878619 -0.09060822 -0.9593931 -0.5848425
0.015121359 -1.6875374 -0.024813857 -0.50413567 -0.062880374 -1.5078369 -0.16559097 0.08448813
0.1609277 0.05567445 -1.554506 -1.3959805 -0.21457566 -1.1072493 0.192783 -0.06784634
-1.029453 -1.1724697 -0.35522434 -1.2519568 -0.21518275 0.06629757 -1.1686599 -0.9198823
-0.14638002 0.36747682 0.31526995 0.16073978 -0.043038346 1.5971723 -0.9623502 -0.6008015
-0.08366388 -0.21694516 -1.2252724 -0.1290133 0.7050319 -0.26781097 -0.08999294 -0.06985333
-0.5341256 0.21089748 -2.075628 -1.1513945 -0.4518047 0.08766023 0.33898395 -1.8953503
-0.14089696 0.15013716 -0.04992286 -1.7769481 -0.38365 -0.06351539 -0.0537402 -0.23815233
-0.04361609 -1.862867 -1.2899836 -0.08396138 0.005226241 -1.2470617 -0.009786507 0.7579838
-0.4421189 -1.1862317 0.27997497 -1.7982696 0.09366362 -0.12945189 -0.15568599 -1.2979896
-1.1436609 -0.010930205 -0.09855882 0.22216181 0.0274176 0.58880967 -0.96586275 -0.062272932
0.0066288775 -0.4310886 0.083756685 -0.2565777 -0.13505082 -0.02753124 -1.1396668 0.086422235
-0.039386827 -1.0230919 0.026855713 -1.2745647 -0.56616986 -1.2686057 0.021426823 -0.44728395
0.010209596 -0.62632805 -0.09449056 -1.0021044 -0.87093526 -0.058116317 -0.9788818 0.011381587
-0.15614468 -2.3431222 -0.10515405 -1.8949971 -1.8135898 -1.6192275 -1.4533507 -0.6906662
0.3437175 -1.5966009 -0.019128574 -0.08711867 -0.29624337 -2.960229 0.4259935 -0.045136068
-0.41903597 -0.7108661 0.035378706 -0.25236914 1.1621435 1.15114 -1.9582417 -0.9935716
-0.06860863 -0.7266069 -0.0520267 -2.7842607 0.08817266 -0.83639526 -0.024767356 -0.071973205
-0.2656334 -0.027575025 -2.3353086 -1.0284984 -0.52890605 0.82590574 0.7926088 0.032267205
0.025164474 -0.03282997 -0.9650912 -1.8631444 -1.8519144 -0.094044894 0.23050518 -0.76077014
-3.4170716 -0.11939286 -1.9315484 0.24612111 0.057627868 -0.44746122 1.3895805 -0.0015704691
0.054443073 -2.1106887 -1.422929 -0.99735874 0.5783059 0.053448748 0.21159506 -0.02509334
0.84244317 -0.6649415 0.6639246 0.08520609 -1.0773633 -0.032114863 -0.023622395 -1.0881563
-1.8268366 -0.45815763 -0.109487794 -1.1809186 -3.7415266 0.022462426 -1.9797504 -0.84967583
-0.04660591 0.048547722 -1.4629232 0.03530636 -1.0373064 -0.00031535325 0.9665251 0.1822468
0.4953777 -0.30246142 0.54757714 -1.0670341 0.08036921 -1.7159917 -0.18411824 -2.699164
-0.09062063 0.0519503 -0.022310814 -2.4427288 -0.009911137 -0.105221175 -0.13250285 -0.46376708
-3.2114372 -0.111299776 -0.01130822 -1.6033541 0.08166112 0.048078787 -0.11572989 -2.1554918
-0.062624834 -1.7426659 -0.03269547 -0.37761256 0.05369326 0.035963673 -3.180002 -0.53257746
0.5649877 0.20991457 0.049892638 -1.3534579 -1.3206365 -0.08071554 1.1839443 0.046920188

fc2.bias f4 [128]
00000000: 6877 3540 9d0f dabe 2ba2 08be 3d49 b7be
00000010: 428b 0f3f 5f82 f53f 9a00 d43f 3e4a 3040
00000020: e288 94be 6e1a d63e 64bc 3840 94fa 3240
00000030: dfe8 03bf ef73 3340 e5ca babe 93d5 df3f
00000040: 12c9 1bbf e822 5abe d5da 2bbe 345f 4140
00000050: 69d1 e23e 9659 c1be d9da aa3f 9f3d c13e
00000060: 284e 52be 0d42 023f 1395 3d40 6d3e 0ebf
00000070: 8323 80bf 530f ac3e 1347 f1be 956c a2be
00000080: b266 b0be be9b a9bd 562f b7be ae6e 3d40
00000090: 47d5 3f40 d1ab 3540 e641 37bf fd0e 1f40
000000a0: 26d2 fcbf 637f cb3f ad2f 89be e4aa fbbe
000000b0: 39b4 123e 8b1a cf3f bc81 3840 7fb0 39be
000000c0: 8b75 83bf 6ca4 163e a739 0abf 5efe 76be
000000d0: 0aef c6bd 3615 2f40 949a 1fbe e345 33be
000000e0: 54fb 33bf a02b a23f 0df6 b3be 6184 803f
000000f0: 0cb2 65bf 9b4a 2840 b5fb 3e40 9c13 c43e
00000100: c2a4 87bc 5b6a 95bd b8d9 5bbe d0b2 e9bc
00000110: 3c98 00be dbd2 2f40 4136 e1be b373 92be
00000120: f433 b33f eda7 bebe 23cf 2740 f050 943e
00000130: 36ec 2540 7c9d 873d a3f5 05bf 980f 403f
00000140: 19e1 6abe cfa7 d0be 87b8 28be fe5a 01be
00000150: 6a73 90bf c6de c3bd 8453 50bf 880b 1cbe
00000160: 36c4 72be 42c2 0dbf 01b9 0240 1390 4fbe
00000170: cdb4 d7bf 5941 0040 2649 1bbe 100c f1bd
00000180: 14e3 b8be c5db d53f 9d74 cfbd 36f0 9cbe
00000190: 8e7d 3fbe 3f44 06be 4e5f 78bd 9d38 3a40
000001a0: 057a 0040 97f5 333f 47b9 f33d 3f79 cebf
000001b0: 4019 8abe 9f84 9ebd 3450 9fbe 91c8 e7be
000001c0: f069 8a3e dd1d 2a40 b271 2740 08a1 c8be
000001d0: 20eb 0040 a93e a2bc 77b2 63bf 1e91 3b40
000001e0: 353a 83be d34c ecbe c8c6 b4bd c72d 2240
000001f0: 4a66 4240 5449 3b40 1aaf 3540 f3f2 00be
2.835413 -0.42590037 -0.13343112 -0.35798064 0.56071866 1.9180411 1.6562684 2.7545314
-0.29010683 0.4181704 2.8864985 2.796544 -0.5152721 2.803951 -0.3648292 1.7487053
-0.60853684 -0.21302378 -0.16782697 3.0214357 0.44300392 -0.3776366 1.3348037 0.37742326
-0.20537627 0.50882035 2.9622238 -0.55564004 -1.0010837 0.3360544 -0.47124538 -0.31723467
-0.3445335 -0.082816586 -0.35778302 2.9598804 2.9973924 2.8386118 -0.7158493 2.4852898
-1.9751632 1.589825 -0.26794186 -0.49153817 0.14326562 1.6179975 2.8829184 -0.18133734
-1.0270246 0.1471116 -0.5399422 -0.24120471 -0.09713562 2.7356696 -0.1558631 -0.17507128
-0.7030537 1.2669563 -0.3514866 1.0040399 -0.897248 2.6295536 2.984113 0.3829621
-0.016558055 -0.07295676 -0.21469772 -0.028527647 -0.12558073 2.7472446 -0.43986705 -0.28603896
1.400023 -0.37237492 2.6220176 0.28968 2.5925422 0.06621835 -0.52327937 0.75023794
-0.2293743 -0.40753028 -0.16476642 -0.12632367 -1.1285222 -0.09563975 -0.81377435 -0.15238774
-0.23707661 -0.5537454 2.0425417 -0.20269804 -1.6852051 2.0039885 -0.15164623 -0.11769879
-0.36110747 1.6707693 -0.10129664 -0.30652016 -0.18700239 -0.13111971 -0.060637765 2.9097054
2.0074475 0.70296615 0.11900573 -1.6130751 -0.2697239 -0.07740139 -0.31115878 -0.45270208
0.2703395 2.6580727 2.6163144 -0.39185357 2.014351 -0.01980527 -0.8894419 2.9307323
-0.25630346 -0.46152362 -0.08826977 2.534044 3.0374932 2.9263506 2.8388124 -0.12592678

fc3.weight f4 [1, 128]
00000000: ea99 123f 89b1 75c0 9ea2 a2bb 3908 f5bf
00000010: fe05 3140 e991 923f f971 2f3f bec8 d63e
00000020: 1110 2ec0 f6f6 813f 6ec5 303f 0719 163f
00000030: 0c99 21c0 3f3f 0b3f 2887 2ac0 0377 a93f
00000040: 8230 e9bf 7a0b 7bbf 706b e53c 7e1e 393f
00000050: 44f7 243f 166d b2bf 1bb5 673e ceab 3c3e
00000060: 7f7c ec3f 73ef 2140 f285 2b3f 6dec b4bf
00000070: 8699 d4bf 8287 e63f 41dd 33c0 3cbb 70c0
00000080: 1497 3cbf 6df2 b63c 8e04 d9bf 5eba e23e
00000090: 4d29 163f 36c3 173f f998 c4bf 82a4 6e3f
000000a0: 4b70 e6bf ea5e 293f d10e 61bf 3bd8 6cc0
000000b0: 6856 abc0 aea5 da3e 9f30 233f f4c5 e2bb
000000c0: 7d1a 47c0 0763 35c0 ac60 a4bf d87b b5bf
000000d0: 9d7f 1abc bf1d 463f f04c c1bf 9bd8 0e3c
000000e0: f88d e5bf 5c46 b23f a699 26bf a8e2 b43f
000000f0: eda5 15c0 cd0a 4a3e 1967 1f3f 4adc 3f3f
00000100: 9321 d1bf 8b89 69c0 d00c 813c 2ccf 9cba
00000110: 4ed1 57bc 1e2f b73e fde4 35c0 2047 33c0
00000120: ce62 ce3e 37c8 46c0 b167 d23e bc2b 20c0
00000130: 9da3 043f 768e 4fc0 882f 30c0 4307 e7bf
00000140: 8a75 a5bf 224f 14c0 e119 29bb 3b30 a6bc
00000150: e1fa 01c0 0037 ef3c c86a 873f 97ee 5cc0
00000160: 7de3 0dc0 926b c5bf da2d bc3e 0c5b 1ec0
00000170: 711e 40c0 6afa a33e 2db2 4b3c 9357 2a3c
00000180: 1ac5 a3bf 5418 a23f 2715 eabb c207 bcc0
00000190: 7d11 ac3c 3a25 78bc c371 d03f f09b 3b3f
000001a0: 7de2 063f 9704 0640 f980 39c0 6a6f 78c0
000001b0: d887 79bf fb42 763c 5839 ca3d 41dd d5bf
000001c0: ca2c 53c0 f4ee 3e3f 6e34 113f ad75 b8bf
000001d0: 2224 963f 5043 03bf 1c47 e0bf 569d 3f3f
000001e0: 4cc8 3ec0 46fb 3dc0 6e86 91bf e0ad 2a3f
000001f0: 944d 1c3f 551b 1f3f e06a 3a3f aaee b8bc
0.57266104 -3.838961 -0.004963233 -1.9143134 2.7659907 1.1450778 0.68533283 0.4195003
-2.7197306 1.0153491 0.69051254 0.5863194 -2.5249662 0.5439338 -2.6644993 1.3239444
-1.8217928 -0.98064387 0.028005332 0.7231215 0.644398 -1.393954 0.2262768 0.18424913
1.8475493 2.5302398 0.6700126 -1.4134651 -1.6609352 1.8010104 -2.8103793 -3.7614279
-0.73668027 0.022332394 -1.6954515 0.44282812 0.5865677 0.59282243 -1.5359184 0.9321977
-1.8003019 0.6616045 -0.87913233 -3.7006977 -5.3542976 0.4270453 0.63746065 -0.0069205705
-3.1109917 -2.8341691 -1.2842002 -1.4178419 -0.009429839 0.7738914 -1.5101604 0.008718635
-1.793395 1.3927722 -0.650782 1.413167 -2.3382523 0.19730683 0.6226669 0.7494551
-1.6338371 -3.64902 0.01575318 -0.0011963597 -0.013172461 0.35778135 -2.8421013 -2.8012161
0.40309757 -3.1059701 0.41094735 -2.5026693 0.51812154 -3.2430701 -2.752901 -1.8049091
-1.2926495 -2.31733 -0.0025802779 -0.02028667 -2.0309374 0.02920103 1.0579462 -3.4520624
-2.2170098 -1.5423453 0.36753732 -2.474307 -3.001858 0.32026988 0.012432617 0.010396856
-1.2794526 1.2663674 -0.007143635 -5.875947 0.021004433 -0.015145594 1.6284717 0.73284817
0.52689344 2.0940301 -2.8984969 -3.8818002 -0.97472906 0.015030618 0.09874219 -1.6708146
-3.2996087 0.74583364 0.56720626 -1.4410912 1.1729777 -0.51274586 -1.7521701 0.7484945
-2.9809752 -2.9684615 -1.136915 0.6667156 0.61055875 0.6215108 0.7281933 -0.022574741
