HW2/preTrained/CartPole_baseline.pth (torch, 6439 bytes, 5 tensors)

shared_layer.weight f4 [128, 4]
0.24095601 -0.1107383 0.4428589 0.46875596 0.18044119 0.0016882482 0.3158103 0.5509254
-0.078376114 0.14748642 0.18436757 0.4070463 0.013988085 0.2206247 0.8612334 0.35165313
-0.12142125 -0.13952604 -0.44295222 -0.44745988 -0.19946934 -0.1532151 -0.35516608 -0.13549155
-0.0013483794 -0.20717926 -0.68545705 -0.41199258 -0.5652189 -0.12728468 -0.022544842 -0.18743503
-0.04234698 -0.03847587 0.43056148 0.368347 0.11557378 0.09295485 0.57777154 0.39864528
-0.37013936 -0.3577666 -0.13722445 -0.30400723 0.21196964 0.33582002 1.1255802 0.40340456
-0.77168185 -0.21327776 -0.27815947 -0.06951611 0.0010020104 0.26084015 0.047449093 0.22524564
0.357982 -0.053186268 0.2065998 0.47606015 -0.5139473 -0.055415954 -0.24727279 -0.03893336
0.23597352 0.36693147 1.3737807 0.43209827 0.029447116 -0.29568234 -0.667779 -0.32756963
-0.10337147 -0.15368722 -0.72844523 -0.35723785 0.35980773 -0.061901502 0.6069695 0.5770086
0.13652585 0.6158549 1.0745411 0.1930409 0.24591479 0.084745504 0.44999456 0.5665612
0.16665615 0.016646938 0.4748735 0.38888767 0.16313873 -0.068229385 0.3845332 0.5082811
0.14991397 0.4154537 0.9412764 0.473516 -0.25057766 -0.064126335 -0.10251096 -0.16894822
0.09438347 -0.082187116 0.22800004 0.39638674 -0.099883705 0.043910973 0.061157417 0.00914414
-0.1864541 -0.027188472 0.09339587 -0.03309095 -0.036583744 0.09978914 0.2641009 0.06792002
-0.72848713 -0.11878941 -0.28508854 -0.015358896 -0.16816449 -0.1423545 -0.67919207 -0.3457099
0.32474992 -0.08301561 0.47370467 0.58765215 -0.103994586 -0.17489852 -0.70793396 -0.35431185
0.04495973 0.35056037 0.8954891 0.42353663 -0.91491795 -0.7221542 -0.81811696 -0.11409858
-0.2217019 0.09799492 0.63718146 0.097276665 0.4537388 0.089175045 -0.0467529 0.32386446
-0.20158048 0.07774403 -0.60486656 -0.37398493 0.015970975 0.004679531 0.51303035 0.45523626
-0.047999475 0.02770272 0.5757695 0.026926503 -0.13712756 -0.013325921 -0.42991617 -0.20908527
0.026201831 -0.118269466 -0.07111557 -0.032889847 0.059262514 0.4943186 0.86388916 0.44246855
0.18366015 0.015537668 0.55285496 0.4183305 -0.0010223787 -0.13126978 -0.86444175 -0.36200595
0.27839103 0.118502505 0.8344217 0.13458756 -0.056320474 -0.37794307 -0.45580018 -0.23748796
0.04762925 0.44969112 1.3404032 0.3235853 -0.027125767 -0.038103655 0.046908785 -0.05915284
0.06719251 -0.06314841 0.18249664 0.4328116 0.0014564889 0.24677387 1.1233792 0.36733928
-0.17610063 0.097557716 0.2832338 0.31484208 0.26692277 -0.030700564 0.50995135 0.5040231
-0.11982002 0.02868043 -0.8561914 -0.099360734 0.08575832 0.010722948 -0.34980842 -0.20039546
0.25843474 -0.093162514 0.6385461 0.38589498 0.08539255 -0.061713114 0.6478085 0.3437932
-0.13792723 -0.1270504 -0.88336533 -0.32582837 -0.036167443 0.027410816 -0.5379286 -0.36275688
0.15284264 -0.019061953 0.680095 0.12054437 -0.06386764 0.017321566 0.6658383 0.47375742
-0.09029676 0.057760745 -0.01774738 0.05827035 -0.14623477 0.09332119 0.5487419 0.7149333
00000000: 2cbd 763e c3ca e2bd 67be e23e c800 f03e
00000010: 93c5 383e 3648 dd3a e3b1 a13e 7209 0d3f
00000020: a883 a0bd ae06 173e daca 3c3e 5f68 d03e
00000030: 482e 653c 71eb 613e cb79 5c3f e10b b43e
00000040: b4ab f8bd eadf 0ebe a2ca e2be 7619 e5be
00000050: b141 4cbe 6be4 1cbe 54d8 b5be 4cbe 0abe
00000060: 1bbc b0ba cd26 54be 1d7a 2fbf b1f0 d2be
00000070: 30b2 10bf ea56 02be f6af b8bc f8ee 3fbe
00000080: 0774 2dbd e098 1dbd 8e72 dc3e fa97 bc3e
00000090: f2b1 ec3d 1d5f be3d d6e8 133f 3c1b cc3e
000000a0: e882 bdbe 2f2d b7be 9184 0cbe d6a6 9bbe
000000b0: 920e 593e 9af0 ab3e 0313 903f 0b8b ce3e
000000c0: f18c 45bf 7c65 5abe eb6a 8ebe 765e 8ebd
000000d0: e455 833a d78c 853e fb59 423d cba6 663e
000000e0: 6b49 b73e d8d9 59bd e68e 533e 28be f33e
000000f0: 0d92 03bf d7fb 62bd 1435 7dbe 9678 1fbd
00000100: 0ba3 713e 71de bb3e 0cd8 af3f fc3b dd3e
00000110: 143b f13c ad63 97be 91f3 2abf 35b7 a7be
00000120: 6cb4 d3bd 2f60 1dbe 637b 3abf e1e7 b6be
00000130: b838 b83e 6e8c 7dbd 5a62 1b3f d6b6 133f
00000140: 6fcd 0b3e aba8 1d3f 908a 893f 84ac 453e
00000150: 16d1 7b3e 0d8f ad3d b065 e63e 280a 113f
00000160: e9a7 2a3e 295f 883c 9f22 f33e 491c c73e
00000170: d70d 273e d9bb 8bbd 89e1 c43e b61e 023f
00000180: 0c83 193e 59b6 d43e 7df7 703f b070 f23e
00000190: b74b 80be ab54 83bd 44f1 d1bd c300 2dbe
000001a0: 1f4c c13d b851 a8bd d878 693e 34f3 ca3e
000001b0: d48f ccbd fedb 333d 3380 7a3d 4ed1 153c
000001c0: d3ed 3ebe 5cba debc 5546 bf3d 608a 07bd
000001d0: d6d8 15bd 405e cc3d 3c38 873e a719 8b3d
000001e0: 227e 3abf dd47 f3bd 20f7 91be e1a3 7bbc
000001f0: 5033 2cbe 61c5 11be 88df 2dbf e300 b1be
00000200: 9f45 a63e 1704 aabd 6b89 f23e 5f70 163f
00000210: 1dfb d4bd 9918 33be 293b 35bf 5d68 b5be
00000220: b227 383d a67c b33e c63e 653f cbd9 d83e
00000230: 1038 6abf 19df 38bf 1d70 51bf 84ac e9bd
00000240: d305 63be 90b1 c83d 531e 233f fd38 c73d
00000250: 7450 e83e 68a1 b63d f87f 3fbd 90d1 a53e
00000260: 1d6b 4ebe 4338 9f3d 89d8 1abf f47a bfbe
00000270: 90d5 823c c056 993b f555 033f ba14 e93e
00000280: 199b 44bd d1f0 e23c a165 133f f894 dc3c
00000290: 2b6b 0cbe f754 5abc f91d dcbe 731a 56be
000002a0: 39a5 d63c 4337 f2bd 0aa5 91bd 81b7 06bd
000002b0: 40bd 723d 5417 fd3e d727 5d3f 3d8b e23e
000002c0: 6811 3c3e b491 7e3c e787 0d3f 6a2f d63e
000002d0: 5601 86ba 966b 06be 0e4c 5dbf d858 b9be
000002e0: 4589 8e3e 71b1 f23d a99c 553f 52d1 093e
000002f0: 4cb0 66bd c181 c1be a45e e9be 0b30 73be
00000300: e316 433d ea3d e63e 5592 ab3f f9ac a53e
00000310: db36 debc 9412 1cbd 6d23 403d 404a 72bd
00000320: 3a9c 893d f453 81bd 66e0 3a3e 7b99 dd3e
00000330: a8e7 be3a 4ab2 7c3e e4ca 8f3f e513 bc3e
00000340: b953 34be 57cc c73d 0504 913e fb32 a13e
00000350: 1aaa 883e c07f fbbc 2c8c 023f a807 013f
00000360: 3364 f5bd 39f3 ea3c 5c2f 5bbf a47d cbbd
00000370: 0fa2 af3d 4eaf 2f3c 171a b3be 7834 4dbe
00000380: 8f51 843e fdcb bebd c277 233f 0794 c53e
00000390: 4ae2 ae3d e4c6 7cbd c7d6 253f aa05 b03e
000003a0: cc3c 0dbe 8019 02be 3b24 62bf fad2 a6be
000003b0: 5024 14bd a68c e03c b0b5 09bf 45bb b9be
000003c0: c882 1c3e d027 9cbc b51a 2e3f f7df f63d
000003d0: 0acd 82bd f5e5 8d3c 6174 2a3f 5590 f23e
000003e0: 82ed b8bd 8896 6c3d f462 91bc e4ac 6e3d
000003f0: 91be 15be 2e1f bf3d 597a 0c3f de05 373f

shared_layer.bias f4 [128]
0.06399471 -0.0009525195 -0.06213878 0.18125015 0.03121887 -0.11382094 0.08640922 -0.01296918
-0.06844349 0.13325337 0.10284556 0.17578691 0.095296174 -0.1375344 0.16264458 -0.02792571
0.31563348 0.03267102 0.07134608 0.051388312 0.16321082 0.019244347 0.07182787 -0.012093697
0.18615007 -0.107531816 -0.00965796 -0.15497111 -0.12273717 -0.080855794 0.06948033 0.07308798
0.12852202 0.06638201 0.19160432 0.27069914 -0.03596319 0.17941916 -0.02758318 -0.019242894
-0.1558982 -0.15247819 -0.11838319 0.15311891 -0.00030974904 0.07198716 0.0871326 0.011916948
0.11954269 -0.085961424 -0.028131852 0.19669995 -0.09044114 0.085936315 -0.10437805 -0.15944213
0.065326236 0.0032534285 0.052162193 -0.039598312 -0.07791153 0.0046625705 -0.072529994 -0.015166914
-0.061387587 0.016127579 -0.1530453 0.17530183 -0.0062962775 0.07532833 -0.12906328 -0.19266197
-0.23481399 -0.03581215 0.050210338 -0.123040386 0.028783098 -0.1301167 0.11975299 -0.15217388
-0.038891394 0.21219873 -0.021252314 0.24345224 -0.1628921 0.119617306 0.029157123 0.012606416
-0.040291626 -0.10276068 -0.0972681 -0.18506539 -0.22081769 0.20381665 -0.0863771 0.19366166
-0.029268911 -0.0989385 0.102415845 -0.1281483 0.05198598 0.1088326 -0.040442236 0.068046436
-0.14263092 -0.072862536 -0.02322374 0.010249581 -0.06247032 0.098126225 -0.03451395 0.051985472
-0.0958063 0.05924153 0.014584723 0.13496833 0.035406094 -0.01083127 -0.034795776 -0.10990198
0.054336745 -0.01788123 0.10607089 0.09268806 0.08402926 -0.19628142 0.1471145 -0.10297109
00000000: a90f 833d 80b2 79ba 3c85 7ebd a499 393e
00000010: b7be ff3c f41a e9bd 51f7 b03d af7c 54bc
00000020: 1a2c 8cbd 9273 083e b1a0 d23d 7c01 343e
00000030: a42a c33d d1d5 0cbe 4d8c 263e 75c4 e4bc
00000040: b69a a13e 0cd2 053d e51d 923d 8d7c 523d
00000050: bd20 273e 52a6 9d3c 7e1a 933d a424 46bc
00000060: 209e 3e3e a439 dcbd 6c3c 1ebc bfb0 1ebe
00000070: a05d fbbd b997 a5bd b44b 8e3d 27af 953d
00000080: 479b 033e 4bf3 873d ec33 443e 1499 8a3e
00000090: 234e 13bd a8b9 373e 1ff6 e1bc 46a3 9dbc
000000a0: c7a3 1fbe 3e23 1cbe e372 f2bd 34cb 1c3e
000000b0: d065 a2b9 016e 933d 9472 b23d 4d3f 433c
000000c0: ccd2 f43d 8b0c b0bd c574 e6bc b66b 493e
000000d0: 3439 b9bd 61ff af3d 29c4 d5bd cc44 23be
000000e0: c3c9 853d 7937 553b 06a8 553d d731 22bd
000000f0: 1590 9fbd 7ac8 983b 9b8a 94bd a67e 78bc
00000100: 8d71 7bbd fc1d 843c e8b7 1cbe 5382 333e
00000110: 0151 cebb bd45 9a3d 2a29 04be 2e49 45be
00000120: 1473 70be c3af 12bd 5ba9 4d3d 99fc fbbd
00000130: 88ca eb3c 503d 05be 0e41 f53d 78d3 1bbe
00000140: 954c 1fbd a04a 593e 5519 aebc 8b4b 793e
00000150: 30cd 26be ebf9 f43d ebda ee3c 248b 4e3c
00000160: d508 25bd 3174 d2bd 7f34 c7bd c881 3dbe
00000170: 081e 62be 50b5 503e 7ae6 b0bd 3e4f 463e
00000180: 5bc5 efbc 45a0 cabd 66bf d13d 4f39 03be
00000190: 40ef 543d a0e3 de3d c2a6 25bd ee5b 8b3d
000001a0: d70d 12be f438 95bd b63f bebc dced 273c
000001b0: e1e0 7fbd 67f6 c83d 805e 0dbd b8ee 543d
000001c0: 1836 c4bd 3fa7 723d c3f4 6e3c 2335 0a3e
000001d0: fb05 113d a475 31bc 0486 0ebd 4a14 e1bd
000001e0: 3590 5e3d a87b 92bc b23b d93d 3dd3 bd3d
000001f0: 8817 ac3d fffd 48be 2fa5 163e 82e2 d2bd

action_layer.weight f4 [2, 128]
-0.28361055 -0.37403962 -0.24372785 -0.42506054 0.26454577 -0.15450235 0.33439142 0.12004439
-0.25088313 -0.35295898 0.3049377 -0.18373002 0.1323034 -0.03291333 -0.26784483 0.21653803
-0.6828328 0.019878661 0.36862907 -0.47736636 -0.17461063 -0.45290157 -0.4119789 -0.053984582
-0.26449412 -0.14899282 -0.37568012 0.05435338 -0.0032095576 -0.099969 0.10496914 0.28131062
-0.42276266 0.3692846 -0.4225998 0.4390599 -0.05845055 -0.32655227 0.078969404 -0.44752535
0.020510757 0.13068277 0.0048273625 -0.4227458 -0.4164389 0.15663947 -0.23193242 0.2797341
-0.26797518 0.21145453 -0.036406882 -0.32087836 -0.25215653 -0.4019371 0.06743921 0.0959798
-0.25012589 -0.44200903 0.27954236 0.037018172 0.08689575 -0.3470918 -0.16501603 -0.43858278
0.0150830755 0.18407492 0.11561787 -0.30421114 -0.15946192 -0.4280898 -0.1421118 0.012154917
0.17176242 -0.11604239 -0.06977458 0.21903853 -0.06461528 -0.09666387 0.2661461 0.014517917
0.13310032 -0.40255776 0.22661729 -0.34340423 0.23369083 0.22770515 0.2460161 -0.5694712
-0.1489949 -0.08024595 -0.024267357 -0.046788137 0.029866537 0.5242512 0.18020421 -0.4809981
0.3029141 0.15915495 -0.4663267 0.01585303 0.07714954 0.26114428 -0.006889799 0.3145149
0.14172767 0.07571279 0.030895611 -0.05739341 -0.24042392 -0.20439112 -0.027720122 -0.2508052
-0.027246209 0.3184122 -0.188799 0.4527247 0.13009 -0.24952444 0.060014218 0.13237897
0.36088297 -0.25201103 0.3722191 0.20952922 0.32338926 0.15620661 -0.17175126 -0.40732494
0.2498238 0.40147635 0.01022349 0.27276862 -0.083222754 -0.14751631 -0.20698227 -0.20090812
0.17684597 0.31493273 -0.024484782 0.4253476 -0.32019025 0.114426754 0.4601039 -0.23725978
0.6280889 -0.2791717 -0.26071045 0.35703236 0.42994055 0.50775945 -0.008133149 0.34965777
0.26790556 -0.14803372 0.20422627 -0.018798804 -0.03210474 -0.07873452 -0.18572211 -0.40803012
0.21756127 -0.0013981911 0.29671413 -0.67902625 -0.08693248 0.3601931 -0.22276495 0.4131004
0.20552 0.07836207 -0.000871639 0.40128973 0.48513657 -0.30716905 0.18645206 -0.09843508
0.4023867 0.177166 0.27626532 0.53814703 0.022929315 0.25068322 -0.19969717 0.037493214
0.40872425 0.3841389 -0.28415963 -0.121070884 0.13782033 0.31568414 -0.18952718 0.5140688
0.10819017 -0.10512244 0.13662851 0.16730143 0.48530963 0.4307149 0.18272674 -0.16512434
-0.0724672 0.12002302 0.17371857 -0.04714257 0.25084686 0.011768329 -0.39319953 0.09604187
0.021831596 0.41224378 0.1654505 0.59882355 0.08811013 -0.09266398 -0.20587738 0.38809097
0.14239936 -0.06837131 -0.10402498 -0.1798403 -0.16248688 -0.4877112 0.13158351 0.41272193
-0.06456975 0.1324307 0.12670176 0.021972826 -0.33891168 -0.40929377 -0.07583486 -0.28371623
0.03754834 0.051924326 0.16927023 0.4135126 0.22054328 0.40212673 -0.01011746 0.35817808
-0.0012151874 -0.39862728 0.46916306 -0.46020317 -0.28286663 0.43509755 0.06404765 0.020725207
-0.29674646 0.58523345 -0.35941374 -0.22380438 -0.31812966 0.08008482 0.13156101 0.105632804
00000000: 6735 91be 1f82 bfbe cb93 79be 89a1 d9be
00000010: 8b72 873e dd35 1ebe 5a35 ab3e d5d9 f53d
00000020: c173 80be 0ab7 b4be cb20 9c3e b923 3cbe
00000030: 8b7a 073e 21d0 06bd f522 89be 25bc 5d3e
00000040: 21ce 2ebf 93d8 a23c f3bc bc3e 5d69 f4be
00000050: 21cd 32be b7e2 e7be e6ee d2be f01e 5dbd
00000060: c66b 87be 9391 18be 2559 c0be a6a1 5e3d
00000070: 7157 52bb 8cbc ccbd 0ffa d63d f207 903e
00000080: 5974 d8be df12 bd3e 005f d8be 76cc e03e
00000090: d869 6fbd dc31 a7be b6ba a13d 0b22 e5be
000000a0: 2d06 a83c b4d1 053e da2e 9e3b 2372 d8be
000000b0: 7b37 d5be 1966 203e b17f 6dbe 4f39 8f3e
000000c0: 0b34 89be 8987 583e 621f 15bd 2b4a a4be
000000d0: a91a 81be b3ca cdbe 921d 8a3d 0f91 c43d
000000e0: 8010 80be 024f e2be 2d20 8f3e 5ea0 173d
000000f0: 66f6 b13d 04b6 b1be f6f9 28be ec8d e0be
00000100: 011f 773c 237e 3c3e 10c9 ec3d 90c1 9bbe
00000110: fc49 23be 962e dbbe c185 11be 6b25 473c
00000120: 7de2 2f3e a2a7 edbd fae5 8ebd a34b 603e
00000130: 0455 84bd b5f7 c5bd 4d44 883e 8fdc 6d3c
00000140: 734b 083e 0d1c cebe 5d0e 683e aed2 afbe
00000150: a64c 6f3e 8a2b 693e a5eb 7b3e ddc8 11bf
00000160: 1e92 18be fd57 a4bd 56cc c6bc eba4 3fbd
00000170: abaa f43c 5435 063f 7487 383e 6245 f6be
00000180: 8f17 9b3e 84f9 223e 60c2 eebe 37de 813c
00000190: 9400 9e3d b4b4 853e d3c3 e1bb 1908 a13e
000001a0: 0f21 113e 4f0f 9b3d cb18 fd3c 5a15 6bbd
000001b0: b031 76be e84b 51be 4f15 e3bc 8a69 80be
000001c0: 7133 dfbc ed06 a33e 8654 41be 88cb e73e
000001d0: 5036 053e 5683 7fbe 78d1 753d 5a8e 073e
000001e0: a7c5 b83e 9707 81be 8093 be3e d48e 563e
000001f0: 4793 a53e a0f4 1f3e 90df 2fbe e58c d0be
00000200: cfd1 7f3e 4f8e cd3e 6d80 273c 54a8 8b3e
00000210: b170 aabd 840e 17be 29f3 53be dcba 4dbe
00000220: 1c17 353e dd3e a13e 4f94 c8bc 29c7 d93e
00000230: faef a3be 9358 ea3d bd92 eb3e 3af4 72be
00000240: 6fca 203f 98ef 8ebe d77b 85be f2cc b63e
00000250: 2b21 dc3e 86fc 013f e640 05bc 5806 b33e
00000260: eb2a 893e 2796 17be b120 513e f3ff 99bc
00000270: 4380 03bd 903f a1bd f02d 3ebe 53e9 d0be
00000280: 62c8 5e3e 8243 b7ba eaea 973e aad4 2dbf
00000290: a809 b2bd 3b6b b83e 7f1c 64be e581 d33e
000002a0: d673 523e 4b7c a03d b47e 64ba d975 cd3e
000002b0: d263 f83e 4345 9dbe 4aed 3e3e 5598 c9bd
000002c0: a105 ce3e 016b 353e a672 8d3e 01c4 093f
000002d0: 42d6 bb3c 8d59 803e 6a7d 4cbe 7c92 193d
000002e0: 4e44 d13e dbad c43e 5f7d 91be 03f4 f7bd
000002f0: c620 0d3e 5aa1 a13e 6a13 42be 039a 033f
00000300: cf92 dd3d 6f4a d7bd 58e8 0b3e 1151 2b3e
00000310: 817a f83e aa86 dc3e b81c 3b3e 5b16 29be
00000320: af69 94bd a1ce f53d 48e3 313e 9118 41bd
00000330: 006f 803e f3cf 403c 7351 c9be 9ab1 c43d
00000340: 2dd8 b23c 9e11 d33e db6b 293e 804c 193f
00000350: 1573 b43d 9dc6 bdbd 85d1 52be dcb3 c63e
00000360: 23d1 113e 4206 8cbd 0c0b d5bd 0e28 38be
00000370: f662 26be 48b5 f9be d4bd 063e 4a50 d33e
00000380: 253d 84bd ea9b 073e 1bbe 013e 5b00 b43c
00000390: d585 adbe f48e d1be 4f4f 9bbd 4143 91be
000003a0: 4acc 193d 9aae 543d 2d55 2d3e ecb7 d33e
000003b0: 19d6 613e 8ee3 cd3e b4c3 25bc 1e63 b73e
000003c0: ec46 9fba e018 ccbe 2436 f03e c09f ebbe
000003d0: e5d3 90be 1bc5 de3e 6a2b 833d e9c7 a93c
000003e0: 27ef 97be dcd1 153f 1405 b8be fa2c 65be
000003f0: e4e1 a2be 8303 a43d eeb7 063e 0356 d83d

action_layer.bias f4 [2]
0.00825863 0.01174135
00000000: 344f 073c cb5e 403c

value_layer.weight f4 [1, 128]
-0.21431619 0.17075932 0.063599825 0.09063941 -0.15565273 -0.14225516 -0.06626105 0.09624803
-0.03473082 0.034553617 0.20021605 -0.07686894 0.05538416 0.07902247 -0.053383738 -0.11999262
0.12646812 -0.14904734 0.19853085 0.003580466 0.09051612 -0.11016759 -0.088248074 0.053536415
-0.1417098 0.046946973 -0.11236405 -0.0073833317 0.04124424 0.019647017 0.06704593 -0.007944211
-0.18893844 0.10934678 -0.089956075 -0.17775851 0.15827206 0.18719977 0.070938796 -0.0054593235
-0.0533704 -0.09601823 0.022168756 -0.12666985 0.17568347 0.07069367 -0.13493374 0.118622035
-0.07818173 0.1034013 0.06410122 0.11478883 0.09989518 0.18345118 0.03496039 -0.06661238
-0.07162097 -0.083867475 -0.07258144 -0.119341046 -0.14936109 0.16458815 0.010166481 0.17265606
0.20998597 0.16263467 0.13691878 -0.099497296 -0.02543363 0.055140227 -0.1820899 0.12982658
0.04512024 -0.15221421 0.001921311 0.08919674 0.15632063 0.17574516 -0.014574185 -0.025978044
0.17208639 -0.084440544 -0.044245273 -0.035152763 0.041270763 0.0048247874 0.1337412 0.04466319
0.053588033 -0.049298808 0.1993027 0.000113382936 -0.21054325 0.03887263 0.10927045 -0.033267826
-0.19940516 0.021931678 0.18086672 0.06718388 0.04782906 -0.21293871 0.005869925 -0.13971299
0.18767458 -0.21124305 0.07404679 -0.1451802 0.12781635 -0.12637025 0.038594007 0.20316488
0.099205285 0.07235217 0.20976391 -0.007924572 -0.16473255 -0.11607745 0.12724787 -0.20307364
0.021809638 0.0029764771 -0.14196765 -0.040034965 -0.14610845 -0.0883939 -0.15903251 0.1290524
00000000: b475 5bbe 88db 2e3e a040 823d 28a1 b93d
00000010: 6e63 1fbe 56ab 11be e0b3 87bd b01d c53d
00000020: e841 0ebd 1888 0d3d 7005 4d3e 766d 9dbd
00000030: 80da 623d 88d6 a13d e8a8 5abd b1be f5bd
00000040: dc80 013e de9f 18be ac4b 4b3e 40a6 6a3b
00000050: 8460 b93d 8c9f e1bd 68bb b4bd 0049 5b3d
00000060: 601c 11be 784b 403d 1f1f e6bd e0ef f1bb
00000070: b8ef 283d c8f2 a03c 604f 893d 7028 02bc
00000080: 1479 41be 34f1 df3d e43a b8bd 5406 36be
00000090: 1212 223e 4cb1 3f3e 5c48 913d 20e4 b2bb
000000a0: ec9a 5abd 35a5 c4bd 409b b53c beb5 01be
000000b0: 5ee6 333e d8c7 903d 122c 0abe 1cf0 f23d
000000c0: be1d a0bd 10c4 d33d 8047 833d 6816 eb3d
000000d0: d895 cc3d a0da 3b3e a032 0f3d 126c 88bd
000000e0: 04ae 92bd b6c2 abbd 94a5 94bd 1469 f4bd
000000f0: 1df2 18be cc89 283e 5091 263c c0cc 303e
00000100: 9006 573e b489 263e 7034 0c3e 3dc5 cbbd
00000110: 305a d0bc b8da 613d c675 3abe 42f1 043e
00000120: 00d0 383d 0bde 1bbe 80d4 fb3a c8ac b63d
00000130: 8412 203e 8af6 333e 90c8 6ebc e8cf d4bc
00000140: 6a37 303e 2aef acbd 883a 35bd 58fc 0fbd
00000150: 880b 293d 4019 9e3b 74f3 083e c0f0 363d
00000160: 207f 5b3d 8ced 49bd 0216 4c3e 00c8 ed38
00000170: a698 57be e838 1f3d 30c9 df3d d843 08bd
00000180: de30 4cbe 10aa b33c 2035 393e b497 893d
00000190: 68e8 433d 9b0c 5abe 8058 c03b ec10 0fbe
000001a0: c42d 403e 1950 58be d8a5 973d 1eaa 14be
000001b0: 4ae2 023e 3467 01be c014 1e3d 740a 503e
000001c0: 242c cb3d 602d 943d 5acc 563e 10d6 01bc
000001d0: a6af 28be 04ba edbd 444d 023e 89f2 4fbe
000001e0: 20aa b23c 0011 433b f85f 11be b4fb 23bd
000001f0: 749d 15be dc07 b5bd 6bd9 22be 5026 043e
