HW2/preTrained/CartPole_0.01.pth (torch, 6407 bytes, 5 tensors)

shared_layer.weight f4 [128, 4]
1.0864414 1.1976175 0.5019232 -1.1741455 0.19990382 -0.41881302 -0.75879073 0.33098224
0.0032570795 0.07758812 -0.538458 0.26693833 0.030519094 -0.01854312 -0.72838145 -0.221897
-0.77102417 -0.3622559 -1.4689434 -0.98163515 -0.7411001 -0.5305138 -2.1404517 -1.2963681
0.07538744 0.41490063 -0.37357277 -0.17683262 0.171935 0.5218265 -0.5264901 -0.77791584
0.21793288 -0.090467736 -0.4409317 0.24070187 0.25420564 0.21692923 -0.44057018 0.047384713
0.014409468 -0.36278784 -0.61662465 -0.3661247 1.1615165 0.660021 -0.28885764 -0.25108978
-0.057909843 -0.06589361 -0.8383541 -0.15028591 0.10091915 0.066191696 -0.509213 0.22287896
0.8845523 0.48344314 -0.12495516 0.014199075 -1.3453083 -0.19987263 -1.5525934 -0.94274414
0.16733293 -0.4763526 -0.65120673 0.095975496 1.727777 -0.053599425 -1.9789845 -0.60967374
0.28284803 0.025146827 -0.8454258 -0.4547187 0.2842249 -0.32771155 -0.36796138 0.34195343
0.25164142 0.561418 -0.58188856 -0.64376587 1.4339981 0.76902187 -0.1418352 -0.6589227
1.20326 1.1140742 0.46442217 -1.0829625 0.31301352 0.37544054 -0.5672927 -0.40180615
-0.5218057 -0.340847 -1.8992807 -0.6324159 0.32992816 0.42803293 -0.48525584 -0.8194239
0.008856357 -0.0018213864 -0.20914352 0.06040439 0.06094576 0.4663872 -0.642113 -0.706673
0.23862574 0.5017147 -0.5417532 -0.829947 0.2615549 0.52034914 -0.6303846 -0.7883334
0.3677557 -0.061539598 -0.6193543 0.45391694 0.073007986 0.2053836 -0.92967415 -0.5420359
1.2903656 1.1035293 0.3569133 -1.0727056 0.29828775 0.27368554 -0.72420037 -0.7992137
-0.9884015 -0.6902261 -2.0453913 -1.5237247 -0.83622396 -0.559701 -2.017447 -1.3945618
0.182682 0.4972941 -0.43704724 -0.82896405 0.13120453 -0.3689922 -0.75477195 0.3235429
0.21042201 0.4900544 -0.71909285 -0.8089662 0.114836335 -0.013490454 -0.47188812 0.22392122
0.31047302 0.11694651 0.21830474 -0.027045364 0.517852 -0.043395203 -1.5802097 -0.31373483
0.34476373 -0.14126775 -0.36052337 0.27242425 -0.62021583 -0.13513519 -1.3849126 -0.26543772
0.12041024 -0.045585405 -0.5020893 0.099281 0.20224762 -0.46510443 -0.75631213 0.2435539
-0.4821857 -0.59567446 -1.8483168 -1.3691925 0.05383264 -0.43311068 -0.7204633 -0.3206397
-1.4279425 0.60594803 3.3055305 0.26401955 0.3740591 0.286662 -0.62227 -0.77823216
0.08319312 -0.036203913 -0.52807647 0.3210043 0.014237321 -0.078001454 -0.5022315 -0.048207976
0.10258096 0.12478466 -0.5770354 0.046701744 0.2045501 -0.45022187 -0.5395554 0.30114964
0.20106412 0.52936196 -0.97400475 -0.59375614 1.62412 1.1480039 0.49204525 0.06685593
1.1881032 0.5715092 -0.20011805 -0.21319085 2.0576837 0.35360387 -1.3439221 -0.37929454
-0.0015603994 2.2733896 3.3501937 0.56139344 -0.035105202 0.024712889 -0.074936196 -0.04023515
-0.007562222 1.70492 2.8131425 0.113771185 0.07386766 -0.012362539 -0.34443614 0.2579522
0.1983616 0.13138506 -0.8018625 -0.10553375 -0.015215633 0.08283808 -0.76068944 0.20919988
00000000: 8310 8b3f 884b 993f 0a7e 003f 664a 96bf
00000010: 96b3 4c3e a96e d6be 1c40 42bf 8176 a93e
00000020: ba74 553b 85e6 9e3d 62d8 09bf 24ac 883e
00000030: 2e03 fa3c bee7 97bc 3577 3abf f838 63be
00000040: d761 45bf 9b79 b9be 5606 bcbf 714c 7bbf
00000050: bcb8 3dbf c1cf 07bf 29fd 08c0 64ef a5bf
00000060: bb64 9a3d db6d d43e ee44 bfbe 9c13 35be
00000070: bb0f 303e 6c96 053f 0ec8 06bf 7e25 47bf
00000080: cc29 5f3e 2647 b9bd cdc1 e1be 8d7a 763e
00000090: 3e27 823e b222 5e3e 6a92 e1be 7916 423d
000000a0: b015 6c3c 54bf b9be 1ddb 1dbf b274 bbbe
000000b0: 93ac 943f 23f7 283f 26e5 93be d78e 80be
000000c0: df32 6dbd 3bf3 86bd 609e 56bf 8de4 19be
000000d0: b3ae ce3d 838f 873d c85b 02bf 623a 643e
000000e0: 0572 623f dc85 f73e 7ee8 ffbd 3da3 683c
000000f0: 1033 acbf 69ab 4cbe 61bb c6bf ae57 71bf
00000100: 5359 2b3e 7de4 f3be 7cb5 26bf cd8e c43d
00000110: cc27 dd3f 128b 5bbd 5d4f fdbf 9413 1cbf
00000120: 75d1 903e b800 ce3c d36d 58bf e4d0 e8be
00000130: ed85 913e cfc9 a7be 6f65 bcbe 8514 af3e
00000140: 25d7 803e 17b9 0f3f a6f6 14bf d7cd 24bf
00000150: 408d b73f 9ede 443f 3f3d 11be 28af 28bf
00000160: 6c04 9a3f fc99 8e3f bec8 ed3e 849e 8abf
00000170: 4f43 a03e be39 c03e 183a 11bf 89b9 cdbe
00000180: 0f95 05bf 7f83 aebe a11b f3bf 02e6 21bf
00000190: 58ec a83e 2227 db3e 7473 f8be c4c5 51bf
000001a0: 411a 113c 96bb eeba b829 56be 986a 773d
000001b0: 43a2 793d 4eca ee3e 8461 24bf 86e8 34bf
000001c0: 4e5a 743e 6070 003f 56b0 0abf 6877 54bf
000001d0: 86ea 853e 9a35 053f e360 21bf 38d0 49bf
000001e0: 7a4a bc3e f210 7cbd 018e 1ebf cd67 e83e
000001f0: 3685 953d 1450 523e 20ff 6dbf ddc2 0abf
00000200: b32a a53f 7340 8d3f 57bd b63e 6b4e 89bf
00000210: 2cb9 983e 8320 8c3e 3265 39bf 4599 4cbf
00000220: e107 7dbf a8b2 30bf b1e7 02c0 6909 c3bf
00000230: c612 56bf 9148 0fbf da1d 01c0 0081 b2bf
00000240: fd10 3b3e 559d fe3e a8c4 dfbe fd36 54bf
00000250: 7b5a 063e 8cec bcbe bc38 41bf 6aa7 a53e
00000260: de78 573e 69e8 fa3e 7816 38bf 6918 4fbf
00000270: 502f eb3d 1107 5dbc 529b f1be 9b4b 653e
00000280: 52f6 9e3e a781 ef3d 478b 5f3e 3d8e ddbc
00000290: f391 043f 2bbf 31bd 5044 cabf daa1 a0be
000002a0: df84 b03e 7ea8 10be 8596 b8be 317b 8b3e
000002b0: 77c6 1ebf e160 0abe d144 b1bf 74e7 87be
000002c0: a599 f63d c3b7 3abd ed88 00bf d653 cb3d
000002d0: 001a 4f3e 2b22 eebe ac9d 41bf 3266 793e
000002e0: 0be1 f6be 1f7e 18bf a595 ecbf b341 afbf
000002f0: 9d7f 5c3d afc0 ddbe 4870 38bf e32a a4be
00000300: d2c6 b6bf 691f 1b3f d08d 5340 922d 873e
00000310: ad84 bf3e 5dc5 923e 164d 1fbf 393a 47bf
00000320: 2861 aa3d 8e4a 14bd 0530 07bf ad5a a43e
00000330: a743 693c 3abf 9fbd 3e92 00bf ba75 45bd
00000340: f715 d23d 1a8f ff3d 98b8 13bf 544a 3f3d
00000350: 9575 513e 7b83 e6be 4d20 0abf 4930 9a3e
00000360: c1e3 4d3e 4484 073f 6058 79bf 6700 18bf
00000370: 2ae3 cf3f cbf1 923f 5bed fb3e c3eb 883d
00000380: c413 983f 6d4e 123f bfeb 4cbe b44e 5abe
00000390: 17b1 0340 910b b53e a405 acbf e532 c2be
000003a0: 5186 ccba 377f 1140 9369 5640 7bb7 0f3f
000003b0: 79ca 0fbd af72 ca3c 2678 99bd 9dcd 24bd
000003c0: 84cc f7bb d23a da3f 870a 3440 de00 e93d
000003d0: ed47 973d 3f8c 4abc ef59 b0be 5012 843e
000003e0: 4e1f 4b3e ce89 063e dc46 4dbf 1422 d8bd
000003f0: fe4a 79bc 03a7 a93d 8bbc 42bf 7e38 563e

shared_layer.bias f4 [128]
-0.38191006 1.3576778 1.3580924 1.3390529 -0.07517283 -0.2094902 0.043788616 1.1526026
1.2948972 1.3382678 1.3336563 -0.29143482 1.3350291 1.353812 -0.10903833 -0.11902128
1.363963 -0.104808904 1.3054724 1.3865391 1.1483918 -0.3328888 -0.3977834 1.2354816
0.08634114 1.1830313 -0.10199261 1.0572629 1.1772003 1.1717793 1.4072688 1.1900442
-0.39633104 1.2093099 -0.21244311 -0.20976047 1.2015125 1.3585466 1.202235 1.3523648
-0.012449454 0.29366404 1.41054 0.12777723 1.3588575 1.3630631 -0.21954215 1.3266151
-0.13846008 1.2243652 1.379596 1.3739787 1.354884 1.3683914 1.1663849 -0.29530048
-0.25633362 0.076520324 -0.2919 -0.12541524 -0.29623374 1.3797895 1.3407799 1.368593
1.3251655 1.3518535 1.3725125 -0.1282003 0.9801434 1.3664635 0.023525026 1.1894337
1.1487049 -0.13933365 1.1962392 1.3496959 1.3569994 1.3369217 1.1881245 -0.24136682
1.2760977 -0.285102 0.60881954 1.267974 1.1682763 1.3052042 1.2777936 1.401381
1.1396072 -0.19248654 1.2004507 1.1563392 -0.23434351 1.3681988 1.2283082 1.2822366
-0.21423705 1.1858308 1.3581439 1.3522338 1.290525 -0.21602634 1.1501312 -0.21336016
1.2084196 -0.21957234 1.3466318 -0.37473255 1.3967506 0.5222804 1.1793572 1.3599133
1.385153 1.3273816 1.362094 1.194026 -0.20896262 -0.061641034 1.2025756 -0.026040725
1.1979834 1.3907466 -0.13109834 1.1236753 -0.19941236 1.234192 -0.21354885 1.369478
00000000: b789 c3be 63c8 ad3f f9d5 ad3f 1666 ab3f
00000010: 36f4 99bd 9984 56be b15b 333d 7b88 933f
00000020: 31bf a53f 5c4c ab3f 40b5 aa3f f236 95be
00000030: 3ce2 aa3f b649 ad3f 7d4f dfbd 6ec1 f3bd
00000040: 5796 ae3f 0da6 d6bd b819 a73f 1d7a b13f
00000050: 81fe 923f 6770 aabe 44aa cbbe 4324 9e3f
00000060: a0d3 b03d 926d 973f 80e1 d0bd 6454 873f
00000070: 80ae 963f ddfc 953f 6221 b43f 5e53 983f
00000080: e7eb cabe abca 9a3f b08a 59be 73cb 56be
00000090: 29cb 993f dbe4 ad3f d6e2 993f 4a1a ad3f
000000a0: cbf8 4bbc 225b 963e 938c b43f 09d8 023e
000000b0: 0bef ad3f da78 ae3f a8cf 60be 86ce a93f
000000c0: 7bc8 0dbe 00b8 9c3f 9a96 b03f 89de af3f
000000d0: d76c ad3f 7327 af3f 1a4c 953f a031 97be
000000e0: 293e 83be b0b6 9c3d eb73 95be da6c 00be
000000f0: f3ab 97be f19c b03f ad9e ab3f 0e2e af3f
00000100: 069f a93f 8909 ad3f 7dae af3f f046 03be
00000110: aeea 7a3f 47e8 ae3f 8eb7 c03c 5d3f 983f
00000120: c308 933f 7bad 0ebe 5e1e 993f d6c2 ac3f
00000130: 28b2 ad3f 4020 ab3f 7714 983f dd28 77be
00000140: 2b57 a33f e4f8 91be 99db 1b3f f94c a23f
00000150: 148a 953f ee10 a73f be8e a33f 7460 b33f
00000160: a6de 913f 311b 45be 5ea8 993f ec02 943f
00000170: bff7 6fbe 2321 af3f 3439 9d3f 5420 a43f
00000180: f560 5bbe 4ec9 973f a9d7 ad3f ff15 ad3f
00000190: ec2f a53f 0236 5dbe 8037 933f 167b 5abe
000001a0: 7ead 9a3f 92d7 60be 6e5e ac3f f2dc bfbe
000001b0: b9c8 b23f 2bb4 053f 2df5 963f a411 ae3f
000001c0: b24c b13f a4e7 a93f 1959 ae3f d8d5 983f
000001d0: 4cfa 55be 4f7b 7cbd ffed 993f 5c53 d5bc
000001e0: 8557 993f fc03 b23f a53e 06be 98d4 8f3f
000001f0: c132 4cbe 01fa 9d3f 8dac 5abe 0e4b af3f

action_layer.weight f4 [2, 128]
0.14112584 -0.43267745 -0.4057814 -0.1034113 0.37374058 0.4809915 0.28082722 0.21665512
-0.3356382 -0.28609794 0.23037544 -0.0071671684 0.028646264 -0.11938338 0.11464402 0.47160232
-0.32726192 0.6270437 0.3243923 -0.45436838 0.3055701 0.15872169 -0.067537956 0.22402191
0.09630628 0.099840485 -0.1549479 0.34382278 0.22998112 0.079803355 -0.23393597 0.28493193
-0.0055169608 0.5149682 0.4647109 0.5370628 0.10186952 -0.15416558 0.35604006 -0.453532
0.026395658 0.41199696 -0.14150515 0.2693658 -0.28994894 -0.15529996 0.45103773 0.21079205
-0.79575366 0.481968 -0.20524453 -0.043822587 -0.20818667 -0.4328969 0.2506896 -0.032593027
-0.004094893 0.060975987 -1.148436 0.112683095 -0.6553376 -0.4045426 -0.18844394 -0.21566392
0.14919454 -0.04075664 -0.17481332 -0.17291278 0.43984842 -0.46270418 0.22510876 0.21478032
0.3538885 -0.07357058 0.20663327 -0.020345138 0.089423135 0.07784067 0.40873152 0.098112404
0.22586185 -0.046764337 0.1638069 -0.14845663 0.37982804 0.20445669 0.32257062 -0.32318968
0.043263648 -0.28366145 0.19682002 0.17382814 -0.33254936 -0.038526308 0.27860454 -0.3863912
0.7071345 0.40187594 -0.22472869 -0.14518382 0.102189116 0.6923921 0.290283 0.87644345
0.3866744 0.6239347 0.029074412 0.33323348 -0.27414656 -0.68033844 0.101297855 -0.017071996
-0.22115393 0.20739982 -0.1568192 0.49478742 0.515168 -0.07108314 0.38900012 0.4439498
0.3339646 -0.05000832 0.065009 -0.009975741 0.8472009 -0.11907087 0.5665097 -0.37650976
-0.17491266 0.46011415 0.17227748 -0.048880827 -0.19241793 -0.7830105 -0.15341729 -0.29751846
0.26160055 0.2480719 0.050077397 0.24878585 -0.21653345 0.20089689 0.07761506 -0.49232417
0.27251816 -0.8863363 -0.2164733 0.33403316 -0.05024048 -0.10386341 -0.35257402 0.0716517
-0.092894986 -0.39686796 -0.016505904 -0.30826837 -0.2652961 -0.25850722 0.1531829 -0.4116514
-0.19968407 -0.14708108 -0.59059674 -0.7770278 -0.24725263 0.18780641 -0.49983528 0.41910806
0.19963536 -0.20295222 0.14546089 -0.29082212 0.35864672 0.0047697355 -0.496518 -0.029493036
0.93016535 -0.093347155 0.44510305 0.26109168 -0.021040766 0.28164288 -0.38294646 0.16606615
0.16269381 -0.11884575 1.1438187 -0.19673564 0.8800539 0.3731343 -0.16609949 0.29114977
-0.02592114 0.119709186 0.4270592 0.0360031 -0.11399966 0.46532977 -0.18449377 -0.36774954
-0.25459355 0.077551186 -0.10268948 0.19224112 0.09680819 -0.16273639 -0.53578544 0.012447324
-0.0709302 0.0564504 0.22826107 0.4038767 -0.058026947 -0.06941632 -0.28243226 0.14180902
-0.049859293 0.13504429 -0.32511234 -0.40045616 0.1999296 0.07506632 0.033182856 0.31811488
-0.46879044 -0.110290684 -0.11489635 0.18300961 -0.36395085 -0.8405425 -0.37300763 -0.84564483
-0.20739919 -0.4962961 0.17109172 0.022885446 0.25426587 0.87807375 -0.13913547 0.1244446
0.19269346 -0.28761408 0.43718344 -0.50226593 -0.667943 0.25665686 -0.26493847 -0.29084644
-0.26982766 0.38323027 -0.052203704 -0.004299205 -0.84194136 0.35536286 -0.6066997 0.07481671
00000000: 4b83 103e e687 ddbe 94c2 cfbe 4ec9 d3bd
00000010: ed5a bf3e 8544 f63e 96c8 8f3e d7da 5d3e
00000020: c5d8 abbe 6e7b 92be 8ae7 6b3e 91da eabb
00000030: 92ab ea3c 467f f4bd 7cca ea3d dc75 f13e
00000040: e08e a7be f085 203f bf16 a63e f9a2 e8be
00000050: af73 9c3e f087 223e 5751 8abd 0066 653e
00000060: 3a3c c53d 2b79 cc3d aaaa 1ebe 8a09 b03e
00000070: 2c80 6b3e f16f a33d e98c 6fbe 99e2 913e
00000080: 9fc7 b4bb f5d4 033f 96ee ed3e f37c 093f
00000090: f8a0 d03d 95dd 1dbe e24a b63e 5935 e8be
000000a0: b53b d83c 44f1 d23e bae6 10be 50ea 893e
000000b0: 3074 94be f406 1fbe 6bee e63e dfd9 573e
000000c0: 83b6 4bbf 82c4 f63e 9f2b 52be 507f 33bd
000000d0: e32e 55be aaa4 ddbe 635a 803e 4480 05bd
000000e0: 742e 86bb f5c1 793d f3ff 92bf 65c6 e63d
000000f0: 34c4 27bf 3520 cfbe 73f7 40be 01d7 5cbe
00000100: 74c6 183e 6ff0 26bd 4302 33be 0c10 31be
00000110: d033 e13e 90e7 ecbe e982 663e 5fef 5b3e
00000120: e030 b53e 2cac 96bd ac97 533e d9aa a6bc
00000130: 7a23 b73d ee6a 9f3d 4245 d13e 28ef c83d
00000140: 5448 673e f68b 3fbd ffbc 273e 0405 18be
00000150: d278 c23e 185d 513e fa27 a53e 1e79 a5be
00000160: 3935 313d 133c 91be 308b 493e 0100 323e
00000170: e943 aabe c3cd 1dbd 41a5 8e3e 11d5 c5be
00000180: c406 353f afc2 cd3e 471f 66be 11ab 14be
00000190: 8748 d13d 9c40 313f f99f 943e 995e 603f
000001a0: 30fa c53e 2fba 1f3f 762d ee3c 949d aa3e
000001b0: f05c 8cbe a92a 2ebf 4075 cf3d 92da 8bbc
000001c0: 2d76 62be 9e60 543e 3695 20be c754 fd3e
000001d0: 0de2 033f 0a94 91bd 062b c73e 634d e33e
000001e0: 68fd aa3e 86d5 4cbd 7023 853d 4a71 23bc
000001f0: 28e2 583f 6edb f3bd c806 113f e3c5 c0be
00000200: 4e1c 33be 1594 eb3e 8269 303e 4337 48bd
00000210: 3509 45be 6073 48bf 6c19 1dbe 5754 98be
00000220: 82f0 853e 8f06 7e3e f51d 4d3d b8c1 7e3e
00000230: f2ba 5dbe eab7 4d3e a5f4 9e3d ea11 fcbe
00000240: 8087 8b3e f0e6 62bf 2dab 5dbe 6506 ab3e
00000250: f6c8 4dbd 57b6 d4bd 9584 b4be 20be 923d
00000260: ba3f bebd 4732 cbbe 6437 87bc 5ad5 9dbe
00000270: e4d4 87be 0f5b 84be fadb 1c3e f9c3 d2be
00000280: fb79 4cbe 6c9c 16be 5931 17bf 4beb 46bf
00000290: cb2f 7dbe 5350 403e 69ea ffbe 5595 d63e
000002a0: 366d 4c3e b5d2 4fbe b3f3 143e a3e6 94be
000002b0: 8ba0 b73e 714b 9c3b 9b37 febe 619b f1bc
000002c0: 511f 6e3f cb2c bfbd 8ce4 e33e cfad 853e
000002d0: af5d acbc 7f33 903e 8f11 c4be 3f0d 2a3e
000002e0: 3599 263e 6765 f3bd a768 923f 1175 49be
000002f0: 364b 613f 750b bf3e fc15 2abe 9511 953e
00000300: 9258 d4bc 172a f53d 81a7 da3e fd77 133d
00000310: a778 e9bd b43f ee3e efeb 3cbe ab49 bcbe
00000320: 165a 82be 28d3 9e3d dd4e d2bd dbda 443e
00000330: 5f43 c63d 5ea4 26be 3c29 09bf dcef 4b3c
00000340: da43 91bd 8938 673d 45bd 693e edc8 ce3e
00000350: aaad 6dbd 252a 8ebd f69a 90be 6236 113e
00000360: 4239 4cbd 0d49 0a3e 2075 a6be 9708 cdbe
00000370: 58ba 4c3e 5fbc 993d bfea 073d f4df a23e
00000380: 4d05 f0be 15e0 e1bd c74e ebbd df66 3b3e
00000390: c457 babe cb2d 57bf dbfa bebe 2e7c 58bf
000003a0: 7460 54be 861a febe ab32 2f3e 427a bb3c
000003b0: 232f 823e 71c9 603f 8779 0ebe cfdc fe3d
000003c0: 6f51 453e 2742 93be 82d6 df3e 8094 00bf
000003d0: 50fe 2abf 8768 833e 04a6 87be d3e9 94be
000003e0: da26 8abe c236 c43e 8dd3 55bd 58e0 8cbb
000003f0: 7889 57bf 1ff2 b53e ac50 1bbf 8139 993d

action_layer.bias f4 [2]
-0.08218605 0.102186084
00000000: 2951 a8bd f046 d13d

value_layer.weight f4 [1, 128]
-1.0674666 1.3603494 1.186501 1.2288215 -0.6283911 -0.73222554 -0.049669344 1.1276623
1.1294963 1.1360884 1.383518 -1.0695589 1.1925651 1.2048924 -0.66431296 -0.6842374
1.3381778 -0.89168817 1.3298777 1.1936885 1.1092955 -0.9540599 -1.0119046 1.081986
-0.37685186 1.079413 -0.018549453 0.9700272 1.0816482 1.0562856 1.2840979 1.0472977
-0.9605356 1.1763446 -1.06889 -0.83732975 1.2075391 1.3697355 1.1228052 1.1262643
-0.22288056 -0.21179983 1.2347885 -0.33045152 1.3252153 1.2659281 -0.6948601 1.3029016
-0.9378283 1.1522075 1.224537 1.3038182 1.2200122 1.377275 1.0757003 -1.4693379
-0.91746545 -0.70420474 -1.4763097 -0.00021687325 -1.0194467 1.3361999 1.1317374 1.3399329
1.3467864 1.2958153 1.2913551 0.029165812 0.848171 1.2035831 -0.5239288 1.1824342
1.0745969 -0.94214725 1.028665 1.2531047 1.3121084 1.2871517 1.0604475 -1.043679
1.2633002 -0.8998024 0.41708764 1.1290334 1.0817581 1.1521778 1.2451844 1.2506278
1.0822821 -1.2704537 1.2562045 1.0213846 -1.3461045 1.2146331 1.1610302 1.1257029
-0.95938563 1.0500054 1.3476138 1.2073704 1.1610582 -0.9487011 1.038982 -0.8612959
1.2409511 -0.9611622 1.2241884 -1.1775837 1.3498157 -1.1480113 1.0859036 1.3701771
1.2994354 1.2160861 1.3853312 1.0758586 -1.0291373 -0.9534444 1.1866819 -0.5899242
1.0779853 1.2053771 -7.552598e-05 0.97526515 -0.77155346 -1.409461 -0.875585 1.3226544
00000000: bfa2 88bf ee1f ae3f 44df 973f 064a 9d3f
00000010: 3dde 20bf 2273 3bbf 1572 4bbd 3d57 903f
00000020: 5693 903f 586b 913f 1e17 b13f 4ee7 88bf
00000030: f9a5 983f ea39 9a3f 6a10 2abf 2f2a 2fbf
00000040: 6949 ab3f ad45 64bf 6f39 aa3f c9ca 983f
00000050: 65fd 8d3f 453d 74bf 1786 81bf 847e 8a3f
00000060: baf2 c0be 352a 8a3f 06f5 97bc b453 783f
00000070: 7373 8a3f 5e34 873f 525d a43f da0d 863f
00000080: a9e5 75bf 7692 963f 63d1 88bf 3e5b 56bf
00000090: a490 9a3f 7e53 af3f 15b8 8f3f 6e29 903f
000000a0: cd3a 64be 0ee2 58be 8d0d 9e3f f130 a9be
000000b0: a8a0 a93f ef09 a23f 5ae2 31bf 7bc5 a63f
000000c0: 8415 70bf 897b 933f a1bd 9c3f 84e3 a63f
000000d0: 5c29 9c3f 8c4a b03f 8cb0 893f 4413 bcbf
000000e0: 04df 6abf c346 34bf b7f7 bcbf 7868 63b9
000000f0: 3b7d 82bf 9908 ab3f c5dc 903f ec82 ab3f
00000100: 7f63 ac3f 47dd a53f 204b a53f 24ed ee3c
00000110: bc21 593f 030f 9a3f 3320 06bf 015a 973f
00000120: 648c 893f 9030 71bf 4bab 833f bc65 a03f
00000130: 2bf3 a73f 63c1 a43f bebc 873f 4697 85bf
00000140: d2b3 a13f 7359 66bf 838c d53e 2b84 903f
00000150: 0d77 8a3f 907a 933f 3462 9f3f 9214 a03f
00000160: 3888 8a3f 3a9e a2bf 4fcb a03f bbbc 823f
00000170: 274d acbf 1979 9b3f a39c 943f 0817 903f
00000180: 4c9a 75bf 9466 863f 9c7e ac3f 1d8b 9a3f
00000190: 8e9d 943f 13de 72bf 5dfd 843f e37d 5cbf
000001a0: 7cd7 9e3f ba0e 76bf 35b2 9c3f 10bb 96bf
000001b0: c3c6 ac3f 09f2 92bf e4fe 8a3f f761 af3f
000001c0: e653 a63f b6a8 9b3f 8852 b13f bcb5 893f
000001d0: c5ba 83bf ef14 74bf 31e5 973f 4605 17bf
000001e0: 6cfb 893f cc49 9a3f b463 9eb8 faaa 793f
000001f0: 8784 45bf 3869 b4bf 5726 60bf bd4c a93f
