HW2/LunarLander-v2_gae.pth (torch, 76157 bytes, 7 tensors)

shared_layer.weight f4 [128, 8]
0	0xbcf55c60	-0.029951274
1	0x3e448d35	0.19194491
2	0xbd4b919f	-0.049699422
3	0xbdd0f914	-0.10203758
4	0x3e5509f0	0.20804572
5	0x3d82e218	0.0639078
6	0xbdb3292b	-0.087480865
7	0x3c25b81c	0.010114696
8	0x3e217393	0.15766744
9	0x3ea7edb5	0.32798544
10	0xbdd9321e	-0.10605262
11	0x3d7eb698	0.062185854
12	0xbdee2f0e	-0.11630069
13	0xbdc97f46	-0.098387286
14	0x3e684af1	0.22684838
15	0xbbb614d0	-0.0055566803
16	0x3c3c77db	0.011503185
17	0x3e444fe5	0.19171102
18	0xbe6c1694	-0.23055488
19	0xbdc38b46	-0.09548049
20	0x3dde2223	0.10846355
21	0x3e6fe0fb	0.23425667
22	0x3e659a42	0.22422126
23	0x3dab87b1	0.083754905
24	0xbdfa5743	-0.12223675
25	0x3e640d89	0.22270788
26	0x3df43e01	0.11925889
27	0xbe91d687	-0.28483984
28	0x3d849575	0.06473819
29	0x3e6c7568	0.23091662
30	0xbd32897f	-0.043588158
31	0xbe0157e1	-0.1263118
32	0x3e6747ed	0.22586031
33	0x3e4ec124	0.20190865
34	0x3df4f0d3	0.11959996
35	0x3d837ac1	0.06419898
36	0xbc56b2da	-0.013104165
37	0xbe53456d	-0.20631953
38	0xbd32af70	-0.04362434
39	0xbd370b9a	-0.0446888
40	0xbd6bc2f1	-0.057558957
41	0x3dfe13c6	0.12406115
42	0xbe85618f	-0.26050994
43	0x3dea218f	0.11432182
44	0xbe325151	-0.17413832
45	0xbd6e11a8	-0.058122307
46	0x3e0c32f6	0.13691315
47	0x3e27ce2e	0.16387245
48	0xbcf8b690	-0.03036049
49	0x3e83b2ce	0.25722355
50	0x3deae3f5	0.114692606
51	0xbe91526c	-0.28383195
52	0x3d30f7f9	0.043205235
53	0xbd47caf3	-0.04877753
54	0x3e885ac8	0.2663176
55	0x3dac32dd	0.08408139
56	0xbe080d60	-0.13286352
57	0x3df518d5	0.11967627
58	0xbe0b79bc	-0.13620657
59	0xbe7933a7	-0.2433611
60	0xbdfb3128	-0.12265235
61	0xbd39f98c	-0.045404002
62	0x3d6f2fe0	0.058395267
63	0xbdac3a3a	-0.08409543
64	0x3cb924b7	0.022600515
65	0x3e44ba55	0.19211705
66	0xbccc196a	-0.024914462
67	0x3d71e698	0.059057802
68	0xbd5b7298	-0.053576082
69	0x3d1fefc6	0.039047025
70	0xbe5a5b94	-0.21323997
71	0x3e4c8283	0.19971661
72	0x3e5f0524	0.21779305
73	0x3e739f1a	0.23791161
74	0x3de24afb	0.11049458
75	0x3dde9b4e	0.10869466
76	0x3e3d1914	0.18466598
77	0xbe39f43b	-0.18159573
78	0x3c349ccc	0.011023711
79	0x3ce2f977	0.027706845
80	0x3de50e55	0.11184374
81	0x3e609efa	0.21935645
82	0xbe0c8e59	-0.13726176
83	0xbb884bc2	-0.0041594217
84	0xbde9167f	-0.11381244
85	0xbe4ee409	-0.20204176
86	0x3e4a0389	0.19727911
87	0xbd23b564	-0.03996791
88	0xbe2fcabc	-0.17167181
89	0x3e104d72	0.14092043
90	0xbdf7dbe2	-0.12102486
91	0xbe658940	-0.22415638
92	0x3e4614f0	0.19343925
93	0x3d8b3afc	0.0679836
94	0xbe1a0ed7	-0.15044723
95	0xb9f5e489	-0.00046900313
96	0x3cc84c35	0.0244504
97	0x3d8c5ad6	0.06853263
98	0x3e874779	0.26421717
99	0xbdaac3c4	-0.083381206
100	0xbe20b2d9	-0.15693225
101	0xbe2b65e5	-0.16738088
102	0xbe015a4c	-0.12632102
103	0x3e362269	0.17786564
104	0xbda51b44	-0.08061841
105	0x3ea9550a	0.33072692
106	0x3e148771	0.14504792
107	0xbe0c0cef	-0.13676809
108	0xbe29952b	-0.1656081
109	0x3d8fd938	0.07023853
110	0x3df42b6d	0.11922345
111	0x3e33b4c9	0.17549433
112	0xbc8b25a2	-0.016985718
113	0x3e3c036c	0.1836068
114	0x3dccf67a	0.10007949
115	0xbdc3b25d	-0.095555045
116	0xbe1fcc49	-0.15605272
117	0xbd437ece	-0.047728352
118	0xbdb07693	-0.08616366
119	0xbe8aa47f	-0.27078626
120	0x3d9f6aa7	0.07784014
121	0x3e867258	0.26259112
122	0x3dae76ac	0.085187286
123	0xbe28fbdb	-0.16502325
124	0x3e42a2e9	0.19007458
125	0xbe242911	-0.1603129
126	0x3e56f9a8	0.20993674
127	0xbd9f5afb	-0.07781025
128	0xbd10fc8a	-0.03539709
129	0x3da29432	0.07938422
130	0xbe85d969	-0.26142433
131	0xbdab5b26	-0.083669946
132	0x3eaab390	0.3334012
133	0x3e8c05c2	0.27348143
134	0x3dabe2c1	0.08392859
135	0xbe0541d5	-0.13013394
136	0x3e052d44	0.13005549
137	0x3eb518fd	0.35370627
138	0xbd5753aa	-0.052570023
139	0xbce53dd1	-0.027983578
140	0x3de872e6	0.1135004
141	0xbe0515ff	-0.12996672
142	0x3d403ec2	0.04693485
143	0xbcce1700	-0.025157452
144	0x3dadefc8	0.08493
145	0x3eb73a25	0.35786548
146	0x3df5635d	0.11981843
147	0xbd8bfd59	-0.068354316
148	0xbdc28b44	-0.09499219
149	0x3dd7ebb3	0.10543003
150	0xbd5622dc	-0.05227934
151	0xbdfb518d	-0.12271414
152	0xbceb7c66	-0.028745841
153	0x3c9b6f96	0.018974107
154	0xbebfd097	-0.3746383
155	0x3be9aa4c	0.0071308967
156	0x3dc15e6e	0.09441839
157	0x3e4d2d76	0.20036873
158	0xbe17424d	-0.14771385
159	0x3e095779	0.13412274
160	0xbe2f5232	-0.17121199
161	0x3e96adb4	0.294294
162	0x3d9717b8	0.07377571
163	0x3df56c91	0.11983598
164	0xbe5d2243	-0.21595101
165	0xbe0408e3	-0.12894015
166	0x3defdc78	0.11711973
167	0xbcfe45dd	-0.031039173
168	0xbea015f7	-0.31266758
169	0xbd149bb0	-0.036281288
170	0xbe8cb107	-0.2747881
171	0xbdd70222	-0.10498454
172	0x3eaddc27	0.33957025
173	0x3e2d91ba	0.16950122
174	0x3e222c1c	0.15837139
175	0xbe2d3881	-0.16916086
176	0xbe0444ec	-0.12916917
177	0x3d32d466	0.04365959
178	0xbe19781f	-0.14987229
179	0xbdf83df0	-0.12121189
180	0x3e89974f	0.26873252
181	0xbda06bb8	-0.07833046
182	0x3dc9609a	0.098328784
183	0x3cab2aea	0.020894486
184	0x3d270e16	0.040784918
185	0x3e9cb967	0.306102
186	0xbe46e4e1	-0.19423248
187	0xbdee306a	-0.11630328
188	0xbe09b1ca	-0.13446727
189	0x3e17ff15	0.148434
190	0xbd37be16	-0.044859014
191	0x3da91af3	0.08257093
192	0x3e26f139	0.16302957
193	0x3ea85a73	0.32881507
194	0xbda5ed14	-0.0810186
195	0x3d2b8624	0.041875973
196	0xbe4e41d0	-0.20142293
197	0xbc692e43	-0.014232221
198	0x3e10dcf7	0.14146791
199	0xbe492f94	-0.19647056
200	0x3e4d677d	0.20059009
201	0x3e222164	0.1583305
202	0x3e629826	0.22128353
203	0xbca2161d	-0.019785935
204	0x3d0c9272	0.03431935
205	0x3d3d7ed4	0.04626353
206	0x3e287c06	0.16453561
207	0xbde7696d	-0.11299405
208	0xbccdad1d	-0.02510696
209	0x3d30904f	0.043106373
210	0xbe5d1257	-0.21589027
211	0xbd8b132d	-0.06790767
212	0x3e19ec29	0.15031494
213	0x3ea6fbaf	0.32613894
214	0x3e41a386	0.18910035
215	0x3c2a15a7	0.010381139
216	0xbe28df8e	-0.1649153
217	0x3c7542fd	0.0149695845
218	0xbea88348	-0.3291266
219	0x3c2fe4ff	0.010735749
220	0x3e5af3c6	0.21382055
221	0x3da9dfb0	0.08294618
222	0xbe19d394	-0.15022117
223	0xbd80771a	-0.06272717
224	0xbce8ea7b	-0.028432122
225	0x3e1ab683	0.15108685
226	0x3da8ab02	0.08235742
227	0xbda440dd	-0.08020184
228	0xbe29e9c5	-0.16593082
229	0x3e2414ce	0.16023561
230	0x3e4c83b8	0.19972122
231	0x3e30f53f	0.17281054
232	0xbe0e4eb4	-0.1389721
233	0x3db48de1	0.08816124
234	0x3e461352	0.19343308
235	0xbe29af21	-0.16570713
236	0xbe0e9121	-0.1392255
237	0xbe120689	-0.14260305
238	0xbc55d8a2	-0.013052138
239	0x3c2bd7e7	0.010488487
240	0xbe0ab064	-0.1354385
241	0x3c45ce1b	0.012073065
242	0xbe488378	-0.19581401
243	0xbe29768f	-0.16549133
244	0x3dc75043	0.097321056
245	0xbe27af89	-0.16375555
246	0x3e76add6	0.2408975
247	0x3e87880c	0.26470983
248	0xbe282491	-0.16420199
249	0x3d6a493a	0.05719874
250	0xbe623329	-0.22089829
251	0xbc0e9142	-0.008701624
252	0xbd91ba75	-0.07115642
253	0x3d828ca9	0.06374485
254	0x3e73b6d5	0.23800214
255	0x3e5c1b73	0.21494846

shared_layer.bias f4 [128]
0	0x3e418199	0.18897094
1	0x3e4b0c55	0.19828923
2	0x3e43d998	0.19125974
3	0x3e3d19d5	0.18466885
4	0x3e4db4d8	0.20088518
5	0x3e3d49cd	0.18485184
6	0x3e4b27ec	0.19839448
7	0x3e69c166	0.22827682
8	0x3df1e069	0.11810381
9	0x3e4dd82c	0.20101994
10	0x3de4cc8b	0.11171826
11	0x3e409603	0.18807225
12	0x3e2a320d	0.16620655
13	0x3e3ee228	0.1864096
14	0x3e535005	0.20635994
15	0x3e4b079a	0.19827119
16	0x3e2ad78a	0.16683784
17	0x3e58cea2	0.21172574
18	0x3e4e0b2b	0.20121448
19	0x3e24681d	0.16055341
20	0x3e39d0c9	0.18146051
21	0x3e29aa45	0.16568859
22	0x3e2da188	0.1695615
23	0x3e4bcc52	0.19902161
24	0x3e425f88	0.18981755
25	0x3e3f9845	0.1871043
26	0x3e519a9d	0.20469137
27	0x3e10b6cd	0.14132233
28	0x3e4c762e	0.19966957
29	0x3e49a9da	0.196937
30	0x3e59ebc6	0.21281347
31	0x3e19fc51	0.15037657
32	0x3e37dd5c	0.17955536
33	0x3e276a3b	0.16349117
34	0x3e35b5cf	0.17745136
35	0x3e4b2a80	0.19840431
36	0x3e47e4b0	0.19520831
37	0x3e4b8773	0.19875889
38	0x3dfad90e	0.12248431
39	0x3e4a2f34	0.19744569
40	0x3e4e3e7c	0.20141023
41	0x3e47d3f5	0.19514449
42	0x3e35f85b	0.17770521
43	0x3e21ab7c	0.15788072
44	0x3e514ab5	0.20438655
45	0x3e3eb3e9	0.18623318
46	0x3e5579ed	0.20847292
47	0x3e4b42de	0.19849727
48	0x3e257960	0.16159582
49	0x3e3c4ba9	0.18388237
50	0x3e4d740b	0.20063798
51	0x3e365db5	0.17809184
52	0x3e7592ea	0.23981825
53	0x3e2d3751	0.16915633
54	0x3e2e085e	0.1699538
55	0x3e329138	0.17438209
56	0x3e44c21c	0.19214672
57	0x3e2c821c	0.16846508
58	0x3e033230	0.12812114
59	0x3e4cb1a3	0.19989638
60	0x3e3a7c51	0.18211485
61	0x3db9d69b	0.09074136
62	0x3e3efd2b	0.18651263
63	0x3e4b54e8	0.19856608
64	0x3e4a0bb3	0.19731025
65	0x3e48a6be	0.19594857
66	0x3e4c6392	0.19959858
67	0x3e355206	0.1770707
68	0x3e09401d	0.13403364
69	0x3e2c055a	0.16798916
70	0x3e4c3143	0.19940667
71	0x3e5182f1	0.20460106
72	0x3e42a451	0.19007994
73	0x3e44c690	0.1921637
74	0x3e27a75d	0.16372438
75	0x3e4bf29a	0.19916764
76	0x3e6d242f	0.23158334
77	0x3e333518	0.17500722
78	0x3e1cc3d9	0.15309085
79	0x3e680d7d	0.22661395
80	0x3e67b7de	0.22628734
81	0x3e4d7bdd	0.20066781
82	0x3e4adf02	0.19811633
83	0x3e50d400	0.20393372
84	0x3e36214d	0.1778614
85	0x3e4ab028	0.19793761
86	0x3e096f22	0.134213
87	0x3e61c913	0.2204936
88	0x3e154eab	0.1458079
89	0x3e267c56	0.16258368
90	0x3dbe0e7a	0.09280105
91	0x3e4d753e	0.20064256
92	0x3e219d53	0.1578267
93	0x3e40096c	0.18753594
94	0x3e41b349	0.18916048
95	0x3e45a1fa	0.1930007
96	0x3e2ef423	0.17085318
97	0x3e4d70e9	0.20062603
98	0x3e3a71c4	0.1820746
99	0x3e15f384	0.14643675
100	0x3dd2596a	0.10270961
101	0x3e4fb4e4	0.20283848
102	0x3e393b9e	0.18089148
103	0x3db727ba	0.08943124
104	0x3e319425	0.17341669
105	0x3e47505b	0.19464247
106	0x3e26f8ea	0.1630589
107	0x3e267c01	0.16258241
108	0x3e133aae	0.14377853
109	0x3e0c6591	0.1371062
110	0x3e5b5a24	0.21421105
111	0x3e2cb9d3	0.16867761
112	0x3dd0210f	0.101625554
113	0x3e26ba78	0.1628207
114	0x3e4ec02b	0.20190494
115	0x3e494736	0.19656071
116	0x3e2613c3	0.16218476
117	0x3e2024d9	0.15639056
118	0x3e55fc23	0.20896964
119	0x3e2f3f51	0.17113997
120	0x3e4c556a	0.19954458
121	0x3e3809c9	0.17972483
122	0x3e2b6c37	0.167405
123	0x3e301421	0.17195179
124	0x3e1cf79d	0.15328832
125	0x3e510ef6	0.20415863
126	0x3e434a77	0.19071375
127	0x3e708bee	0.23490879

linear_layer.weight f4 [128, 128]
0	0xbd4c8000	-0.049926758
1	0x3d2a207b	0.041534882
2	0xbd9a7388	-0.07541567
3	0xbe040c70	-0.1289537
4	0x3cdbd70f	0.026835946
5	0x3d82d38a	0.06388004
6	0x3c9b95cb	0.018992325
7	0xbd4c7df0	-0.04992479
8	0xbda54bde	-0.08071111
9	0xbdb71105	-0.08938793
10	0x3df1daae	0.11809288
11	0x3df51d52	0.11968483
12	0xbd0756ce	-0.033041768
13	0xbda168e0	-0.078813314
14	0xbdc0b220	-0.09408975
15	0xbe21300e	-0.15740988
16	0x3d8df357	0.06931179
17	0xbe2d1437	-0.16902243
18	0xbd89bc62	-0.06725384
19	0xbd47b5d1	-0.048757378
20	0x3b07ba4e	0.0020710411
21	0xbe048d00	-0.12944412
22	0x3da23fe3	0.07922342
23	0x3dcc0c0d	0.09963236
24	0x3b8dadeb	0.004323711
25	0xbdda2a10	-0.10652554
26	0xbd59e9ba	-0.053201415
27	0xbe1bda70	-0.15220046
28	0x3c2f5ef2	0.010703789
29	0xbdddf50c	-0.108377546
30	0xbd31b242	-0.04338289
31	0x3df4f4bb	0.11960741
32	0xbe0adf23	-0.13561682
33	0x3d620b54	0.055186585
34	0xbd92be6b	-0.071652256
35	0x3d281386	0.041034244
36	0x3d31e02d	0.04342668
37	0xbd72d7ba	-0.059287764
38	0x3d6e0399	0.0581089
39	0x3da91867	0.082566075
40	0x3caf32f7	0.021386607
41	0xbd167c68	-0.036739737
42	0xbda8570e	-0.08219729
43	0xbdfb664c	-0.12275371
44	0xbde11022	-0.10989405
45	0xbb078a7a	-0.0020681904
46	0x3d2e1dac	0.042508766
47	0x3cfc03a7	0.03076346
48	0x3dbfab7a	0.093588784
49	0xbd0d92aa	-0.034563698
50	0xbe1af05c	-0.15130752
51	0xbd3044a8	-0.043034226
52	0xbdda8f66	-0.10671882
53	0x3ce5a77e	0.028033968
54	0x3d3ddad1	0.046351258
55	0xbdf75193	-0.12076106
56	0x3d2146e5	0.03937425
57	0xbe20ec61	-0.15715171
58	0x3dacdb55	0.08440272
59	0x3c7becaf	0.015376254
60	0x3da2c61a	0.07947941
61	0x3c201801	0.009771348
62	0xbdb2a643	-0.08723118
63	0x3e004140	0.12524891
64	0x3c4d0363	0.0125130145
65	0xbe2c5826	-0.16830501
66	0x3d53ebad	0.05173843
67	0x3da829b7	0.082110815
68	0x3d76aa4d	0.060221005
69	0x3d776fb4	0.060409263
70	0xbd85a207	-0.06525045
71	0xbd50035c	-0.050784454
72	0x3da822b9	0.08209748
73	0x3d2eb267	0.042650606
74	0xbd4532f1	-0.048144285
75	0x3b1c9e60	0.002389811
76	0xba07baee	-0.0005177696
77	0xbcfbd8c6	-0.030743014
78	0x3d46afe2	0.04850758
79	0x3d74f88a	0.059807338
80	0x3d7e794e	0.062127404
81	0x3d9e5e26	0.07732801
82	0x3d5c316b	0.053758066
83	0xbe02d2cc	-0.12775725
84	0xbe057e78	-0.13036525
85	0xbd8dc113	-0.069215916
86	0xbd3e4dcf	-0.046460923
87	0x3d14f3a0	0.03636515
88	0x3e008906	0.1255227
89	0x3db25128	0.087068856
90	0xbbd16142	-0.006389768
91	0xbde7f30e	-0.11325656
92	0xbca5ffb0	-0.020263523
93	0xbe0f9310	-0.14020944
94	0xbd15595f	-0.036462184
95	0xbd3f99c8	-0.046777517
96	0x3e05cbd4	0.13066036
97	0xbd2cd593	-0.042195868
98	0x3db48d9b	0.088160716
99	0xbcd0540a	-0.025430698
100	0xbe1e08a3	-0.15432982
101	0x3ba7c095	0.005119393
102	0xbd294bf7	-0.04133221
103	0xbe0f8b87	-0.14018069
104	0x3caf4970	0.021397322
105	0xbd348192	-0.04406888
106	0xbe03e7ed	-0.12881441
107	0xbdd4c5d1	-0.10389293
108	0x3da65a9d	0.08122752
109	0xbdcf0934	-0.10109177
110	0xbd81f975	-0.06346408
111	0xbe000129	-0.12500443
112	0x3dffa6ee	0.12483011
113	0x3e0405bc	0.12892812
114	0x3cba60ac	0.022751175
115	0xbd9b5700	-0.07584953
116	0xbdb036ac	-0.08604178
117	0x3d3810e7	0.044937994
118	0x3d612adc	0.054972515
119	0x3cce496c	0.025181495
120	0x3e03aecb	0.12859647
121	0xbdba71d0	-0.09103739
122	0xbe1cd50b	-0.15315644
123	0x3dff1fcb	0.12457236
124	0xbd9f1df3	-0.07769384
125	0x3d311d84	0.04324104
126	0xbd8da2ec	-0.069158405
127	0x3d83dcbb	0.06438585
128	0xbd050736	-0.03247758
129	0xbd663b34	-0.056208804
130	0x3ba7b234	0.005117679
131	0x3e088e43	0.13335519
132	0x3daa1d00	0.083063126
133	0xbe23bf00	-0.1599083
134	0x3d7a0f04	0.061049476
135	0x3d80db58	0.062918365
136	0xbe06d4d5	-0.13167126
137	0x3d43e8b7	0.047829356
138	0xbdd1c7a5	-0.10243157
139	0xbdd3050f	-0.10303699
140	0xbdcf85a8	-0.10132915
141	0xbdcc5fe5	-0.09979228
142	0xbe162bb2	-0.14665106
143	0xbd10e7a0	-0.035377145
144	0xbe02965d	-0.12752672
145	0x3d9d563c	0.076824635
146	0x3d2ca62a	0.042150654
147	0x3da63def	0.08117282
148	0x3c933096	0.017967504
149	0x3d512b49	0.05106667
150	0xbddc968b	-0.10770901
151	0x3dc1ca5f	0.09462427
152	0x3c0eb442	0.008709969
153	0x3d85f5f4	0.065410525
154	0x3d060bc5	0.032726068
155	0x3dac7b05	0.084219016
156	0x3da5d89c	0.080979556
157	0xbd82fa73	-0.06395426
158	0xbe1a47d5	-0.15066464
159	0xbc996d7f	-0.01872897
160	0x3d97efca	0.07418783
161	0xbd124d84	-0.035718456
162	0xbcc4cade	-0.024022516
163	0xbe156b42	-0.14591697
164	0xbd62480f	-0.0552445
165	0x3d019785	0.03163864
166	0xbda041f9	-0.07825083
167	0xbdef052a	-0.11670907
168	0x3d6ff6b7	0.058584895
169	0xbdcad759	-0.099043556
170	0xbd2adef0	-0.041716516
171	0xbe03b777	-0.12862955
172	0xbe200f4b	-0.15630834
173	0xbd7d98e3	-0.061913382
174	0x3d0bd255	0.034136135
175	0x3cfa8d59	0.030584978
176	0xbdf7bde9	-0.12096769
177	0xbd079b59	-0.033107135
178	0xbdba0fa1	-0.09085012
179	0xbdbdff66	-0.09277229
180	0x3d58fb09	0.05297378
181	0x3bf6bdae	0.007529936
182	0xbdf84e6a	-0.12124331
183	0xbe0cafcd	-0.13738938
184	0xbd87fa68	-0.06639558
185	0xbdda2404	-0.10651401
186	0xbd817dec	-0.06322846
187	0x3d12d435	0.035846908
188	0x3dbde3c6	0.0927196
189	0x3c92e7e4	0.01793284
190	0x3d9dfa4f	0.07713758
191	0xbdad120a	-0.08450706
192	0x3e0717c9	0.13192667
193	0xbde741c6	-0.11291842
194	0xbde1bfce	-0.11022912
195	0x3dc4a9dc	0.096027106
196	0xbdc9453d	-0.09827659
197	0xbe260483	-0.16212659
198	0xbe1db697	-0.15401684
199	0xbe1c1d62	-0.15245584
200	0xbdb7731d	-0.08957503
201	0xbddd3cbb	-0.10802599
202	0x3dfac623	0.12244823
203	0xbd4373cf	-0.047717866
204	0xbcf9e1cf	-0.030503182
205	0xbd427913	-0.047478747
206	0xbd1b1732	-0.037863918
207	0x3d69d2b4	0.057085708
208	0xbdc5b911	-0.09654439
209	0x3b9b5390	0.004740186
210	0xbd0019d3	-0.031274628
211	0xbe07042a	-0.13185182
212	0x3dc98925	0.09840611
213	0x3dbdb4bb	0.09262987
214	0xbdab26dd	-0.08357022
215	0xbd2e899d	-0.042611707
216	0xbd6a27ae	-0.057166748
217	0xbca15093	-0.019691741
218	0xbde2f755	-0.11082331
219	0xbe0096f4	-0.12557584
220	0xbd8f4c19	-0.06996936
221	0x3dc49508	0.09598738
222	0x3d3f4c9c	0.04670392
223	0x3df83cf1	0.12120999
224	0xbcfb6847	-0.030689372
225	0x3e001d40	0.12511158
226	0xbd84863f	-0.06470918
227	0x3dfef25d	0.12448571
228	0x3defa133	0.11700668
229	0xbe1fa443	-0.15590005
230	0xbda21efc	-0.07916066
231	0x3e059692	0.1304572
232	0xbdd92181	-0.106020935
233	0x3d8d03cb	0.06885489
234	0x3d3e1393	0.046405386
235	0xbd97dee2	-0.074155584
236	0x3dbf2589	0.09333331
237	0xbd85dcd4	-0.0653626
238	0x3d3f1d91	0.046659056
239	0x3d0b70f2	0.03404326
240	0xbd391946	-0.04519012
241	0x3c5c5017	0.013446829
242	0xbd57f234	-0.052721217
243	0xbe0cb389	-0.13740362
244	0x3e0e3bd1	0.13890006
245	0x3e0899f3	0.13339977
246	0xbafd9e00	-0.0019349456
247	0x3b485dc3	0.0030573464
248	0xbd166767	-0.036719706
249	0x3d8360a3	0.06414916
250	0x3d47b5fd	0.048757542
251	0xbd24b77c	-0.040214047
252	0xbd78802c	-0.06066911
253	0x3e0089e3	0.125526
254	0x3db58a3e	0.08864258
255	0x3d39ada1	0.0453316

linear_layer.bias f4 [128]
0	0xbc0f7b74	-0.008757461
1	0xbb98a728	-0.0046585985
2	0x3e2d7aaf	0.16941331
3	0x3e301c84	0.17198378
4	0xbbff0bcf	-0.00778339
5	0x3e1b758c	0.1518156
6	0x3e2821fb	0.16419213
7	0x3e329e63	0.17443232
8	0x3e3d6b05	0.18497856
9	0xbc0ba386	-0.008522874
10	0xbb43582b	-0.002980719
11	0xbc752174	-0.014961589
12	0xbc12899c	-0.008943941
13	0xbbab5a0b	-0.00522924
14	0x3e244358	0.16041315
15	0x3e2cd020	0.16876268
16	0x3e376853	0.1791089
17	0x3e33d072	0.17559984
18	0x3e2b481d	0.16726728
19	0xbc6109a0	-0.013735205
20	0x3e40786c	0.18795937
21	0xbbd4173c	-0.0064724963
22	0x3e4016b8	0.18758667
23	0xbbc24980	-0.005929172
24	0x3e455b16	0.19273028
25	0x3e380ae8	0.1797291
26	0x3e3284ed	0.1743352
27	0x3e3477ab	0.17623775
28	0xb9f1cff9	-0.00046122054
29	0x3e3b33d6	0.18281493
30	0x3e250ab8	0.1611737
31	0x3e34d3ae	0.17658874
32	0x3e3814bf	0.17976664
33	0x3e27fb87	0.16404544
34	0xbcbb23f3	-0.02284429
35	0xbbe9f166	-0.0071393726
36	0xb9ce91d2	-0.00039400026
37	0xbbbe5849	-0.0058088643
38	0xbcd69f4d	-0.026199007
39	0x3e282500	0.16420364
40	0x3e470acb	0.19437711
41	0xbc0f6be9	-0.008753755
42	0x3e349df4	0.1763838
43	0x3e213fa3	0.15746932
44	0xbc73e9a9	-0.014887252
45	0x3e37e804	0.179596
46	0xbc6d0025	-0.0144653665
47	0x3e25bf7b	0.16186325
48	0xbb1ce321	-0.002393909
49	0x3baee69a	0.0053375484
50	0x3e2f862d	0.17141028
51	0xbbaa4207	-0.0051958594
52	0x3e42a65c	0.19008774
53	0x3e2aeaa3	0.1669107
54	0x3afcaeea	0.0019278203
55	0x3e277ad5	0.1635545
56	0x3da9ef3a	0.08297582
57	0x3e26aa7a	0.16275969
58	0x3e39bdac	0.1813876
59	0xbc2db838	-0.010603003
60	0x3e36dd5f	0.17857884
61	0x3e2ad773	0.1668375
62	0x3e49293c	0.19644636
63	0x3e294bf5	0.16532882
64	0x3e483fbb	0.19555561
65	0xbb019312	-0.0019771499
66	0x3e2cb8cb	0.16867368
67	0x3e3e7f47	0.1860324
68	0xbc67e0b4	-0.0141526945
69	0x3e2f0418	0.17091405
70	0xbb707793	-0.0036692366
71	0x3e2ac140	0.16675282
72	0xbc5522e3	-0.013008806
73	0xbb17cdbb	-0.0023163396
74	0xbc2970ec	-0.010341864
75	0x3e3bf42c	0.18354863
76	0xbbc692d0	-0.006059982
77	0x3e2937a4	0.16525131
78	0x3e3c5b2f	0.18394159
79	0xbbdb7dcd	-0.006698346
80	0xbc25f2f2	-0.010128723
81	0xbb116a95	-0.0022188772
82	0x3e33deff	0.17565535
83	0xbbea5a26	-0.00715186
84	0xbc5e6d66	-0.013575887
85	0x3e3bcccc	0.18339843
86	0x3e3dadbd	0.18523307
87	0x3e349f99	0.17639007
88	0x3e3a08cc	0.18167418
89	0x3e2ee192	0.17078236
90	0x3e317d02	0.17332843
91	0x3e27995e	0.16367099
92	0xbb933e55	-0.0044935145
93	0x3e3cde1c	0.18444103
94	0x3e30c6bb	0.1726331
95	0x3e34b5ab	0.17647426
96	0xbb3b42db	-0.0028573785
97	0xba7c8811	-0.00096333126
98	0x3e2883e0	0.16456556
99	0xbc71cff7	-0.014759055
100	0x3e10c7ee	0.14138767
101	0x3e4662bb	0.193736
102	0x3e33430c	0.17506045
103	0xbc266c6f	-0.0101576885
104	0x3e2626f8	0.16225803
105	0xbc14fa3e	-0.0090928655
106	0x3e34e8ad	0.17666884
107	0xbc50543a	-0.012715394
108	0x3e0785c0	0.13234615
109	0x3e405db4	0.18785745
110	0xbc105528	-0.008809365
111	0x3e278844	0.16360575
112	0x3e291f9d	0.16515966
113	0x3e31ca25	0.17362268
114	0xbc47d1f1	-0.01219605
115	0x3e441b56	0.19151053
116	0xbbf75a5b	-0.007548613
117	0x3e44dc8b	0.19224755
118	0xbc3d8d77	-0.011569372
119	0x3e322f4c	0.17400855
120	0x3e2ca7ff	0.1686096
121	0x3e455234	0.19269639
122	0x3e2b3e94	0.1672309
123	0x3e22eb15	0.15909989
124	0x3e2c4644	0.16823679
125	0x3e23da74	0.16001302
126	0xbc01b772	-0.007917272
127	0x3e32729e	0.17426535

action_layer.weight f4 [4, 128]
0	0x3e38aa0c	0.18033618
1	0x3d636376	0.055514775
2	0xbe361964	-0.17783123
3	0x3dd5afaa	0.10433896
4	0xbe5d42e9	-0.21607555
5	0x3e1345fd	0.14382167
6	0xbdde8a58	-0.10866231
7	0xbdb63eb3	-0.08898678
8	0x3d50e122	0.050995953
9	0xbe36d1c3	-0.17853455
10	0xbd8c5d45	-0.06853727
11	0xbdbbb7d9	-0.091659255
12	0x3b794d0f	0.0038040315
13	0x3e2075c0	0.15669918
14	0x3bbff92a	0.00585856
15	0x3e090b1d	0.13383146
16	0x3df4b6eb	0.11948951
17	0x3dea0625	0.11426953
18	0xbd0e8a85	-0.03480007
19	0x3c4f8f9f	0.012668519
20	0x3e4c2f6d	0.19939966
21	0x3c5aeed3	0.013362604
22	0x3e0310a0	0.1279931
23	0x3d1816d7	0.037131157
24	0xbe5653ac	-0.20930356
25	0xbe37ca8c	-0.17948359
26	0x3cac8690	0.021060258
27	0xbe192923	-0.14957099
28	0xbc619dd6	-0.013770541
29	0xbe16c18d	-0.14722271
30	0x3e1af42e	0.1513221
31	0xbe3cda93	-0.18442754
32	0x3e3b6f17	0.18304096
33	0x3e4e70f6	0.20160279
34	0xbe44970c	-0.19198245
35	0x3e0dd45a	0.13850537
36	0xbd1587f1	-0.036506597
37	0x3e296003	0.16540532
38	0x3cd056a8	0.025431946
39	0x3e4fb528	0.2028395
40	0xbe128af7	-0.14310823
41	0x3dc6deb4	0.09710446
42	0x3e02e582	0.12782863
43	0x3db88211	0.09009183
44	0xbe5cc0cc	-0.21557921
45	0xbd4be513	-0.04977901
46	0x3e38b356	0.18037161
47	0xbe0b4ada	-0.13602772
48	0x3d2c30f7	0.042038884
49	0x3d86ba2c	0.06578478
50	0x3d7d654f	0.061864194
51	0xbdc77b31	-0.09740294
52	0x3d5f6472	0.05453915
53	0x3e0226ae	0.12710068
54	0xbd2c1cdc	-0.04201971
55	0x3dc4f344	0.09616712
56	0xbd0c8a5d	-0.03431164
57	0x3d9cf40b	0.07663735
58	0x3e194e0b	0.14971177
59	0xbc7d52c0	-0.015461624
60	0xbe1e43c5	-0.1545554
61	0xbe506600	-0.2035141
62	0xbd957376	-0.07297413
63	0x3da3c629	0.079967804
64	0xbe3fbbc8	-0.18723977
65	0x3cfcc279	0.03085445
66	0xbd32360b	-0.04350857
67	0x3d97e307	0.07416349
68	0x3e0c43e7	0.13697778
69	0x3e003a10	0.12522149
70	0xbd935d11	-0.071954854
71	0x3e083c5c	0.13304275
72	0xbe0f21cd	-0.13977738
73	0xbdbe6796	-0.09297101
74	0x3dd80ab3	0.10548916
75	0xbe3f8c87	-0.1870595
76	0xbda86c17	-0.082237415
77	0x3e1b9409	0.1519319
78	0x3e405664	0.18782955
79	0xbe3d1e5b	-0.18468611
80	0xbe0d7122	-0.13812688
81	0xbd833546	-0.064066455
82	0xbdf9a1de	-0.12189077
83	0xbd056833	-0.032570075
84	0x3ddfbe7a	0.109250024
85	0x3d06eace	0.03293877
86	0xbe21f15f	-0.15814732
87	0x3da64a33	0.08119621
88	0x3d33cb8a	0.04389528
89	0x3e1a7bc3	0.15086274
90	0xbe0b3977	-0.1359614
91	0x3e074136	0.1320847
92	0x3e12948c	0.14314479
93	0xbc41ac3d	-0.01182085
94	0xbe07d12b	-0.13263385
95	0x3ca16db9	0.01970564
96	0x3d4d2592	0.050084658
97	0xbdf4ed32	-0.11959304
98	0x3e267ed4	0.16259319
99	0x3c548e6a	0.012973407
100	0x3d2ef532	0.042714305
101	0x3e2516b8	0.16121948
102	0xbd4395ab	-0.047750156
103	0x3d200205	0.039064426
104	0xbdc1b14a	-0.09457643
105	0x3ce21928	0.027599886
106	0x3d9b135e	0.075720534
107	0xbe48683d	-0.19571014
108	0xbdb7be5f	-0.08971857
109	0x3df8e693	0.121533535
110	0x3e22527d	0.1585178
111	0xbb95fb82	-0.004577101
112	0xbd807145	-0.062716044
113	0xbd384e0a	-0.0449963
114	0x3ca434c3	0.02004469
115	0x3da204bb	0.079110585
116	0x3d412669	0.04715577
117	0x3e351c8f	0.17686675
118	0x3dae72ab	0.08517965
119	0xbd8ec83e	-0.06971787
120	0x3d6c2c9d	0.057659734
121	0xbe2a97f1	-0.16659524
122	0xbdf8d044	-0.121490985
123	0xbe1a558a	-0.15071693
124	0x3d36c217	0.044618692
125	0x3cb16f66	0.021659564
126	0xbd0fb842	-0.03508783
127	0xbdbcc794	-0.09217754
128	0x3dad78c0	0.08470297
129	0xbbf8bd8b	-0.0075909547
130	0x3e122470	0.14271712
131	0x3c11b7fa	0.008893961
132	0xbe40c5fb	-0.18825524
133	0xbe33fd83	-0.17577176
134	0xbcf6d1cc	-0.030129336
135	0xbddf623d	-0.10907409
136	0xbe033b57	-0.12815605
137	0x3df37eff	0.11889457
138	0xbdcd7539	-0.10032124
139	0xbe0e0e51	-0.13872649
140	0x3d04401b	0.0322877
141	0xbe0772b2	-0.13227347
142	0x3e3b9dbd	0.18321891
143	0xbdbadcca	-0.091241434
144	0xbe0c5ed8	-0.13708055
145	0xbe177408	-0.14790356
146	0x3e1a3c6d	0.15062113
147	0x3e52da21	0.20591022
148	0xbe43f854	-0.19137698
149	0x3d9b82a6	0.075932786
150	0x3df7a44d	0.12091885
151	0x3e3c301b	0.18377726
152	0xbe289946	-0.16464719
153	0x3c1bc5b1	0.0095075825
154	0x3c94afa7	0.018150164
155	0xbdd5bdb7	-0.10436576
156	0xbdf799d5	-0.12089888
157	0xbca1b593	-0.019739902
158	0x3d39c6be	0.04535555
159	0xbdb4e1fc	-0.088321656
160	0x3da8f581	0.08249951
161	0xbe30e9e8	-0.17276728
162	0xbe2a53d8	-0.16633546
163	0x3e38e766	0.18057021
164	0xbe269229	-0.16266693
165	0xbc2d6473	-0.010583031
166	0xbdfa393b	-0.12217947
167	0x3d9bf4b6	0.07615034
168	0x3e17e4a5	0.14833315
169	0xbb10b669	-0.0022081381
170	0x3c0dd97b	0.008657808
171	0xbe4a20cd	-0.19739075
172	0xbd109c5d	-0.03530537
173	0xbddf1d56	-0.10894267
174	0x3db8abcb	0.09017142
175	0xbc4bd3ba	-0.012440616
176	0xbe2a82d0	-0.16651464
177	0xbd8a506a	-0.06753619
178	0xbe01dba0	-0.12681437
179	0x3cb69b3c	0.022290818
180	0xbdcf7964	-0.10130575
181	0x3d3b0bf0	0.04566568
182	0x3cb4a1b6	0.022049766
183	0x3e5c4041	0.21508886
184	0xbd911edf	-0.07085966
185	0xbd36be72	-0.044615217
186	0x3e4d1225	0.20026453
187	0xbe4d1541	-0.20027639
188	0x3e244972	0.16043642
189	0x3d033d15	0.032040674
190	0x3e21b52e	0.15791771
191	0xbce428ca	-0.027851481
192	0x3cc48289	0.023988025
193	0xbd8d6d16	-0.06905572
194	0x3e228280	0.15870094
195	0x3e3fa7fd	0.18716426
196	0x3e170745	0.14748867
197	0xbde6b346	-0.112646624
198	0x3e0b4647	0.13601027
199	0xbdb94fae	-0.09048401
200	0xbe0ab1b6	-0.13544354
201	0xbd6978e5	-0.05700006
202	0xbe46259e	-0.19350287
203	0x3d995f38	0.07488865
204	0x3d84649e	0.06464504
205	0xbdb71620	-0.08939767
206	0xbe542afe	-0.20719525
207	0x3de09531	0.10965956
208	0x3e0be363	0.1366096
209	0x3e14117f	0.14459799
210	0xbdf3aa91	-0.11897767
211	0x3e1afe9d	0.1513619
212	0xbd7dfef5	-0.062010724
213	0xbe13717f	-0.14398764
214	0xbe3023ac	-0.17201108
215	0x3e43f93e	0.19138047
216	0xbdffde5a	-0.12493582
217	0xbe0c2f76	-0.1368998
218	0xbdf7f75d	-0.12107728
219	0xbbadddbb	-0.0053059733
220	0xbe0966d1	-0.13418128
221	0x3d2571a3	0.040391576
222	0x3d7cd305	0.06172468
223	0xbe03f2b2	-0.1288555
224	0xbe5c8f35	-0.21539004
225	0xbddfbdd5	-0.109248795
226	0x3cf5eee3	0.030021137
227	0xbd816ab7	-0.06319182
228	0x3dbf3711	0.09336675
229	0x3de74689	0.112927504
230	0x3e3e319b	0.1857361
231	0x3e025df7	0.12731157
232	0x3d852431	0.065010436
233	0x3d0e2f5c	0.034713134
234	0xbdd0675a	-0.10175963
235	0xbe38d796	-0.1805099
236	0xbe5ba135	-0.21448214
237	0xbe4c6066	-0.19958648
238	0xbcfe6db7	-0.031058175
239	0x3d52cac6	0.05146291
240	0xbe02f570	-0.1278894
241	0xbded15dc	-0.11576435
242	0x3e026f43	0.12737755
243	0xbcfc01e0	-0.030762613
244	0x3deb643d	0.11493728
245	0x3d9a02b6	0.07520048
246	0x3df63855	0.12022463
247	0x3ca3f279	0.02001308
248	0xbdae154e	-0.08500157
249	0xbe05012c	-0.12988728
250	0xbdc0afad	-0.094085075
251	0x3e082f95	0.13299401
252	0x3deaba11	0.114612706
253	0xbd1bad63	-0.03800715
254	0x3e2bf2ec	0.16791886
255	0x3e04c457	0.12965523

action_layer.bias f4 [4]
0	0xbc404a81	-0.011736513
1	0x3c4dfe67	0.012572861
2	0x3d0bc607	0.0341244
3	0x3932ba8a	0.00017044894

value_layer.weight f4 [1, 128]
0	0x3de7e6d8	0.11323327
1	0x3deb1459	0.114784904
2	0xbe8eaf2c	-0.2786802
3	0xbe77b9ce	-0.24191973
4	0x3c2d1400	0.01056385
5	0xbe18e369	-0.149305
6	0xbe9e260e	-0.30888408
7	0xbebeb84b	-0.3724998
8	0xbe51ff19	-0.20507468
9	0x3db59382	0.088660255
10	0x3e1d9bb5	0.15391429
11	0x3e2852fe	0.16437909
12	0x3e090b12	0.13383129
13	0x3e432344	0.19056422
14	0xbec74446	-0.38919276
15	0xbeb55a86	-0.35420626
16	0xbe8f6cb0	-0.2801261
17	0xbe836af3	-0.25667533
18	0xbeca3027	-0.39489862
19	0x3dc51633	0.09623375
20	0xbe5edd65	-0.21764143
21	0x3b8de934	0.0043307785
22	0xbe3fb647	-0.18721877
23	0x3ca8b971	0.020596238
24	0xbe324894	-0.17410499
25	0xbe519e82	-0.20470622
26	0xbe9ef1d3	-0.31043872
27	0xbe79cfad	-0.24395628
28	0x3d7ea95e	0.06217324
29	0xbe8ebb4a	-0.27877265
30	0xbebbe40f	-0.36697432
31	0xbea1e1d2	-0.316176
32	0xbe8f08b3	-0.27936324
33	0xbeb51882	-0.3537026
34	0x3de188ac	0.11012396
35	0x3d59b916	0.053155027
36	0x3e35c7ee	0.17752048
37	0x3d1b5ba1	0.03792918
38	0x3d8338d7	0.06407326
39	0xbeb92536	-0.36161202
40	0xbe3fc80e	-0.18728659
41	0x3e30b035	0.17254718
42	0xbe889f1a	-0.26683885
43	0xbe13757c	-0.14400285
44	0x3ddc46ce	0.107556924
45	0xbe7b0c02	-0.245163
46	0x3d933456	0.07187717
47	0xbeb93291	-0.36171392
48	0x3e38f346	0.18061551
49	0x3dae8d10	0.08522999
50	0xbeaed1b2	-0.3414436
51	0x3e033469	0.12812962
52	0xbe3b2add	-0.1827807
53	0xbe9939e1	-0.2992697
54	0x3e44ccea	0.19218794
55	0xbea9315b	-0.33045468
56	0xbde0ced2	-0.10976948
57	0xbeb1ffda	-0.34765512
58	0xbe4ba99b	-0.19888918
59	0x3bb060c8	0.005382631
60	0xbe8c4d05	-0.2740251
61	0xbec1ada0	-0.37827778
62	0xbe31eba2	-0.17375043
63	0xbec3155b	-0.3810223
64	0xbe484df6	-0.1956099
65	0x3a4cd33f	0.00078134605
66	0xbea89dbc	-0.32932842
67	0xbe4b521d	-0.19855542
68	0x3e15777e	0.14596364
69	0xbe7c96c7	-0.24666892
70	0x3e082f8b	0.13299386
71	0xbeb6ad8d	-0.35679284
72	0x3e11434b	0.14185826
73	0x3e0e4528	0.13893569
74	0x3d57759d	0.0526024
75	0xbe97a809	-0.29620388
76	0x3d08ab86	0.033366702
77	0xbe9679d3	-0.2938982
78	0xbe512eee	-0.20428059
79	0x3e3a72ee	0.18207905
80	0x3d0db5bb	0.03459714
81	0x3cb61ef2	0.022231553
82	0xbe825818	-0.25457835
83	0x3d10b33e	0.03532719
84	0x3daa95e2	0.08329369
85	0xbe962bce	-0.29330295
86	0xbe705c90	-0.2347281
87	0xbe8f894e	-0.28034443
88	0xbe5e5343	-0.2171145
89	0xbe92d3b4	-0.28677142
90	0xbeb96c6a	-0.36215526
91	0xbea41798	-0.3204925
92	0x3dc8a598	0.097972095
93	0xbe473926	-0.19455394
94	0xbea6458d	-0.32474938
95	0xbea057af	-0.31316897
96	0x3d81c627	0.06336623
97	0x3ddd8b45	0.10817579
98	0xbec25a8c	-0.37959707
99	0x3e0558e3	0.13022189
100	0xbe1223ea	-0.14271513
101	0xbe44940c	-0.191971
102	0xbea9fae6	-0.33199233
103	0x3d7a1568	0.06105557
104	0xbebc854c	-0.36820447
105	0x3e00ebca	0.12589946
106	0xbe87c9e3	-0.26521215
107	0x3e28dd02	0.16490558
108	0xbea2c9d5	-0.3179461
109	0xbe80e82e	-0.2517714
110	0x3d4a8c66	0.0494503
111	0xbea80ad2	-0.32820755
112	0xbe2160ec	-0.15759629
113	0xbe7aaf79	-0.24481
114	0x3e2def44	0.16985804
115	0xbe459590	-0.19295335
116	0x3de9b533	0.11411514
117	0xbe47ca71	-0.19510819
118	0x3d3d2e3b	0.046186667
119	0xbe88130b	-0.2657703
120	0xbebb9ef4	-0.3664471
121	0xbe55e526	-0.20888194
122	0xbec54f8d	-0.38537255
123	0xbe1d18fe	-0.15341565
124	0xbe95e695	-0.29277483
125	0xbec68f74	-0.3878132
126	0x3d99c5e6	0.07508449
127	0xbe7c8b50	-0.24662519
